src/data.pth (torch, 10795 bytes, 6 tensors)

l1.weight f4 [8, 129]
0.6879657 0.7803359 0.16974455 0.043111667 1.1696143 -0.033696987 0.41676962 0.39169097
0.5756567 0.22198392 0.59247845 1.4914905 0.9714394 0.30159354 1.1255993 0.8354126
1.5443573 0.8635949 1.5778786 0.26153645 3.0481982 0.8190533 0.13922602 1.0456084
1.14299 1.7148741 -1.2037252 1.2171004 0.5584063 0.11280573 1.4531484 0.6130548
2.2548 1.545893 0.6227313 0.35625318 0.9305861 -0.3076074 2.1902416 0.72301894
-0.4921808 0.20969132 0.47567388 2.4647694 0.5197069 0.1421204 1.2990209 0.3962746
1.0249599 0.5555205 0.24333985 1.7763497 0.38131428 1.4841832 0.7987907 0.7369858
1.6661394 1.5803815 1.5734552 0.8266383 1.3466895 0.9642044 2.6841702 0.14428614
-0.06107666 0.76209104 1.6039555 -0.46375448 0.4219459 0.9320487 0.49788395 -0.35425267
-0.17245384 0.956576 0.018289497 1.0160649 3.2315943 0.6291795 1.1978455 0.27300656
1.4061662 0.2064759 -0.025344111 1.6543244 1.9359876 0.4579702 0.10234503 0.9975275
-0.90797234 0.12357733 2.4530642 1.1316494 0.26244548 0.07700345 0.743141 1.118743
0.60596883 0.49617523 0.7038244 0.049630966 1.2227852 0.29749832 0.6241909 2.6204252
1.7940764 1.3315519 0.473385 -0.82540303 0.8908873 1.0219549 0.23018487 0.7902891
0.28182545 3.5600312 1.1424155 1.9848388 0.43892968 0.26568556 0.63630015 1.4067407
1.5041231 1.4578886 0.07881993 -0.22651231 0.6941127 0.50825477 0.5748 0.2684393
-1.8157785 1.2822676 2.0629616 1.2597164 0.36132836 1.7731884 0.2752425 -0.24540347
0.62631476 0.7806039 0.92305434 1.6044675 0.78151107 1.1217226 1.4385096 1.4928432
1.7435069 0.42491966 0.6518994 2.1163318 0.10985223 0.95166105 3.1079566 0.040865194
1.9724861 2.358967 1.7960027 0.6703796 0.26438034 1.7176219 1.1890044 1.0245128
1.0700983 0.5085371 1.8505607 0.70452166 0.4039996 2.0161288 0.14152831 3.2173483
-0.34113657 0.9779816 1.2976434 -0.51893574 0.9446141 1.200754 1.9090186 2.8098311
2.8549016 0.21067385 1.5834999 1.7820716 0.768042 2.50673 2.894836 3.1673658
2.6768143 3.2922997 0.55906224 1.4823718 1.5084269 1.5320418 0.59375036 1.1975287
1.8147918 2.9987788 1.8597718 2.1016164 2.3023214 1.0905404 3.0494506 2.5691824
-0.10731561 1.6770711 2.7896202 1.108414 0.5404332 0.8818642 1.3163251 1.2069615
0.38259706 0.8488807 0.028884225 -0.29320517 0.584833 0.49092856 0.51833403 1.1112398
0.96020895 1.738204 0.4633078 4.047959 1.7399964 1.1389292 2.0776198 2.013211
3.8134582 3.2698293 -0.20200524 1.5408885 3.0322535 0.78270847 0.28945795 -0.37077826
1.9481426 0.40297887 0.83557564 0.88753533 2.5626073 1.6908755 1.3529718 1.4320234
0.001105936 -0.040027495 0.50715417 1.1446482 0.5793837 -0.19552295 0.2314294 -0.23150337
1.8527935 0.5056865 2.293707 0.22646455 -0.05964462 1.7411506 -0.56379086 -0.506133
00000000: 851e 303f 18c4 473f 84d1 2d3e dc95 303d
00000010: ecb5 953f da05 0abd d462 d53e b88b c83e
00000020: 3d5e 133f c14f 633e abac 173f 29e9 be3f
00000030: 41b0 783f 786a 9a3e a313 903f 9add 553f
00000040: 80ad c53f 8e14 5d3f edf7 c93f 1be8 853e
00000050: ae15 4340 7aad 513f 4491 0e3e 7fd6 853f
00000060: 7f4d 923f ff80 db3f ab13 9abf f2c9 9b3f
00000070: b7f3 0e3f b106 e73d c400 ba3f 29f1 1c3f
00000080: a54e 1040 d2df c53f 526b 1f3f d166 b63e
00000090: e43a 6e3f b87e 9dbe eb2c 0c40 c517 393f
000000a0: 1fff fbbe 52b9 563e 878b f33e c8be 1d40
000000b0: 830b 053f 0388 113e 5146 a63f 81e4 ca3e
000000c0: e331 833f 9736 0e3f 152e 793e 6d5f e33f
000000d0: a03b c33e b7f9 bd3f 8c7d 4c3f 1aab 3c3f
000000e0: 0e44 d53f f149 ca3f fb66 c93f 919e 533f
000000f0: 5260 ac3f 19d6 763f 72c9 2b40 bfbf 133e
00000100: 852b 7abd 6618 433f 6a4e cd3f 3a71 edbe
00000110: 4b09 d83e be9a 6e3f a5ea fe3e 9b60 b5be
00000120: bd97 30be 2ae2 743f dbd3 953c 6a0e 823f
00000130: 71d2 4e40 e811 213f 0053 993f 84c7 8b3e
00000140: 41fd b33f 6b6e 533e 749e cfbc e7c0 d33f
00000150: 71ce f73f 127b ea3e 459a d13d f65d 7f3f
00000160: e070 68bf 1c16 fd3d 01ff 1c40 e3d9 903f
00000170: 415f 863e fcb3 9d3d 7d3e 3e3f f832 8f3f
00000180: c620 1b3f ae0a fe3e d62d 343f d749 4b3d
00000190: 3a84 9c3f b351 983e faca 1f3f 0cb5 2740
000001a0: 4ca4 e53f 4b70 aa3f 855f f23e 9d4d 53bf
000001b0: 3111 643f 6bcf 823f 95b5 6b3e 6350 4a3f
000001c0: 6d4b 903e 8dd7 6340 ac3a 923f 330f fe3f
000001d0: 64bb e03e f007 883e 91e4 223f 1410 b43f
000001e0: 1b87 c03f 189c ba3f 586c a13d d8f2 67be
000001f0: 5fb1 313f fc1c 023f 1826 133f e070 893e
00000200: 6e6b e8bf 5821 a43f 9007 0440 633e a13f
00000210: 0800 b93e d6f7 e23f 96ec 8c3e 0c4b 7bbe
00000220: 2a56 203f a8d5 473f 4a4d 6c3f 315f cd3f
00000230: 1c11 483f 9b94 8f3f 1521 b83f 7c15 bf3f
00000240: 3c2b df3f 128f d93e e1e2 263f fb71 0740
00000250: 35fa e03d 0fa0 733f c3e8 4640 4362 273d
00000260: 6d7a fc3f 51f9 1640 6be3 e53f ff9d 2b3f
00000270: dc5c 873e 09db db3f 4c31 983f 3c23 833f
00000280: fbf8 883f 7d2f 023f 2cdf ec3f 885b 343f
00000290: 09d9 ce3e 4108 0140 ccec 103e 09e9 4d40
000002a0: 74a9 aebe 015d 7a3f 2e19 a63f f9d8 04bf
000002b0: 3bd2 713f 4fb2 993f b95a f43f 46d4 3340
000002c0: b5b6 3640 e3ba 573e 20b0 ca3f ec1a e43f
000002d0: 679e 443f 446e 2040 fe44 3940 1fb6 4a40
000002e0: ed50 2b40 0ab5 5240 b41e 0f3f 5cbe bd3f
000002f0: 2214 c13f f219 c43f 0600 183f 9f48 993f
00000300: 194b e83f feeb 3f40 010d ee3f e280 0640
00000310: 3c59 1340 d496 8b3f 332a 4340 7c6d 2440
00000320: 49c8 dbbd 44aa d63f 2389 3240 83e0 8d3f
00000330: d559 0a3f dac1 613f 577d a83f b77d 9a3f
00000340: c3e3 c33e 3f50 593f 9c9e ec3c fd1e 96be
00000350: 9eb7 153f fd5a fb3e 8ab1 043f 1b3d 8e3f
00000360: 41d0 753f 787d de3f ae36 ed3e e188 8140
00000370: 34b8 de3f 6fc8 913f b9f7 0440 73d8 0040
00000380: b30f 7440 e244 5140 76da 4ebe d63b c53f
00000390: 7110 4240 955f 483f d533 943e a6d6 bdbe
000003a0: bd5c f93f 3f53 ce3e 49e8 553f 8435 633f
000003b0: c201 2440 9c6e d83f 2e2e ad3f 8b4c b73f
000003c0: 0ef5 903a dff3 23bd dbd4 013f d583 923f
000003d0: 7d52 143f 2b37 48be d4fb 6c3e 380f 6dbe
000003e0: 5628 ed3f ac74 013f 18cc 1240 53e6 673e
000003f0: eb4d 74bd 06de de3f 9954 10bf ef91 01bf

l1.bias f4 [8]
1.7574888 1.5630078 2.3790495 2.258245 2.1332247 2.3463745 1.8288845 1.2540454
00000000: 65f5 e03f a410 c83f 5942 1840 1687 1040
00000010: c186 0840 002b 1640 e318 ea3f 8f84 a03f

l2.weight f4 [8, 8]
3.0148551 2.6443422 -2.0574079 0.7540779 1.7672265 1.5101035 3.0022058 -0.38508335
-0.79160386 1.829322 1.0664026 2.9055884 0.5064809 -0.9151182 0.9454826 0.6251857
-0.60176617 -0.76542324 2.8901348 2.980295 1.1712103 4.2406335 3.1749954 0.19254519
1.3632499 1.014364 2.2945924 -2.396012 1.665494 -0.35366112 -0.5789518 2.0555832
2.893432 -0.17513989 1.7591934 2.1672707 2.91137 1.6792438 -1.8517975 1.3129462
0.10133745 -0.20846997 -0.23407738 0.24475288 -0.16705337 -0.0650788 -0.27189055 -0.1477977
1.2279013 3.2274349 2.2713485 -0.85131395 -1.305466 -0.23207206 2.1978233 3.8961036
1.095196 1.9616697 2.929426 0.16188611 2.1907287 -0.8609386 0.6141412 -1.6811156
00000000: 63f3 4040 e73c 2940 92ac 03c0 400b 413f
00000010: 7a34 e23f 124b c13f 2424 4040 a529 c5be
00000020: 8da6 4abf 3927 ea3f e17f 883f 29f5 3940
00000030: bba8 013f 3045 6abf 260b 723f 2c0c 203f
00000040: 590d 1abf c7f2 43bf f8f7 3840 27bd 3e40
00000050: 38ea 953f 45b3 8740 2033 4b40 912a 453e
00000060: f97e ae3f aed6 813f 9ada 1240 4358 19c0
00000070: e82e d53f 1213 b5be 2f36 14bf ad8e 0340
00000080: fd2d 3940 df57 33be 402d e13f 90b4 0a40
00000090: e353 3a40 76f1 d63f b307 edbf 9f0e a83f
000000a0: 028a cf3d 2779 55be fbb1 6fbe 80a0 7a3e
000000b0: 0a10 2bbe 0948 85bd 3d35 8bbe 4858 17be
000000c0: df2b 9d3f 4b8e 4e40 c65d 1140 b6ef 59bf
000000d0: 8319 a7bf 4ca4 6dbe 23a9 0c40 c359 7940
000000e0: 622f 8c3f fe17 fb3f b77b 3b40 79c5 253e
000000f0: e634 0c40 7966 5cbf 5c38 1d3f cc2e d7bf

l2.bias f4 [8]
0.76087874 0.6280425 1.602715 -0.017985115 1.456788 -0.25902358 0.6985092 0.22376895
00000000: f3c8 423f 65c7 203f c425 cd3f 8555 93bc
00000010: 0778 ba3f bd9e 84be 80d1 323f b023 653e

l3.weight f4 [44, 8]
0.967505 -2.2766988 -0.5444499 -0.79739213 0.4906221 -0.19172387 -2.7900836 -0.6208542
0.62377787 -1.0537723 -2.5975287 0.051980555 0.110104665 -0.36994472 -1.9480591 0.33889604
-0.20269579 -0.08703472 -1.5393149 0.66299236 -2.7808158 0.124838255 0.86780524 -2.4224746
0.5243591 -3.639085 -0.7986285 -0.63014835 -0.19493201 -0.09844505 -0.7395668 -0.31966186
-0.32873136 -1.0255761 -0.6598632 -0.059559997 -3.277755 -0.10702559 0.020360446 0.16116829
0.37742645 -2.1774213 -2.407683 0.25387993 -2.1115854 -0.10641448 0.46533984 -0.08259894
0.36154765 -2.8640044 0.4508396 -0.14057489 0.5606921 -0.0896408 -0.6686529 -5.1258726
-3.6040637 0.95509595 0.2967351 -1.3242553 0.43351945 0.079733975 -1.4574965 -0.549362
-2.6026301 -1.7478337 0.6608539 0.6001985 0.8153219 0.22060907 -0.2789125 -3.7517917
-0.5053208 -3.4809387 0.027287858 0.9819684 1.0594208 -0.016371079 -2.5766344 -1.0547495
-2.2796884 -0.44598222 0.27833626 -0.4096665 0.47738183 0.14747043 -3.1580331 0.61483884
-4.0605073 0.15017368 -0.77669215 0.5850651 0.6716497 -0.20535773 -1.2867094 0.09143813
-1.5447185 0.31954145 -0.9337757 -0.5516351 -0.8765527 -0.18343072 -0.7237835 0.059204657
-1.7517478 0.2414096 -1.2993666 -0.04546249 -0.41870824 -0.07406313 0.7838892 -2.862203
-0.4651522 -1.1394544 -1.1300329 -0.3066475 0.5767077 0.26062885 -1.8404181 -0.2047785
-1.1462175 0.21057336 -3.1235328 0.09678823 0.15839936 -0.24030335 -0.31386292 -0.3034578
-0.6368451 -0.26769575 0.47413045 -1.079038 -3.530307 -0.14790294 -0.11298164 -0.5877517
-0.4907389 -0.19554605 -0.24411096 -1.1459274 -1.8445714 -0.20406477 -1.0454683 0.17697173
-0.3015862 0.4641428 -0.45052522 -0.452861 -2.5133388 -0.16924994 -0.025696594 -1.7302594
0.36181167 -0.5845407 -0.69455063 -1.1396134 -0.62736297 0.015629843 -1.7457808 -0.37012437
0.2540712 -0.36967385 -1.5073903 -0.49168724 -1.264331 0.2923116 -0.6882627 -0.57912904
0.90357536 -0.39920893 0.7795784 -2.4054806 -0.04233485 -0.014621974 -2.3907223 -3.6611013
-2.1996808 1.1831226 -2.1586292 0.1297882 -2.3182905 0.1118661 0.86592096 -0.58270943
-0.058569856 0.9323552 -0.3614562 -1.7712073 -0.33722302 0.2596447 0.07515054 -5.045226
-0.62642664 -0.8743188 -0.73392564 -0.6373147 -0.2490078 0.09243005 -0.45893174 -1.2125772
-3.957686 0.14225084 -0.41834182 0.048736904 0.366927 -0.025136445 0.046720125 -1.4693316
-1.3565139 -0.7525331 -1.104569 0.2794814 -1.1004528 0.23535766 0.122951426 -0.7155392
-1.948034 -1.2401977 0.09896216 0.38820946 -0.49933335 0.103970215 -1.1561347 -0.31406635
-1.9544053 0.4212209 0.2512537 -1.7304676 -1.0544728 -0.1061216 -0.10166149 -1.2260982
-3.181845 -0.41347787 -1.2817651 0.31084427 -0.49695304 0.14192313 -0.17961021 0.4952265
-3.2639549 -0.041725196 0.09588913 0.44563589 -1.8763404 0.24912955 0.4220238 -0.8248561
-0.5457257 1.1633617 0.33298513 -2.1230228 -2.2813263 0.2266615 0.7137192 -4.0741606
00000000: 68ae 773f 6fb5 11c0 1261 0bbf e421 4cbf
00000010: d232 fb3e 4353 44be bb90 32c0 4df0 1ebf
00000020: e8af 1f3f 03e2 86bf e93d 26c0 90e9 543d
00000030: 8e7e e13d 6569 bdbe 005a f9bf c883 ad3e
00000040: 7c8f 4fbe 423f b2bd 4508 c5bf deb9 293f
00000050: e3f8 31c0 33ab ff3d 7c28 5e3f d309 1bc0
00000060: 663c 063f c5e6 68c0 eb72 4cbf 6751 21bf
00000070: 429c 47be 8f9d c9bd 4054 3dbf b8aa a3be
00000080: 7a4f a8be 1446 83bf cbec 28bf 2ff5 73bd
00000090: bdc6 51c0 3c30 dbbd f3ca a63c 4d09 253e
000000a0: 0a3e c13e df5a 0bc0 7a17 1ac0 8dfc 813e
000000b0: 3724 07c0 d6ef d9bd 0641 ee3e a229 a9bd
000000c0: c61c b93e d94b 37c0 73d4 e63e ddf2 0fbe
000000d0: 8489 0f3f 9995 b7bd d62c 2bbf 2607 a4c0
000000e0: fba8 66c0 2b81 743f aaed 973e 3381 a9bf
000000f0: 43f6 dd3e 914b a33d 3f8f babf fda2 0cbf
00000100: 7e91 26c0 04b9 dfbf b92d 293f 9ca6 193f
00000110: f0b8 503f 58e7 613e 9fcd 8ebe 5b1d 70c0
00000120: b45c 01bf b3c7 5ec0 c98a df3c 4862 7b3f
00000130: 1a9b 873f a41c 86bc 94e7 24c0 0802 87bf
00000140: 6ae6 11c0 c857 e4be 1782 8e3e cfbf d1be
00000150: 646b f43e 7d02 173e 371d 4ac0 1466 1d3f
00000160: adef 81c0 21c7 193e 4cd5 46bf d4c6 153f
00000170: 3cf1 2b3f 4c49 52be e5b2 a4bf ea43 bb3d
00000180: 56b9 c5bf f09a a33e ed0b 6fbf f537 0dbf
00000190: c265 60bf 43d5 3bbe e049 39bf 9580 723d
000001a0: 4639 e0bf 1434 773e a551 a6bf e036 3abd
000001b0: ed60 d6be 69ae 97bd f6ac 483f 552e 37c0
000001c0: 6e28 eebe a4d9 91bf eba4 90bf e700 9dbe
000001d0: 1ea3 133f 2571 853e d292 ebbf 75b1 51be
000001e0: 41b7 92bf 8ba0 573e f6e7 47c0 e838 c63d
000001f0: 7133 223e 1512 76be a4b2 a0be d25e 9bbe
00000200: 4808 23bf 6b0f 89be 3ac1 f23e eb1d 8abf
00000210: 8df0 61c0 de73 17be eb62 e7bd e576 16bf
00000220: 2142 fbbe 393d 48be 39f8 79be c0ad 92bf
00000230: ea1a ecbf 5bf6 50be e8d1 85bf 1438 353e
00000240: 8269 9abe 20a4 ed3e 3eab e6be 66dd e7be
00000250: 8bda 20c0 db4f 2dbe aa81 d2bc 2479 ddbf
00000260: 613f b93e 76a4 15bf 12ce 31bf dade 91bf
00000270: dc9a 20bf 280a 803c bf75 dfbf f180 bdbe
00000280: 9f15 823e e445 bdbe 2af2 c0bf 6ebe fbbe
00000290: 99d5 a1bf dea9 953e fc31 30bf cd41 14bf
000002a0: b750 673f 1d65 ccbe 7392 473f 65f3 19c0
000002b0: 4f67 2dbd 0191 6fbc 9801 19c0 7c4f 6ac0
000002c0: 92c7 0cc0 9070 973f fb26 0ac0 33e7 043e
000002d0: df5e 14c0 0e1a e53d ffac 5d3f 722c 15bf
000002e0: f2e6 6fbd d5ae 6e3f c910 b9be ecb6 e2bf
000002f0: 7fa8 acbe 26f0 843e 87e8 993d 7e72 a1c0
00000300: 7f5d 20bf 5bd3 5fbf 8de2 3bbf 0e27 23bf
00000310: e7fb 7ebe f74b bd3d 1af9 eabe bb35 9bbf
00000320: ba4a 7dc0 34aa 113e e630 d6be 59a0 473d
00000330: dbdd bb3e f2ea cdbc 9a5d 3f3d 0f13 bcbf
00000340: 3fa2 adbf 02a6 40bf 8462 8dbf 3018 8f3e
00000350: a3db 8cbf 9901 713e f5cd fb3d 942d 37bf
00000360: 2e59 f9bf ccbe 9ebf acac ca3d 64c3 c63e
00000370: 9fa8 ffbe 56ee d43d 39fc 93bf 4ecd a0be
00000380: f429 fabf 44aa d73e 53a4 803e f67f ddbf
00000390: f7f8 86bf 4856 d9bd e633 d0bd c9f0 9cbf
000003a0: 59a3 4bc0 5fb3 d3be e110 a4bf fb26 9f3e
000003b0: a170 febe 4c54 113e bdeb 37be 548e fd3e
000003c0: a3e4 50c0 0ae8 2abd 8561 c43d 632a e43e
000003d0: ec2b f0bf d11b 7f3e 8113 d83e c529 53bf
000003e0: aeb4 0bbf 09e9 943f 077d aa3e 9bdf 07c0
000003f0: 4001 12c0 f419 683e 4db6 363f 865f 82c0

l3.bias f4 [44]
-0.44647214 -0.09991951 -0.30005133 -0.10569105 -0.2258582 -0.1070456 0.64180255 -0.092559434
-0.10392945 -0.28595152 -0.9062625 -0.74018717 -0.8321383 -0.050374728 -0.4747534 0.0005363677
-0.22645304 -0.70840615 -0.29437113 -0.8976544 -0.34435976 -0.47393638 -0.20036153 0.56235874
-0.46411636 -0.22176659 0.13799694 0.89135736 0.26685658 -0.3732942 -0.34134358 0.26580143
1.5235069 0.43346316 -0.7007056 -0.5083315 0.65706843 -0.26658136 -0.2841979 0.38164696
-0.20730709 -0.3422281 -0.1651075 -0.7973252
00000000: ff97 e4be 9aa2 ccbd 54a0 99be 8d74 d8bd
00000010: 5f47 67be b93a dbbd 2c4d 243f cd8f bdbd
00000020: f7d8 d4bd 3d68 92be d200 68bf e87c 3dbf
00000030: 0407 55bf bb55 4ebd e112 f3be 079b 0c3a
00000040: 4ee3 67be 1b5a 35bf d0b7 96be aecc 65bf
00000050: ec4f b0be caa7 f2be 932b 4dbe bef6 0f3f
00000060: a9a0 edbe c816 63be 124f 0d3e ff2f 643f
00000070: 6da1 883e 6b20 bfbe 96c4 aebe 2017 883e
00000080: 4602 c33f e2ee dd3e 7161 33bf 0322 02bf
00000090: a335 283f 5a7d 88be 6382 91be 3b67 c33e
000000a0: 4f48 54be 8638 afbe f111 29be 811d 4cbf
