src/data.pth (torch, 8735 bytes, 6 tensors)

l1.weight f4 [8, 105]
-0.46122888 0.061615627 -0.42108288 0.5569011 0.46819538 0.08714005 0.62152165 0.434211
0.22936772 0.13980445 -0.2666536 0.094033584 -0.17119586 0.7341933 0.2988614 0.40274262
-0.16456039 0.8837032 0.36225003 0.402887 -0.0013758065 0.83251274 0.4011852 -0.3459361
-0.5645724 -0.38194096 0.23180006 0.4778271 -0.26582575 0.8228865 1.0739423 0.06300979
-0.447545 -1.1625816 0.8458548 -0.3419029 0.81943846 0.7241156 -0.48089248 -0.8527378
1.2130861 -0.8189543 -0.8324074 0.054723814 -0.5287298 0.3729083 -0.4646569 -0.046149127
0.4296248 -0.17702305 0.5546735 0.6039663 1.6755853 -1.2577788 -0.6144253 -0.69941586
-1.2004092 0.5393491 0.42231485 0.7035424 0.9148719 0.38293594 0.46709624 0.56294966
-0.46980554 -0.37151885 0.28335777 0.6849876 -0.47696885 -0.18615057 1.7296493 -0.9942354
-0.3716747 0.9962086 0.27779153 -0.5446437 -1.129105 0.39995262 0.051312525 0.038455356
0.19490153 0.4870314 0.51185995 0.22216764 0.12389599 0.11575886 -0.4734056 -0.23275858
0.92253876 1.1977751 0.49315804 -0.3182174 -0.2522475 0.45855668 -0.14696713 -0.99203664
-0.31395677 -0.48378262 0.14706433 -0.43024403 -0.41332924 -0.15683967 -0.06482666 -0.37320432
0.18069544 0.4729915 0.026461322 0.32789534 0.44364488 0.049645584 0.13947222 0.21256922
0.2663898 0.5548539 0.55979687 -0.11552235 0.29652888 0.28084946 -0.6802323 -0.1518628
-0.39591557 -0.50438344 -0.85267335 -0.38748312 0.27624786 0.04286001 0.23044336 -0.5225825
-0.1351538 0.20131049 0.87500936 1.3012569 -0.09678878 0.095433526 -0.34718648 -0.21866973
0.07045596 0.3032927 0.8769594 0.25549173 0.18558758 -0.8552202 -0.6803228 -0.39354315
0.13145185 -0.6201011 0.15211667 0.13947958 1.1333994 -0.42142442 -0.5162359 0.31909385
0.7134152 -0.25413606 -0.5311857 -0.23695521 0.48880866 -1.0376847 1.2882912 0.88284314
1.0803453 1.1177355 -0.5096834 -0.26327607 0.76496387 0.09921836 -0.10154406 0.18799028
0.015176664 -0.055905897 -0.061955903 -0.4207822 0.17668115 -0.074656785 0.51781577 -1.4261247
0.5809275 0.29363573 -0.21886258 0.2220912 0.73491675 1.2215017 0.4515528 1.3083198
1.3558848 0.0400097 -0.352058 -0.15676065 0.6781662 0.0665926 0.68598646 -0.90155303
-0.05210419 0.024035232 -0.8680668 -0.27439398 0.82723504 -0.04566051 -0.32290623 0.08138052
-0.36826515 0.652609 -0.16988112 -0.025297461 -0.046293844 0.7699493 0.3662644 0.4917431
0.33056688 -0.2486731 0.6445442 1.2201637 0.7099718 0.518335 0.7147367 -0.35610142
-0.010207042 0.14517534 0.9060036 0.47306576 -0.15169007 0.3097293 -0.5713932 0.75230163
-0.6257896 0.6980978 0.49191338 1.031171 0.7145262 0.75382495 -0.81381446 -0.47669345
0.2642479 0.2867363 -0.81620127 0.52518797 0.52216786 -0.21159834 0.16289672 0.38418767
1.4387739 -0.60913956 -0.56319284 0.82361484 -0.35560364 -0.06724576 1.0045314 0.721539
0.56132287 0.16017845 -1.0055918 0.12591502 0.17050904 0.6334325 0.5905261 0.7613869
00000000: 3126 ecbe ab60 7c3d 2d98 d7be 1291 0e3f
00000010: 4eb7 ef3e 7c76 b23d 0b1c 1f3f e750 de3e
00000020: 5fdf 6a3e e628 0f3e d286 88be ae94 c03d
00000030: f84d 2fbe 18f4 3b3f 5d04 993e 4834 ce3e
00000040: 8582 28be 5f3a 623f d678 b93e 3447 ce3e
00000050: 6854 b4ba 8e1f 553f 2668 cd3e 891e b1be
00000060: d187 10bf c48d c3be ff5c 6d3e c1a5 f43e
00000070: 501a 88be b1a8 523f f176 893f 470b 813d
00000080: 9e24 e5be 79cf 94bf f189 583f e60d afbe
00000090: b8c6 513f a45f 393f 8a37 f6be 064d 5abf
000000a0: 6846 9b3f fda6 51bf a718 55bf 1426 603d
000000b0: d65a 07bf d6ed be3e 82e7 edbe de06 3dbd
000000c0: c8f7 db3e 8845 35be 15ff 0d3f 899d 1a3f
000000d0: 9479 d63f e5fe a0bf fa4a 1dbf eb0c 33bf
000000e0: 02a7 99bf c812 0a3f a739 d83e 5b1b 343f
000000f0: 0b35 6a3f 2e10 c43e 3d27 ef3e 781d 103f
00000100: 5a8a f0be b837 bebe 4514 913e 595b 2f3f
00000110: 4335 f4be 419e 3ebe 2665 dd3f 3686 7ebf
00000120: 254c bebe 8707 7f3f b13a 8e3e c56d 0bbf
00000130: 8386 90bf 97c6 cc3e 152d 523d 5d83 1d3d
00000140: 4494 473e 2e5c f93e 4109 033f ea7f 633e
00000150: 2ebd fd3d fb12 ed3d 3862 f2be 4458 6ebe
00000160: 802b 6c3f b250 993f 367f fc3e 64ed a2be
00000170: 9626 81be f1c7 ea3e 8d7e 16be 1df6 7dbf
00000180: f1be a0be 5bb2 f7be 0898 163e f248 dcbe
00000190: e49f d3be 949a 20be d7c3 84bd a314 bfbe
000001a0: 3a08 393e f12b f23e 6ac5 d83c e6e1 a73e
000001b0: 6c25 e33e 2b59 4b3d ced1 0e3e bfab 593e
000001c0: 3e64 883e e80a 0e3f d94e 0f3f fb96 ecbd
000001d0: a2d2 973e 80cb 8f3e b423 2ebf ec81 1bbe
000001e0: 72b5 cabe 461f 01bf cd48 5abf 3064 c6be
000001f0: 5c70 8d3e fa8d 2f3d 58f9 6b3e f7c7 05bf
00000200: c265 0abe 5624 4e3e 9d00 603f 968f a63f
00000210: 3239 c6bd a772 c33d 6dc2 b1be f5ea 5fbe
00000220: 374b 903d 2e49 9b3e 6980 603f d0cf 823e
00000230: ac0a 3e3e b6ef 5abf a329 2ebf 7d7e c9be
00000240: 509b 063e f2be 1ebf 79c4 1b3e bcd3 0e3e
00000250: 3b13 913f f1c4 d7be 0928 04bf 4560 a33e
00000260: 61a2 363f 1f1e 82be c9fb 07bf 63a4 72be
00000270: 2145 fa3e dad2 84bf bae6 a43f 0202 623f
00000280: c148 8a3f f511 8f3f 9c7a 02bf 1fcc 86be
00000290: acd4 433f ff32 cb3d 55f6 cfbd 8680 403e
000002a0: 8ba7 783c 95fd 64bd 79c5 7dbd c470 d7be
000002b0: e7eb 343e a8e5 98bd 938f 043f 418b b6bf
000002c0: aab7 143f 6c57 963e 831d 60be e06b 633e
000002d0: 8123 3c3f 2b5a 9c3f ee31 e73e 0677 a73f
000002e0: a28d ad3f 36e1 233d f240 b4be dd85 20be
000002f0: 4d9c 2d3f b361 883d cf9c 2f3f 2ecc 66bf
00000300: 346b 55bd 89e5 c43c a039 5ebf 5e7d 8cbe
00000310: adc5 533f 8406 3bbd f753 a5be d4aa a63d
00000320: 408d bcbe 6211 273f 51f5 2dbe 9f3c cfbc
00000330: 9d9e 3dbd 661b 453f 0287 bb3e c0c5 fb3e
00000340: 1040 a93e 29a4 7ebe d900 253f 532e 9c3f
00000350: b6c0 353f 9ab1 043f fcf8 363f ed52 b6be
00000360: 703b 27bc d8a8 143e daef 673f ad35 f23e
00000370: a454 1bbe d794 9e3e d346 12bf d796 403f
00000380: bf33 20bf 8ab6 323f 12dc fb3e 69fd 833f
00000390: 30eb 363f acfa 403f 2556 50bf 2a11 f4be
000003a0: 804b 873e 1acf 923e 91f2 50bf b872 063f
000003b0: cbac 053f 3cad 58be 66ce 263e 3fb4 c43e
000003c0: be29 b83f 92f0 1bbf 682d 10bf 6cd8 523f
000003d0: ae11 b6be 25b8 89bd 7c94 803f c8b6 383f
000003e0: dbb2 0f3f d205 243e 3bb7 80bf deef 003e
000003f0: ec99 2e3e a228 223f b82c 173f 40ea 423f

l1.bias f4 [8]
1.61876 0.86818576 0.8986383 1.4466711 1.0538449 0.5014246 1.5572811 0.97906375
00000000: 8733 cf3f 6c41 5e3f 290d 663f 852c b93f
00000010: 64e4 863f 5d5d 003f fd54 c73f eca3 7a3f

l2.weight f4 [8, 8]
0.9112838 -1.6576557 1.1425048 -0.9608153 1.0870634 0.5309658 -0.6691808 1.706974
-1.1054261 1.3659075 2.0391812 0.86458236 0.3730049 2.7595785 2.564849 1.9413787
0.37070036 1.6476674 0.78442657 1.6749307 2.1233358 0.7032337 -1.8984346 0.12795784
0.9090225 -0.54058754 -0.42674708 0.9934818 -0.19084531 -0.6888539 -1.3620118 1.4809247
1.5180069 -1.1059774 -1.1731759 0.2881003 -0.35383144 0.6218268 0.8213386 1.3835526
1.5760893 -1.9858661 1.8777577 -0.73195773 0.3184038 -0.47813565 -0.21065797 0.2361752
0.8081783 -0.5541204 -1.427464 1.6902249 0.37383306 0.6264158 -0.1765384 1.4173051
2.1321805 0.23905393 1.1014432 0.68407553 1.4621242 -2.1751385 1.2896347 -1.5427345
00000000: e549 693f 102e d4bf 993d 923f fef7 75bf
00000010: e524 8b3f 60ed 073f 6f4f 2bbf 207e da3f
00000020: 9a7e 8dbf 0fd6 ae3f f281 0240 4555 5d3f
00000030: 80fa be3e ef9c 3040 7c26 2440 197f f83f
00000040: 70cc bd3e c4e6 d23f 2ed0 483f 2164 d63f
00000050: bce4 0740 2007 343f e8ff f2bf 6107 033e
00000060: b3b5 683f f263 0abf 987e dabe d354 7e3f
00000070: f46c 43be bb58 30bf 6756 aebf f18e bd3f
00000080: 0d4e c23f ab90 8dbf a12a 96bf e281 933e
00000090: 6529 b5be 0b30 1f3f 3f43 523f 4018 b13f
000000a0: 4bbd c93f dc30 febf 5d5a f03f 9561 3bbf
000000b0: d305 a33e 32ce f4be b9b6 57be e9d7 713e
000000c0: c6e4 4e3f d6da 0dbf 24b7 b6bf 4a59 d83f
000000d0: 0c67 bf3e c95c 203f 7bc6 34be 416a b53f
000000e0: a575 0840 8eca 743e 17fc 8c3f 931f 2f3f
000000f0: e326 bb3f 7835 0bc0 c012 a53f 5378 c5bf

l2.bias f4 [8]
0.16845034 0.84729856 -0.20612021 0.47668096 0.5263383 -0.13500871 1.0161345 1.4815427
00000000: 3f7e 2c3e 8fe8 583f 2d11 53be 870f f43e
00000010: 1bbe 063f b93f 0abe b210 823f 31a3 bd3f

l3.weight f4 [28, 8]
-0.6124724 -1.8449922 0.42817748 0.9586897 -0.6793452 -1.9143866 0.5898583 0.4231306
-0.0848565 -1.1448152 0.47922686 -0.020751677 -0.2403092 -0.6608571 0.39325765 -0.34777153
0.049782887 0.43714792 -0.16321094 -1.6510226 -2.7770264 -0.18067315 -2.50046 -0.5806024
0.33501843 0.1896825 -2.1792843 0.37194514 0.8122607 -0.67825353 0.3739094 -2.8566186
0.15666907 0.15205307 -0.36259502 1.0044719 -1.3568424 -0.49782184 -0.12637705 -1.5845337
0.7637671 0.35014534 -1.8360319 -1.9339145 -0.19776766 0.4739164 -1.1164597 -1.5065212
0.51093686 -0.38985857 -0.86999166 -2.60422 -1.1437235 0.3948972 -1.5920045 0.45850354
-1.4964205 -0.7729469 0.7141951 -0.43995073 -1.8783941 -2.3235397 0.043023888 0.45627752
-1.3372359 0.31245628 0.8827073 -2.574059 -3.1960797 -1.3122731 -1.1102157 -1.7316606
0.29243094 -0.09140887 0.39413312 0.15273768 -2.2599247 -3.093866 0.02503164 -0.9664878
-0.14832197 -0.17399277 0.4304502 -2.4676502 -3.2188468 -1.7649529 -0.30632696 0.18840002
-1.6716194 0.7047518 -0.1600246 -1.8829898 -3.7104948 -2.7384617 -1.0130153 -0.5244629
-1.4620571 0.71739477 -2.431405 -2.2247677 -0.66505706 -2.1029935 -0.9376421 0.30969766
-0.15692347 -0.124995776 -3.5393395 -2.5910864 -0.325204 0.20724979 -0.2502563 1.0193614
0.42282325 0.40698758 -0.7768438 -2.8443263 0.08378239 -3.2801332 0.3966148 -1.1631604
-0.53054166 0.9234886 -1.2622422 -1.5659847 -0.15316936 -1.5464358 -1.907254 -2.132646
-3.0423636 0.4961419 -0.7703995 -2.448414 0.7003039 -1.7791837 0.707037 -2.7446887
-1.0686258 -0.35414943 -0.576657 -1.5553846 0.31166846 -1.2859678 0.65819067 0.7632375
0.33682626 -2.1360927 -0.1728697 0.65325534 0.26327246 0.11738932 0.38277113 0.15367162
0.61792606 -2.0222714 0.029600533 0.09682282 -0.5702345 0.7372612 -1.1473224 0.42530712
0.36669537 -0.9928214 0.46717864 -0.85819495 -2.4673073 -0.11467906 -0.35721192 0.31894967
0.18472233 -0.5051807 -2.6463823 0.26562372 0.72311455 -0.25774497 0.48570028 -0.0053330692
-0.37756604 -0.5017134 0.3339228 -2.992836 -2.9148242 -0.2767845 -2.7706926 0.7201524
-1.911719 0.27166718 -0.41150373 -0.19729821 -2.4845037 -2.820572 -2.4116645 0.70637167
-0.06190435 -0.52936053 -0.28163382 0.4917644 0.46672383 -2.2511704 0.6038363 -1.0547918
0.24800539 -0.27103168 -0.0959323 -3.2753417 -0.53241354 -0.2600959 -0.006901585 -0.20643876
-1.5047143 0.20778875 0.13509426 -4.1245446 -1.4655465 -2.9061542 0.6714095 -0.37510982
-2.5010173 -0.07180374 0.59320104 0.31528693 -0.84502614 -1.5507007 0.6104112 -2.141923
00000000: feca 1cbf b428 ecbf 143a db3e b06c 753f
00000010: 91e9 2dbf 9f0a f5bf f400 173f 93a4 d83e
00000020: 3fc9 adbd 4e89 92bf 395d f53e 6cff a9bc
00000030: 9d13 76be ee2d 29bf 1159 c93e 1c0f b2be
00000040: 24e9 4b3d dad1 df3e c520 27be b554 d3bf
00000050: cdba 31c0 6202 39be 8907 20c0 5ca2 14bf
00000060: 8987 ab3e 213c 423e 6579 0bc0 986f be3e
00000070: 51f0 4f3f 06a2 2dbf 0e71 bf3e d7d2 36c0
00000080: db6d 203e cdb3 1b3e 0ea6 b9be 8992 803f
00000090: 03ad adbf 81e2 febe fc68 01be 00d2 cabf
000000a0: 3e86 433f 4046 b33e 1803 ebbf 838a f7bf
000000b0: 9b83 4abe 2ca5 f23e 27e8 8ebf b0d5 c0bf
000000c0: c2cc 023f 8b9b c7be c6b7 5ebf 8aab 26c0
000000d0: 8865 92bf f72f ca3e cec6 cbbf fac0 ea3e
000000e0: b58a bfbf d9df 45bf 7dd5 363f 3941 e1be
000000f0: 386f f0bf e0b4 14c0 d139 303d 359d e93e
00000100: 8c2a abbf 45fa 9f3e 1bf9 613f 62bd 24c0
00000110: 928c 4cc0 91f8 a7bf 8c1b 8ebf 0ea7 ddbf
00000120: 82b9 953e 9334 bbbd d1cb c93e 4467 1c3e
00000130: 9ba2 10c0 e701 46c0 270f cd3c bf6b 77bf
00000140: b7e1 17be 292b 32be f863 dc3e fbed 1dc0
00000150: 9601 4ec0 fae9 e1bf e3d6 9cbe efeb 403e
00000160: a0f7 d5bf 9d6a 343f 7ddd 23be cf05 f1bf
00000170: bf78 6dc0 f542 2fc0 7caa 81bf 3343 06bf
00000180: b024 bbbf 2fa7 373f 249c 1bc0 9862 0ec0
00000190: 2e41 2abf 7297 06c0 5009 70bf b190 9e3e
000001a0: 8cb0 20be c9fd ffbd 8a84 62c0 5cd4 25c0
000001b0: 2481 a6be 4a39 543e 9821 80be 6f7a 823f
000001c0: 4a7c d83e ad60 d03e 3cdf 46bf 7109 36c0
000001d0: 1a96 ab3d b4ed 51c0 1811 cb3e 71e2 94bf
000001e0: 94d1 07bf c069 6c3f 2791 a1bf 3072 c8bf
000001f0: 6ed8 1cbe 9cf1 c5bf e620 f4bf 467d 08c0
00000200: 16b6 42c0 5006 fe3e e738 45bf d1b2 1cc0
00000210: 1e47 333f 4bbc e3bf 6000 353f fba8 2fc0
00000220: bbc8 88bf 1353 b5be cb9f 13bf d816 c7bf
00000230: 0293 9f3e 989a a4bf 2f7f 283f 8863 433f
00000240: 7e74 ac3e beb5 08c0 c104 31be be3b 273f
00000250: a6cb 863e d069 f03d 94fa c33e 185c 1d3e
00000260: 6730 1e3f e56c 01c0 d17c f23c 0b4b c63d
00000270: e3fa 11bf 26bd 3c3f 76db 92bf dbc1 d93e
00000280: 7fbf bb3e 8b29 7ebf 0a32 ef3e aab2 5bbf
00000290: 5de8 1dc0 dbdc eabd 7be4 b6be 5f4d a33e
000002a0: da27 3d3e 8653 01bf 545e 29c0 d5ff 873e
000002b0: 091e 393f 26f7 83be b5ad f83e 07c1 aebb
000002c0: 5650 c1be 4a70 00bf eef7 aa3e a08a 3fc0
000002d0: 7b8c 3ac0 b3b6 8dbe 0753 31c0 e85b 383f
000002e0: 35b3 f4bf f617 8b3e 9eb0 d2be 8b08 4abe
000002f0: 1c02 1fc0 4084 34c0 b658 1ac0 c6d4 343f
00000300: 6a8f 7dbd 2c84 07bf 4f32 90be 8bc8 fb3e
00000310: 6df6 ee3e 2d13 10c0 0495 1a3f 6b03 87bf
00000320: 20f5 7d3e aac4 8abe 2778 c4bd 339f 51c0
00000330: 414c 08bf 4a2b 85be b126 e2bb af64 53be
00000340: 7a9a c0bf 93c6 543e 2656 0a3e 45fc 83c0
00000350: 0797 bbbf 6efe 39c0 7ee1 2b3f 650e c0be
00000360: ab10 20c0 d70d 93bd 06dc 173f 4a6d a13e
00000370: a253 58bf 5c7d c6bf e943 1c3f 4415 09c0

l3.bias f4 [28]
0.015518441 -0.6249567 -0.090873115 -0.4175501 -0.36647123 -0.072303526 -0.12525418 -0.22508019
-0.61594814 -0.42868796 -0.66079164 0.5182787 0.629969 0.45166418 0.64265156 0.24977162
0.21113503 0.79565114 -0.43404657 -0.3795959 0.14903137 -0.14164138 -0.061763175 0.7730343
-0.20029765 -0.33781257 -0.09879949 0.31781396
00000000: 0f41 7e3c 2afd 1fbf af1b babd 20c9 d5be
00000010: 1ea2 bbbe df13 94bd a242 00be 6c7b 66be
00000020: c7ae 1dbf fd7c dbbe a429 29bf eaad 043f
00000030: a645 213f 8740 e73e d084 243f 22c4 7f3e
00000040: c833 583e cbaf 4b3f 5a3b debe 655a c2be
00000050: ae9b 183e 700a 11be 62fb 7cbd 93e5 453f
00000060: d41a 4dbe c5f5 acbe 6357 cabd 83b8 a23e
