src/data.pth (torch, 8351 bytes, 6 tensors)

l1.weight f4 [8, 98]
-0.54809797 0.25566894 0.3516179 0.47808975 0.12063229 -0.22859876 0.34904483 0.07372631
0.12696823 0.29868922 0.56556845 0.3006417 -0.67726976 -0.048855405 0.019302836 0.7418513
-0.4316068 0.39690685 -0.47580096 0.11728592 -0.41700974 0.7526688 -0.6237245 -0.9994966
0.6893691 0.08949813 -0.08511344 -0.37178636 0.99657106 -0.19815813 -0.2087579 0.009283871
0.15816647 0.17476843 -0.5558786 -0.09149305 1.0567118 0.78593504 0.7454142 0.9790532
0.9421698 0.115673095 0.30780408 0.20876789 0.10488337 0.7130032 -0.50059205 0.1452929
0.45190838 -1.0132171 -0.65627843 -0.915437 -0.4170617 0.41713402 0.209459 0.4324946
0.04226229 0.13046226 0.10460046 0.55315506 -0.07467774 0.38027227 -0.5684007 -0.3701583
-0.14125769 1.3365805 0.27297837 1.0225536 0.58682036 -0.65302837 -0.035204872 0.39414936
0.9537744 0.9655609 -0.095402285 -0.48172998 0.4665462 1.0599438 -0.07747834 -0.8183709
-0.6245741 -0.2069886 0.17168413 1.5972612 0.9714335 -0.29557618 0.61530536 0.34824532
0.51902467 -1.3348539 0.62597525 -0.5753644 -0.1892429 -0.60752255 -0.47233734 -0.56440544
0.45327172 0.24519058 -0.18913908 -0.734915 -0.33993205 0.03382196 -0.18372454 0.52882546
0.3653656 0.13148862 -0.83543414 -0.21484067 0.4846385 0.6764927 -0.021869743 -0.6399457
0.2506132 0.40944204 0.6036583 -0.10671237 0.3075108 0.37885064 -0.30883148 0.59955674
0.42118016 -0.019212214 -0.589599 0.053011544 0.48113328 0.017097535 -0.7664472 0.6782895
0.4189169 -0.1479918 0.43945035 0.5466858 0.6638895 -0.6399284 0.9657491 -0.15647915
0.8200735 0.9546591 0.17753167 -0.7044497 0.53646857 0.34245726 0.28045562 0.405208
0.27888337 0.65152067 1.0949457 -0.66996515 0.80618167 -0.11130249 -0.104717 0.0033624521
-1.0956857 0.92981076 -0.16558841 0.29681656 -0.05490847 -0.18270087 0.05013945 -0.3926165
-0.46023858 0.09189215 -0.3684656 0.67610687 -0.45479277 -0.8518182 -0.18338925 0.63430315
0.86124986 0.7143872 -0.82098114 -0.7857022 0.5209892 0.2621932 -0.43330318 -0.84331894
0.63892514 0.41731095 -0.17065014 -0.031109365 -0.42620966 -1.1649222 -0.2838257 -0.18230486
0.55231583 -0.39841777 -0.2314046 -0.86748403 0.6533135 -0.50433207 0.41029885 1.3540857
-0.27178395 0.13678662 -0.3850804 0.62786543 0.42581666 0.31158024 0.1328768 0.028061524
0.9814738 0.019136267 0.5272358 0.624856 -0.33768898 0.39691567 -0.047703054 -0.26470405
0.18049811 0.8106231 0.071433984 -1.0256169 0.68924075 0.39650312 -0.06991815 -0.18561445
0.73693043 -0.13026886 -0.55120355 -0.056162827 -0.4868559 0.42823535 -0.3585931 0.830992
1.24383 0.088562205 -0.6503437 -0.47394052 -0.18474618 -0.045936666 0.77100474 0.8434691
-0.218873 0.61080426 -0.33815935 -0.21173607 0.16173731 0.97932005 0.81230974 -0.092475295
-0.05833887 -1.1053154 0.5739329 -0.39423716 0.7416045 0.70935243 -0.024069639 -0.11872298
-0.59695935 0.35295904 1.0926365 -0.7449349 0.87881625 -0.0046639647 0.6938667 0.4679823
00000000: 2650 0cbf 0ae7 823e 4307 b43e 2ec8 f43e
00000010: 100e f73d cb15 6abe 01b6 b23e d2fd 963d
00000020: f603 023e cbed 983e 18c9 103f b5ed 993e
00000030: 8d61 2dbf 9b1c 48bd fb20 9e3c f7e9 3d3f
00000040: 91fb dcbe 6037 cb3e 2f9c f3be 9a33 f03d
00000050: 4d82 d5be e7ae 403f 69ac 1fbf 02df 7fbf
00000060: 7e7a 303f cc4a b73d f54f aebd c85a bebe
00000070: 481f 7f3f f7e9 4abe a2c4 55be 611b 183c
00000080: 64f6 213e 7ff6 323e 0f4e 0ebf b560 bbbd
00000090: 5542 873f 0a33 493f 77d3 3e3f 3ba3 7a3f
000000a0: 0a32 713f 04e6 ec3d 7f98 9d3e 40c7 553e
000000b0: 18cd d63d 6187 363f cd26 00bf a9c7 143e
000000c0: 8960 e73e 19b1 81bf dd01 28bf 145a 6abf
000000d0: 1c89 d5be 9792 d53e 6c7c 563e ef6f dd3e
000000e0: 391b 2d3d e697 053e c438 d63d 929b 0d3f
000000f0: a5f0 98bd 0cb3 c23e b582 11bf 6485 bdbe
00000100: dba5 10be 1215 ab3f d2c3 8b3e 09e3 823f
00000110: dc39 163f de2c 27bf fc32 10bd f2cd c93e
00000120: 8f2a 743f 002f 773f 4662 c3bd 50a5 f6be
00000130: 25df ee3e 3dac 873f f7ac 9ebd c180 51bf
00000140: 17e4 1fbf d2f4 53be f7cd 2f3e 0e73 cc3f
00000150: deaf 783f c355 97be a784 1d3f 364d b23e
00000160: cdde 043f 7edc aabf ea3f 203f 154b 13bf
00000170: e4c8 41be 9986 1bbf 33d6 f1be e07c 10bf
00000180: 3b13 e83e 3d13 7b3e adad 41be 6423 3cbf
00000190: 930b aebe e588 0a3d 4922 3cbe 1b61 073f
000001a0: 3311 bb3e f4a4 063e 03df 55bf 31ff 5bbe
000001b0: 8a22 f83e a02e 2d3f 2d28 b3bc 7bd3 23bf
000001c0: 6050 803e 63a2 d13e 5a89 1a3f 048c dabd
000001d0: 0e72 9d3e b6f8 c13e 291f 9ebe 8d7c 193f
000001e0: eda4 d73e ef62 9dbc f6ef 16bf a222 593d
000001f0: 1a57 f63e 2110 8c3c e235 44bf 61a4 2d3f
00000200: 477c d63e 2a8b 17be a3ff e03e 9af3 0b3f
00000210: aaf4 293f 59d2 23bf 553b 773f 123c 20be
00000220: 56f0 513f 8a64 743f ddca 353e d156 34bf
00000230: 0156 093f 8f56 af3e e197 8f3e 6c77 cf3e
00000240: cdc9 8e3e 0fca 263f 2e27 8c3f d682 2bbf
00000250: ec61 4e3f 8ff2 e3bd de75 d6bd 965c 5c3b
00000260: 6e3f 8cbf 1408 6e3f 0290 29be 57f8 973e
00000270: b4e7 60bd f015 3bbe 065f 4d3d 0805 c9be
00000280: 64a4 ebbe f431 bc3d 86a7 bcbe 5715 2d3f
00000290: 99da e8be c210 5abf 64ca 3bbe b161 223f
000002a0: df7a 5c3f 14e2 363f d22b 52bf c823 49bf
000002b0: 8c5f 053f 303e 863e ead9 ddbe c0e3 57bf
000002c0: 9990 233f c8a9 d53e e9be 2ebe 11d9 febc
000002d0: 2738 dabe 2c1c 95bf 9a51 91be 20ae 3abe
000002e0: 9264 0d3f 6afd cbbe 54f5 6cbe 6f13 5ebf
000002f0: 8e3f 273f e81b 01bf b112 d23e ae52 ad3f
00000300: 4427 8bbe cb11 0c3e 4229 c5be cabb 203f
00000310: a404 da3e 7287 9f3e db10 083e 48e1 e53c
00000320: de41 7b3f a9c3 9c3c edf8 063f 90f6 1f3f
00000330: 92e5 acbe 8838 cb3e 4764 43bd 4a87 87be
00000340: 7fd4 383e ff84 4f3f fb4b 923d 6a47 83bf
00000350: 1572 303f 7502 cb3e 3f31 8fbd b711 3ebe
00000360: 79a7 3c3f 3365 05be ad1b 0dbf fe0a 66bd
00000370: 2d45 f9be aa41 db3e 8499 b7be e4bb 543f
00000380: d235 9f3f 1a60 b53d ed7c 26bf 55a8 f2be
00000390: 1a2e 3dbe 1628 3cbd 9160 453f 97ed 573f
000003a0: 3e20 60be ab5d 1c3f 3923 adbe 57d1 58be
000003b0: 779e 253e b8b4 7a3f 88f3 4f3f b063 bdbd
000003c0: bdf4 6ebd fa7a 8dbf 44ed 123f 74d9 c9be
000003d0: cbd9 3d3f 1f98 353f b12d c5bc 0925 f3bd
000003e0: 54d2 18bf 0cb7 b43e 83db 8b3f 0eb4 3ebf
000003f0: 1afa 603f 2cd4 98bb 40a1 313f 609b ef3e

l1.bias f4 [8]
1.038603 1.1661416 1.2313975 1.4016677 1.3325841 1.3658146 0.6902859 0.5485199
00000000: f1f0 843f 2144 953f 6f9e 9d3f d969 b33f
00000010: 1e92 aa3f 03d3 ae3f 94b6 303f cd6b 0c3f

l2.weight f4 [8, 8]
1.5319911 -0.6433232 -0.12377375 0.27323702 -1.0308075 0.21026619 1.3233576 -0.009209255
1.3636209 0.3096469 1.9178642 -1.2083504 -0.102600075 1.3892196 -0.33238918 1.5882128
1.4655156 -0.486932 0.59843695 -0.68668884 0.4867879 -1.0465186 1.740221 1.1192771
0.04734435 -1.5104133 1.4612561 1.7855642 -0.72801775 1.5985104 1.0436674 -0.80691016
1.0268886 1.4355388 0.77694863 -1.127177 1.1620322 1.3416722 -1.0529069 1.2931212
0.82789844 1.3361795 -1.3297701 0.93132734 -1.2348319 1.1162071 1.4018164 1.5798372
-0.44566557 2.0852928 -0.021763835 1.8126819 1.7295138 1.2900717 -0.03443032 -1.0170337
-0.15732582 -0.30498677 1.5050582 0.6364152 2.1844862 -1.6684175 1.8554493 1.0663142
00000000: 4918 c43f d4b0 24bf 187d fdbd b9e5 8b3e
00000010: 80f1 83bf 0550 573e c863 a93f 6ae2 16bc
00000020: 218b ae3f 0a8a 9e3e 937c f53f 3aab 9abf
00000030: fd1f d2bd f3d1 b13f ea2e aabe 8f4a cb3f
00000040: 0496 bb3f 274f f9be 2a33 193f d7ca 2fbf
00000050: 433c f93e 52f4 85bf 90bf de3f 7944 8f3f
00000060: 26ec 413d 3955 c1bf 710a bb3f 5e8d e43f
00000070: 5f5f 3abf fd9b cc3f e596 853f aa91 4ebf
00000080: 1671 833f bcbf b73f 1be6 463f 5647 90bf
00000090: 79bd 943f eabb ab3f a7c5 86bf ff84 a53f
000000a0: 27f1 533f ee07 ab3f e835 aabf 786b 6e3f
000000b0: f90e 9ebf e0df 8e3f b86e b33f 1b38 ca3f
000000c0: 472e e4be 7075 0540 124a b2bc f605 e83f
000000d0: b560 dd3f 1221 a53f cf06 0dbd 292e 82bf
000000e0: 051a 21be 3a27 9cbe bfa5 c03f 1bec 223f
000000f0: 9fce 0b40 b48e d5bf 5d7f ed3f fc7c 883f

l2.bias f4 [8]
1.0373929 0.31118724 -0.36830327 0.34046787 0.33892512 -0.22728236 1.0975777 0.4235404
00000000: 4ac9 843f ef53 9f3e 3f92 bcbe ce51 ae3e
00000010: 9887 ad3e b5bc 68be 6d7d 8c3f 4ada d83e

l3.weight f4 [26, 8]
-1.2330197 0.4205305 -0.2735459 -1.949634 0.3374186 0.25218433 -0.632675 -2.0313413
-0.45277375 0.58062357 0.29017004 -1.4366158 0.5568951 -0.872817 -1.1994325 -0.9268819
0.6565842 0.11937828 -2.1709294 0.5899301 -1.1070749 -0.22422375 -0.2743861 -2.235721
-1.2767508 -1.0948702 -0.05046575 -0.26549092 -0.3052576 -3.068414 0.011653903 0.86199135
-0.8853967 -0.7120437 -2.3254635 0.9381359 -1.6965351 -2.1390128 0.48550048 0.13591287
0.36401442 -0.0365692 0.015120188 -1.2931384 -0.15276003 0.65366614 -1.4473379 -1.2606512
-0.4697316 -2.5794961 0.33844277 -0.31527203 -2.180209 -0.7952961 -0.059185695 0.7481092
0.65855944 -0.22080836 0.5971919 -2.7005658 -0.59364396 -0.06196941 -1.8814182 0.09975161
0.58128077 0.4495353 0.16933289 -0.50219625 -0.11824173 -0.78183746 -3.068869 -0.14504322
-1.5499731 -1.0987452 -1.3977643 -0.26686078 -0.15300736 -0.10248791 0.6345405 -2.3960001
-0.4827127 -0.66668 -2.5428479 0.2546197 -0.88482136 0.39707485 -0.30965248 -0.47456154
-2.3429651 0.5576745 -0.8158033 -2.4387934 0.30040798 -3.1366165 0.1241804 0.49224675
-0.5245469 0.10993955 0.24958704 -2.8049524 -0.2875995 -0.36702418 -0.19920844 0.21090734
-0.18100144 0.21548836 -1.255331 -0.649236 -0.33521467 0.2586763 -0.13435933 -1.9348141
-1.737622 -2.1378922 -1.6714574 -0.3513386 -0.17975268 -0.44302234 0.3821448 0.060252044
0.16267757 -0.1326104 -1.0926715 -0.11993824 0.13593477 -1.3746732 0.41702208 -0.52157515
-1.8367572 0.5963565 0.21411887 -0.21129024 0.05032176 -1.8637877 -0.83525777 0.10437856
0.1179963 -0.63769644 -0.13964586 0.62007934 -2.3888836 -1.4904865 -0.7076651 0.45776474
0.006286969 0.10132389 0.45271584 -0.3632958 -0.90079683 -1.4014406 -1.4759741 0.58596236
0.61987525 0.46282962 -0.41910896 0.358402 -0.24402516 -0.6211521 -1.2844887 -0.99997574
0.0632279 -0.110041365 0.0073714023 0.35589418 -2.170996 0.26933432 -1.4714365 -0.11444585
0.8720264 -2.2105973 -0.47448745 0.5621057 -2.223326 0.18619074 -0.703866 -0.52069014
-2.1543806 -0.14556593 -1.6183538 -2.3267648 0.35705322 -0.024947705 0.2697892 -0.6457521
-0.20271835 -2.3255632 -1.5426594 0.34940594 -2.8579493 -0.22683954 0.2603914 0.0032468732
0.36585805 -1.2337577 0.09574362 -0.7053856 -1.0158786 0.08599413 -0.17349486 -0.084787786
-0.45822617 -1.8798405 -1.2974072 0.6169591 -2.229295 0.29806304 0.29311383 -2.2826815
00000000: 97d3 9dbf c64f d73e 350e 8cbe 9b8d f9bf
00000010: 21c2 ac3e 4e1e 813e fdf6 21bf 7f01 02c0
00000020: f6d1 e7be bfa3 143f 2b91 943e 07e3 b7bf
00000030: ad90 0e3f ef70 5fbf 0187 99bf 2248 6dbf
00000040: e715 283f 9a7c f43d 82f0 0ac0 a905 173f
00000050: a1b4 8dbf e99a 65be 567c 8cbe 0e16 0fc0
00000060: 926c a3bf b524 8cbf 2db5 4ebd 6dee 87be
00000070: b94a 9cbe e560 44c0 03f0 3e3c 77ab 5c3f
00000080: 5ca9 62bf 7f48 36bf 65d4 14c0 ad29 703f
00000090: 1028 d9bf 96e5 08c0 8593 f83e be2c 0b3e
000000a0: 1960 ba3e 96c9 15bd aaba 773c 8f85 a5bf
000000b0: 206d 1cbe aa56 273f 5e42 b9bf 055d a1bf
000000c0: a980 f0be 7716 25c0 5f48 ad3e 566b a1be
000000d0: 8b88 0bc0 8698 4bbf b36c 72bd 1684 3f3f
000000e0: 5a97 283f 961b 62be 91e1 183f 12d6 2cc0
000000f0: 0df9 17bf a3d3 7dbd 50d2 f0bf 924a cc3d
00000100: d1ce 143f 7e29 e63e 9a65 2d3e ef8f 00bf
00000110: b828 f2bd 8026 48bf 5a68 44c0 3686 14be
00000120: 8565 c6bf afa3 8cbf f1e9 b2bf faa1 88be
00000130: f6ad 1cbe 2ee5 d1bd 3f71 223f 1158 19c0
00000140: 1e26 f7be 8aab 2abf 05be 22c0 835d 823e
00000150: a783 62bf 654d cb3e c58a 9ebe bbf9 f2be
00000160: 24f3 15c0 c2c3 0e3f 7cd8 50bf 3115 1cc0
00000170: 13cf 993e 53be 48c0 4b52 fe3d c407 fc3e
00000180: b548 06bf fd27 e13d bf93 7f3e 5784 33c0
00000190: 3e40 93be 98ea bbbe 4cfd 4bbe 18f8 573e
000001a0: 7158 39be fba8 5c3e b0ae a0bf 5534 26bf
000001b0: 42a1 abbe 3871 843e 7e95 09be fda7 f7bf
000001c0: 666a debf 3ad3 08c0 51f2 d5bf a7e2 b3be
000001d0: 1611 38be d3d3 e2be 7ca8 c33e d9ca 763d
000001e0: f394 263e 05cb 07be a9dc 8bbf 2ea2 f5bd
000001f0: 7c32 0b3e 4bf5 afbf eb83 d53e f385 05bf
00000200: dc1a ebbf d2aa 183f fa41 5b3e 785c 58be
00000210: 311e 4e3d 9890 eebf 74d3 55bf 6dc4 d53d
00000220: 0ba8 f13d 1340 23bf 53ff 0ebe 85bd 1e3f
00000230: 78e3 18c0 43c8 bebf 8a29 35bf 2460 ea3e
00000240: eb02 ce3b e682 cf3d 5fca e73e e801 babe
00000250: 9f9a 66bf 6862 b3bf b8ec bcbf a101 163f
00000260: 25b0 1e3f 01f8 ec3e 7395 d6be 7880 b73e
00000270: bbe1 79be d303 1fbf 206a a4bf 69fe 7fbf
00000280: a17d 813d 5e5d e1bd ce8b f13b c337 b63e
00000290: 99f1 0ac0 30e6 893e 0858 bcbf 9662 eabd
000002a0: 1f3d 5f3f 6d7a 0dc0 05f0 f2be 29e6 0f3f
000002b0: f94a 0ec0 c9a8 3e3e 9030 34bf f34b 05bf
000002c0: 5fe1 09c0 3c0f 15be 3826 cfbf b7e9 14c0
000002d0: aecf b63e 215f ccbc cf21 8a3e 0250 25bf
000002e0: 6695 4fbe 07d6 14c0 dd75 c5bf 56e5 b23e
000002f0: a4e8 36c0 a048 68be 0652 853e 7ec9 543b
00000300: bf51 bb3e c6eb 9dbf 3b15 c43d 2794 34bf
00000310: 4f08 82bf b11d b03d a3a8 31be 38a5 adbd
00000320: 9f9c eabe 9d9e f0bf 7011 a6bf 08f1 1d3f
00000330: c5ac 0ec0 b89b 983e 0413 963e 7417 12c0

l3.bias f4 [26]
-0.15410943 -0.0055212965 0.21711287 0.5695465 0.096436225 0.11259775 0.19702916 0.056301266
-0.11591541 0.23330767 0.123030216 0.47486147 0.06504098 -0.22794811 -0.123376235 0.7536242
-0.57876503 0.008370345 0.27282992 0.29072255 -0.14022693 0.009183928 0.0115771 -0.042134225
0.12549497 -0.063553385
00000000: ddce 1dbe feeb b4bb d652 5e3e cdcd 113f
00000010: 5b80 c53d a699 e63d 03c2 493e 289c 663d
00000020: 0f65 edbd 35e8 6e3e 44f7 fb3d 0b21 f33e
00000030: 3534 853d 3b6b 69be aeac fcbd 84ed 403f
00000040: f229 14bf c623 093c 5db0 8b3e 96d9 943e
00000050: a697 0fbe 3078 163c e0ad 3d3c f094 2cbd
00000060: c181 003e 4728 82bd
