src/data.pth (torch, 7455 bytes, 6 tensors)

l1.weight f4 [8, 86]
000000 9a 05 e4 3e e8 3b 01 3f 0c da 2a 3f 0e 1b d0 3d
       0.44535524 0.50482035 0.66738963 0.1016141
000010 60 0b a9 3e ab 64 d9 3d 09 93 0a 3e 64 2b f2 be
       0.3301649 0.10614904 0.13532652 -0.4729873
000020 6f 2b af 3b a9 3e 19 3f 47 75 12 3d 66 a3 1d bf
       0.005345754 0.59861237 0.035756376 -0.6157745
000030 42 a1 30 be db 63 37 3f 8f 7d 7d bf 12 c5 13 bd
       -0.17249015 0.7163674 -0.9901971 -0.036076613
000040 c3 60 22 bf 05 da 1c bf 56 a6 62 3f e8 50 09 be
       -0.63428897 -0.6127017 0.8853506 -0.1340977
000050 89 0d 92 be 39 d8 a2 3e 50 6f 5f be a1 9e 89 3e
       -0.28525952 0.3180559 -0.21819806 0.26878837
000060 0f 00 1e be a4 f8 c2 3d c1 97 07 3f fb 02 c2 3e
       -0.1542971 0.09520081 0.52965933 0.378929
000070 2e b1 8c be 37 ab 73 be 66 fc c4 3e b8 9e 89 bf
       -0.27478927 -0.23795782 0.38473815 -1.0751562
000080 2f f7 63 3f 82 44 b1 3d 15 cf 69 3f e8 c3 69 3f
       0.8904905 0.08655645 0.9133161 0.91314554
000090 2c e3 a5 3f 0e 54 d7 3d c4 24 ee 3d 23 01 a8 3e
       1.2959952 0.10514079 0.11628106 0.32813367
0000a0 34 04 7d bb 88 87 35 3f e8 1a 17 bf b6 f8 8d 3e
       -0.0038607242 0.7090993 -0.5902543 0.27728814
0000b0 d2 5e 6f 3f 25 fa 94 be 58 11 f5 3e 4e 77 c8 3e
       0.9350406 -0.29097095 0.47864795 0.39153522
0000c0 a0 43 9f bd a4 40 23 be e6 85 98 bc 6e 57 a7 bd
       -0.0777657 -0.15942627 -0.018618535 -0.08170973
0000d0 bb 0a 80 3e 48 e3 09 3f 89 4a 02 be e7 fa ec be
       0.25008187 0.5386243 -0.12723745 -0.46285173
0000e0 22 0a fc 3d c6 d4 16 bf 6f ea c3 3d 2d 67 e5 be
       0.1230662 -0.58918417 0.09566199 -0.4480528
0000f0 88 38 c4 be 1e 67 79 be 5f 31 04 3f a2 5f 2a 3f
       -0.3832438 -0.24355742 0.51637834 0.66552174
000100 b5 37 aa be 85 bd 51 bf a8 ae 15 3f 55 dd 0f 3f
       -0.33245626 -0.8192981 0.5846963 0.561971
000110 bb 26 af 3e f3 13 e0 be 35 58 33 be 23 f5 a0 3e
       0.34209237 -0.4376522 -0.17514117 0.31437024
000120 e5 64 18 3e cb 5b 42 3e 50 18 80 3e 08 2a b9 bd
       0.14882238 0.18980329 0.2501855 -0.0904122
000130 72 be 19 3f f7 2d 03 3f fd 8f 4c be ee cf b7 3e
       0.6005622 0.5124201 -0.19976802 0.35900825
000140 1b fc 0a bf db 5a b8 bd 22 45 46 be f3 62 57 3e
       -0.5429093 -0.09001704 -0.1936231 0.2103384
000150 1f c3 bd be dc d1 09 3d de a8 b2 3e b0 2c 1d 3e
       -0.37062928 0.033647403 0.3489446 0.15349078
000160 3b 71 21 3e 8e 44 9e 3e 6b 0a 12 3d d5 20 c2 3e
       0.1576585 0.30911678 0.035654467 0.37915674
000170 44 fb 6a be 1c 49 39 bf 80 77 ff 3d ce 92 19 3e
       -0.22947413 -0.7237718 0.12473965 0.14997408
000180 43 89 bc bd b9 b7 a2 be 7d 19 c4 bd 0e b0 2a bf
       -0.09205868 -0.31780794 -0.09575174 -0.6667489
000190 61 20 a4 be 77 12 fa 3c 7a db c5 be b8 f6 b7 be
       -0.32055953 0.030526383 -0.3864401 -0.3593042
0001a0 f9 bc 24 3f 82 c8 0a 3d 29 b5 5d be d7 90 b8 3e
       0.6435085 0.033882625 -0.21651138 0.36048004
0001b0 8f 2f 1b bf c3 69 33 3e dc 55 05 be 45 32 b3 3e
       -0.60619444 0.17520814 -0.13021034 0.3499929
0001c0 b6 d4 68 3f ef 70 4b 3e 86 57 41 be 44 c3 b2 bb
       0.9094957 0.198673 -0.18881044 -0.0054554064
0001d0 1c d5 8a 3e eb b2 36 be 22 c9 cb 3e f9 16 84 be
       0.27115715 -0.1784169 0.3980189 -0.25798777
0001e0 c2 c6 ea 3e 4e 23 e5 3e 04 96 96 3e 4d 3c 0f 3f
       0.45854765 0.44753498 0.29411328 0.55951387
0001f0 f0 1c 40 3d 97 68 48 bd 4b 11 4d be de 2c 3f bf
       0.046902597 -0.04892787 -0.20026128 -0.74677837
000200 9e a4 78 3e 26 53 8a 3f 1b a5 55 3f 2e ae 53 bd
       0.24281546 1.0806625 0.83455056 -0.051679783
000210 27 79 05 3f 59 b2 1a 3f b3 b4 26 be dd c3 15 3f
       0.5213799 0.60428387 -0.16279869 0.5850199
000220 41 d5 b4 3e 86 39 21 be 0f 59 a2 3e ea bd f4 3e
       0.3531895 -0.157446 0.3170857 0.47801143
000230 44 48 82 3d 20 6c 6a be 85 15 7b 3e 5a e7 9d be
       0.0636144 -0.22892809 0.24519928 -0.3084057
000240 d0 49 17 bd e8 ae 10 bf 07 46 d8 be 4b ac f7 3d
       -0.036935627 -0.56516886 -0.42240927 0.12093409
000250 b8 49 6f 3f 93 27 1b 3f c1 bb 2e bd f5 13 e9 be
       0.9347186 0.6060726 -0.042659525 -0.45523039
000260 69 8d da 3d 3e f6 ad 3d dd e9 41 3e c6 ba 0c 3e
       0.10671503 0.084942326 0.18936868 0.13743123
000270 0c c2 14 be c5 67 25 3e 43 3f 87 be 4f 92 f6 3e
       -0.14527148 0.16152866 -0.26415452 0.481585
000280 0a 22 02 bf eb 01 81 be 89 21 fe 3e 2f fb d3 3d
       -0.5083319 -0.25196776 0.4963496 0.10350644
000290 5f 25 49 3d 54 80 77 3e e9 80 2c be 17 d8 eb bc
       0.049107905 0.24170047 -0.1684605 -0.028789563
0002a0 15 99 80 be 70 29 06 3f 4b bf c9 be ed 80 b5 be
       -0.25116792 0.5240698 -0.39403757 -0.35449925
0002b0 77 e0 b9 be bd 47 3e 3d 16 8f 3f 3e 94 12 59 be
       -0.36304066 0.046455134 0.18706927 -0.21198493
0002c0 11 80 1a 3e 6b fc af 3e a2 93 5e 3d bc 54 48 be
       0.15087916 0.34372267 0.054340012 -0.19563574
0002d0 05 d6 d8 3c 6d bd 0b bf a0 f6 06 3f 6e 08 fa 3e
       0.02646924 -0.54585916 0.5272007 0.48834556
0002e0 3c 7e 1a be fc 75 1e bf 1a 83 8a 3e 23 6e bb 3e
       -0.15087217 -0.6189878 0.27053148 0.36607465
0002f0 c3 0a 10 3e a0 af 1d 3f 69 dc 31 bf 9e 54 6c 3e
       0.14066605 0.6159611 -0.69476944 0.23079154
000300 37 5a d1 3e d0 35 08 bd 0c 2c 60 bf b9 dc a3 3e
       0.4088914 -0.033254445 -0.8756721 0.32004336
000310 64 3e ce 3e 94 d2 2c be 6a 62 17 bd 8e 56 b5 3d
       0.40281975 -0.16877204 -0.03695909 0.088543996
000320 6a 7f 6b 3d 0d a9 2a 3e f0 fa a8 3c b6 24 56 3e
       0.05749456 0.1666605 0.020627469 0.20912442
000330 ad a9 2c bf af 75 a8 3e b6 a9 2c bf d0 85 2c bf
       -0.67446405 0.32902285 -0.6744646 -0.6739168
000340 02 81 62 bf f5 97 9e 3d da 47 be 3e 79 0d 21 3f
       -0.884781 0.07743827 0.37164193 0.6291118
000350 bb cc 66 be 38 6f 1f bf 2d 9b 5a 3e eb 87 87 3f
       -0.22539036 -0.6227908 0.21348257 1.0588354
000360 c0 4e 27 bf 0c dc 5b 3f 68 db 14 3f d3 4b 3b 3f
       -0.6535454 0.8588264 0.5814729 0.73162574
000370 5e 17 46 3e a4 89 10 bf 9e 3b a6 3d 63 15 17 be
       0.19344851 -0.5646002 0.0811684 -0.14754252
000380 a1 15 59 bd e3 6b 3d be 02 51 c0 3e 6f 00 c9 be
       -0.052999143 -0.18498187 0.37561804 -0.39258143
000390 d0 b2 87 3d 51 f8 2b 3f 99 40 00 3f 30 af 15 3f
       0.06625903 0.67175776 0.5009857 0.5847044
0003a0 40 0d 07 3f 57 9c 3f 3e 8f b5 de 3c 70 99 2e bd
       0.5275459 0.18711983 0.027186183 -0.0426268
0003b0 be 3a 39 3f 06 71 91 3f 88 bd a0 3d cd 53 4a bb
       0.7235526 1.1362617 0.0784865 -0.0030872703
0003c0 d5 8b 03 3e 8b 46 59 3e c8 ad 8d bf d3 15 1a 3e
       0.1284631 0.21218316 -1.1068659 0.15047388
0003d0 e0 f0 21 bf ee f8 29 be dc bb 26 3f 6f 35 84 3e
       -0.6325817 -0.16598865 0.651304 0.25822017
0003e0 fa c8 38 bc 2f 79 22 bf d8 e8 f4 3b 0f fe f6 3d
       -0.011278385 -0.6346616 0.007474046 0.120601766
0003f0 43 6e a6 3f e7 4e 5a 3e 00 fc e9 bd 80 bc 09 3f
       1.3002399 0.21319161 -0.11425018 0.53803253

l1.bias f4 [8]
000000 7d f5 90 3f b5 8d 8e 3f a3 94 2c 3f 0b 57 8c 3e
       1.1324917 1.1136996 0.674143 0.2741016
000010 35 7f 42 3f 2a d2 96 3f 0d 8b a1 3f 51 c7 15 3f
       0.7597535 1.1782887 1.262056 0.5850726

l2.weight f4 [8, 8]
000000 1c af 99 3f 46 79 bc 3f b2 c2 d7 be ee c8 dc be
       1.2006564 1.472451 -0.42140728 -0.43122047
000010 52 dc 57 3e 08 1c a5 3f db 59 7a bf 52 57 11 3e
       0.2108014 1.289918 -0.9779336 0.14193466
000020 fb 6e a0 3f 02 e0 27 3e c6 80 bd be 20 fc c4 3f
       1.2533869 0.16394046 -0.3701231 1.5389442
000030 47 cd e7 bf cd 91 af be 83 b9 45 3f 1a d9 f2 3f
       -1.8109521 -0.34290925 0.77236193 1.8972504
000040 23 5f 9b 3e 8c a3 52 3f 32 81 df 3f 07 5f 84 bf
       0.3034602 0.822808 1.7461302 -1.03415
000050 41 60 9a 3d 9f dc 9c 3f 21 c4 b2 bf f0 79 ab 3f
       0.0753789 1.2254828 -1.3966104 1.3396587
000060 27 ab f5 bd a5 dc 25 3f 6e a0 89 3f 44 29 83 3f
       -0.11995535 0.647898 1.0752084 1.0246968
000070 76 86 1b 40 1b c6 40 bf 0d 67 25 3f 4f 62 8d be
       2.4300818 -0.75302285 0.6461037 -0.27614066
000080 1c 7d ab 3f 2a 6f e5 3f 8c 85 e4 bf f1 87 be 3f
       1.3397555 1.792455 -1.7853255 1.4885236
000090 92 ba 2c be 83 c2 82 3f 82 97 0e 3f eb bf 68 be
       -0.16868046 1.021561 0.5569993 -0.22729461
0000a0 fe 50 1d bf c9 32 92 3c ba 96 13 3f 5d 04 23 be
       -0.6145171 0.017846482 0.57651865 -0.15919633
0000b0 75 44 61 be 47 a1 f9 3f 07 3d 08 40 b6 12 62 3e
       -0.2199877 1.9502343 2.1287248 0.2207745
0000c0 2f 91 36 bf 1d 27 2a 3f d6 9b b2 3f 04 83 78 3f
       -0.7131528 0.6646593 1.3953807 0.97074914
0000d0 20 6f f5 3f ab 4a 51 3f 58 3d 65 bf 30 82 7a 3f
       1.9174538 0.8175456 -0.8954673 0.978549
0000e0 82 1c be 3f f2 c1 74 3f 9a ef ac 3e ad 9e 9c bf
       1.485245 0.9560844 0.3377655 -1.2235924
0000f0 cf 10 55 3f 96 14 65 bf d5 f1 5c 3e 88 b1 4b 3f
       0.8322877 -0.89484537 0.21576627 0.79567766

l2.bias f4 [8]
000000 03 16 4e 3e f4 a3 82 3f 53 44 84 bd 13 49 ff bd
       0.20125584 1.0206285 -0.06458344 -0.1246511
000010 63 3a 6d be c0 7a 8f 3f 7c 58 34 bf 99 e9 6d 3f
       -0.23166804 1.1209335 -0.70447516 0.92934567

l3.weight f4 [20, 8]
000000 4e db 0c 3f 62 0c 88 bf d3 4b cb 3e 71 67 97 3e
       0.5502213 -1.0628779 0.39706287 0.29571107
000010 9d 0b 34 3c 3e 68 1b c0 1b c4 9f bd 0b 7f c1 3e
       0.010989097 -2.4282374 -0.07801076 0.3779224
000020 44 47 0c 3f 95 24 d6 3e 86 ff 16 3f 7e 7a a8 bf
       0.5479624 0.41824785 0.5898365 -1.3162382
000030 c2 bc de 3c 33 66 f5 bf fc 27 83 be a9 fb d9 3c
       0.027189616 -1.9171814 -0.25616443 0.026609259
000040 37 bb 33 3e 9b 01 95 3f 97 e3 94 bf 03 4b c0 bf
       0.17551886 1.1641115 -1.1631955 -1.5022892
000050 d8 4c 29 3f 4b e0 f6 bf 13 3d 07 c0 f1 be 28 3e
       0.6613288 -1.9287199 -2.1131027 0.16479088
000060 81 a3 a6 3e 98 32 13 3e 39 02 7d bf 0c b5 79 3e
       0.3254662 0.14374769 -0.98831517 0.2438547
000070 b1 4d e7 3e 31 78 07 c0 3e 67 f1 be 47 8a a0 3e
       0.4517646 -2.116711 -0.4714908 0.31355497
000080 e7 92 26 c0 e1 46 f3 bf fb f6 e3 3e 66 a5 60 3f
       -2.6027162 -1.9006006 0.4452437 0.8775238
000090 48 a5 d1 bf 7c 50 78 bf 72 97 0c 3f 23 ba 18 3e
       -1.6378565 -0.9699781 0.5491859 0.14914756
0000a0 de 00 a0 bf bd 7a 43 be c1 bf 7c 3d 21 c0 7e bf
       -1.2500265 -0.1908979 0.06170631 -0.99511915
0000b0 4a 79 a5 bf f1 fd 59 3f 5f e7 01 3d 93 ef 19 c0
       -1.292764 0.8515311 0.031714793 -2.4052474
0000c0 22 be a1 bf 33 79 7e bf 63 10 2a c0 8d 3a 7b 3f
       -1.2636149 -0.99403685 -2.6572502 0.98136216
0000d0 90 33 19 3e f5 4c d6 3e ef 80 f8 3e 0a b2 de bf
       0.14961076 0.4185559 0.4853587 -1.7398083
0000e0 fa 3a 4e 3f d8 bb fb 3e c0 7f cb bd bb 25 51 c0
       0.8055874 0.4916675 -0.09936476 -3.267928
0000f0 6b 65 08 3f c0 76 63 bd 80 e4 25 c0 68 1e 7c 3e
       0.5327975 -0.05553317 -2.5920715 0.24620974
000100 5e 8b 00 3f 36 19 e5 bf 64 47 40 3f 56 83 b1 bf
       0.5021266 -1.7898319 0.75108933 -1.3868206
000110 4f 9e 0f bf 84 62 27 3d 06 89 a4 3e 37 a1 94 bf
       -0.56100935 0.040865436 0.3213579 -1.1611699
000120 ce db 98 bf 3c a9 e5 bf 18 31 05 bf 66 c5 32 3f
       -1.1942079 -1.7942271 -0.52028036 0.69832456
000130 f9 3c ff bf c2 59 f3 3e 5e 44 4c 3e ab bc 2d bf
       -1.9940482 0.47529417 0.19947955 -0.6786601
000140 29 5b 0f 3f 25 51 c6 be 76 d2 ae be 28 b2 3b be
       0.55998474 -0.38733783 -0.34144944 -0.1832968
000150 fb b9 1c bd 04 63 1d 3e 42 3d 59 bf b2 dd 21 3e
       -0.038263302 0.15369803 -0.84859097 0.15807226
000160 a0 10 b7 3e d3 03 0a bf 4f f7 66 bd 3a e2 a7 3e
       0.3575487 -0.53912085 -0.056388196 0.32789785
000170 c2 ed 4f 3e 3e a8 85 bf 81 11 29 3f 58 29 be bf
       0.20305541 -1.0441968 0.66042334 -1.4856367
000180 23 93 5d 3e e0 a6 85 3e e1 9c 9a bd 40 08 96 bf
       0.2163816 0.26103878 -0.075494535 -1.1721268
000190 e1 43 aa 3e ff 9c 17 be c9 77 d8 3d c0 6b 0f c0
       0.33254912 -0.14805983 0.10569722 -2.2409515
0001a0 21 1c 9d be 47 c2 89 3e 13 7f c8 bf 1b 96 6a 3e
       -0.30685523 0.26906034 -1.566378 0.22908823
0001b0 6e 1e 1f 3f 5f 16 a9 be 17 12 07 3e 59 7e eb bf
       0.62155807 -0.3302488 0.13190494 -1.8397933
0001c0 7b 28 f4 bf 7c 35 84 3f c3 72 1e c0 be 25 5c 3f
       -1.9074854 1.0328822 -2.4757545 0.8599509
0001d0 1a 07 2e bf da 0d b8 3e 91 6e 00 c0 91 1f be 3d
       -0.67979586 0.35948068 -2.0067484 0.092833646
0001e0 ad 45 80 bf 8f 6e d5 bb 20 c8 ef bf 7e 2d db bf
       -1.0021263 -0.0065134238 -1.8732948 -1.7123258
0001f0 98 25 26 3f f4 7a 7b 3f 3e 45 76 bf 6f fa de bf
       0.64901114 0.98234487 -0.96199405 -1.7420176
000200 2d 06 fd 3e e3 ae ca bf c8 7b 17 3f af f8 23 3e
       0.49418774 -1.5834621 0.5917325 0.16012834
000210 fa 09 ae bf d5 43 d9 bf c4 dd 14 3f e8 65 d7 3d
       -1.3596795 -1.6973826 0.5815089 0.10517484
000220 7d e5 dc 3d c6 46 2b 3e 7a 1c 2b 3f 44 c0 c9 bf
       0.10785959 0.16726217 0.66840327 -1.57618
000230 62 eb f0 bf 45 01 0f bf fb 7e 28 3e 03 fa 15 3d
       -1.8821833 -0.5586131 0.16454689 0.036615383
000240 9b aa 5b bf 9d f7 f6 3c e8 33 89 bd a4 5f ab 3e
       -0.858072 0.030147368 -0.066993535 0.33471406
000250 cb 83 b5 bf b2 e0 03 bf da d4 3c 3e da 0e 80 3e
       -1.4180845 -0.5151473 0.18440571 0.2501133
000260 32 0e 13 bf 5d 58 c4 3f e8 31 9d be d9 e3 16 c0
       -0.57443535 1.5339466 -0.30702138 -2.3576567
000270 8e 73 11 c0 a9 8f 99 3e a7 e3 87 bf 25 aa 9d 3e
       -2.272678 0.29992417 -1.0616349 0.30793872

l3.bias f4 [20]
000000 f5 2b 56 be 01 69 09 bf 2d 89 22 3d e2 7f 36 be
       -0.20915206 -0.5367585 0.039681602 -0.17822221
000010 f8 62 2c 3e ad 9c 8e 3e 35 8d 82 3e f5 30 db bd
       0.16834629 0.2785391 0.25498357 -0.10702697
000020 5b 73 98 3d 09 ba 11 3e a8 40 4c 3f 7c b1 0c bf
       0.07443877 0.14231123 0.7978616 -0.5495832
000030 0e 0c d6 be 00 fe 9a be f4 b4 a9 3e d5 97 92 3e
       -0.41806072 -0.30271912 0.3314587 0.28631464
000040 fa 2f d9 bd 0a cf 07 bf a8 97 cb 3c 3e 8c f2 3e
       -0.10604854 -0.5305029 0.024852589 0.4737262
