src/data.pth (torch, 9823 bytes, 6 tensors)

l1.weight f4 [8, 116]
000000 a3 c2 5c 3f 30 ac f7 3e ae 19 00 bc c3 f2 97 3e
       0.8623449 0.48373556 -0.0078186225 0.296774
000010 62 bd bf 3e 4c e6 2a bd c6 cf 4c 3e 79 95 19 bf
       0.37449175 -0.041723534 0.20001134 -0.599937
000020 7d 9d 76 be 27 58 9d bf 7d 55 84 3e 9c c1 2e bf
       -0.24083515 -1.2292527 0.25846472 -0.68264174
000030 83 05 3b bd cc 03 da bd 18 c7 20 3f 2f 2b 7c be
       -0.045659553 -0.106452554 0.6280379 -0.24625848
000040 7d 48 f8 3d 8c f4 aa bf a7 a3 72 bf 64 9d 63 3c
       0.12123201 -1.335588 -0.94780964 0.013892505
000050 f8 3a 42 bd 9c c9 5b bf 27 71 da 3e 93 ce 01 3f
       -0.04741952 -0.85854506 0.42664453 0.5070583
000060 3c 9e 00 bf c7 ae 2c 3f 98 f5 57 3f 5d 43 14 3f
       -0.50241446 0.6745419 0.8435912 0.5791529
000070 90 4d 52 bf f3 47 89 bc 9c 17 38 be 70 48 1c 3f
       -0.821496 -0.01675794 -0.17977756 0.6104803
000080 47 6e b6 3f 15 9d 0d be 6f 66 22 bf b2 ed 38 bf
       1.4252404 -0.13829453 -0.6343755 -0.72237694
000090 66 b1 82 3e 47 b3 fe 3e 51 97 ab 3e 20 66 e9 be
       0.2552597 0.49746153 0.33513883 -0.45585728
0000a0 00 45 81 bf f1 62 a4 3e 5f 0b b9 be a5 f6 54 bf
       -1.0099182 0.32106736 -0.36141488 -0.8318885
0000b0 bc 69 80 bf c8 7b 5a bf 50 d7 81 bf 7b c6 81 bf
       -1.0032268 -0.85345125 -1.0143833 -1.0138696
0000c0 11 8e ec 3e 5d cd ac bf c0 f3 ee 3e 11 22 85 3e
       0.46202138 -1.3500172 0.46670341 0.26002553
0000d0 b0 f5 0e 3f 71 6a 42 be 86 c2 ab bf e4 d0 c1 3c
       0.5584364 -0.18985917 -1.3418739 0.023659177
0000e0 81 26 2d 3f c2 2d 96 3f 05 e4 b6 3f 39 cd 88 3f
       0.6763688 1.1732714 1.4288336 1.0687629
0000f0 8d fe b9 3f 60 f6 9b 3e e9 cf f5 be 1a ee 09 3e
       1.4530808 0.30461407 -0.48010185 0.13469735
000100 ed 6e 19 3f f0 75 a1 3e 0b 3d 62 be c5 a8 32 3f
       0.59934884 0.31535292 -0.22093599 0.6978877
000110 8b 2a 77 3e 6a ca 65 3f a3 ad 29 bf 39 3b b1 bd
       0.24137323 0.89761984 -0.66280574 -0.08653874
000120 67 ea 9b 3d f7 9c bf be 83 a5 7d 3f 54 2b 02 bf
       0.07613068 -0.37424442 0.99080676 -0.50847363
000130 81 c5 a8 3e 71 d4 2a 3f d7 2c fb 3d db 1d 9f 3f
       0.32963184 0.6673041 0.12264412 1.2430986
000140 78 7e c2 3e 73 bb 80 3f 61 1b 7f 3f e6 1d e5 3e
       0.37987113 1.0057205 0.9965115 0.44749373
000150 a5 58 8b 3f 8c 44 87 3f 59 75 0d bd 99 93 7e be
       1.0886427 1.0567794 -0.03453574 -0.24860992
000160 14 50 99 bd dd 5b 95 3b ca bc 05 be 34 7a 85 be
       -0.07485977 0.00455807 -0.13060299 -0.26069796
000170 22 f9 2f bf 43 fe 71 bf 7a 26 0f be 20 e2 22 3f
       -0.6873952 -0.945286 -0.13979521 0.6362629
000180 4e ee 8b bf 56 8c 54 3e e5 be cb 3e 4c 96 14 bf
       -1.09321 0.20756659 0.39794078 -0.58041835
000190 65 13 e1 3e 93 3b 1b bf 09 cc da bf a4 fd 18 3f
       0.4396011 -0.6063778 -1.7093517 0.59762025
0001a0 04 dc 01 bf 8d 64 03 be ad 19 2a bf 82 26 83 3e
       -0.5072634 -0.12831326 -0.6644543 0.25615317
0001b0 0b 14 69 3f c2 3d 0d 3f e2 55 22 bf 70 36 a4 3e
       0.9104621 0.5517236 -0.63412297 0.32072783
0001c0 3d e6 c5 3e 75 ef 69 3e 4b 11 89 3c b5 52 a0 bf
       0.3865222 0.22845252 0.016731879 -1.252524
0001d0 df c1 03 bf ac 15 b6 be 49 be 1b bf 5e 97 65 3f
       -0.514677 -0.3556341 -0.6083723 0.89684093
0001e0 32 77 fb bc 3f e4 7a 3e fd 16 dd 3e 0d 44 a3 3c
       -0.030696485 0.24501131 0.431816 0.01992991
0001f0 e1 b4 16 3f 18 47 25 be e1 3d 4a 3e 15 3e 1d 3f
       0.5886975 -0.16140401 0.19750167 0.61422855
000200 af 84 8f 3f 0d 3c 89 bf 79 57 ea 3f 6a c0 2c 3e
       1.1212367 -1.0721451 1.8307945 0.16870275
000210 d9 04 8b be 7a 25 b8 3f 12 2b b3 3f a9 78 f9 bd
       -0.27152136 1.4386437 1.3997519 -0.12181217
000220 8f 3f 1f 3b 57 cf 2f bf ba 4a 7b 3e 9a cb b9 3f
       0.0024299358 -0.6867575 0.24540225 1.4515259
000230 35 3a 5b 3f 39 c6 82 be 67 b0 d2 be 56 65 3a bf
       0.8563569 -0.25541857 -0.4115021 -0.72810876
000240 98 74 11 bf ef a7 90 3e c0 11 51 3f 57 7c 92 bd
       -0.5681853 0.28253123 0.8166771 -0.07152622
000250 dc b2 12 3f cb 96 9d 3e e7 a0 3c be 24 9b 03 bf
       0.5730417 0.30779108 -0.18420754 -0.514086
000260 6c f6 24 be 35 a8 2f bf 29 ce 80 3e 01 b5 2a 3e
       -0.16109627 -0.6861604 0.25157288 0.1667061
000270 31 16 c5 3f 3d ed 58 3f 7f 00 0e 3f 29 2e c8 3f
       1.5397397 0.84736997 0.55469507 1.5639087
000280 79 a0 87 3f 3c 85 dd 3e 95 93 89 3f 64 6d 86 3f
       1.0595847 0.43265712 1.0748163 1.0502133
000290 92 87 d2 3f f9 3e 9f 3f 4c cb 23 3e cd 56 d0 3e
       1.6447623 1.2441093 0.1599552 0.40691224
0002a0 48 77 52 3f 3c bc aa 3d c7 41 b5 3f 0a 9e ec 3f
       0.8221326 0.08336684 1.4160699 1.848573
0002b0 c8 b8 9b 3e 2e 29 34 3f 96 48 45 bf 92 57 bf be
       0.30414414 0.70375335 -0.7706388 -0.37371498
0002c0 5a 86 2c bf 16 4e 68 bf b3 40 08 3f cd a3 ff 3d
       -0.67392504 -0.9074415 0.53223723 0.124824144
0002d0 2d 64 77 3f 97 eb 66 bd 56 92 5c 3e 93 1d 83 bf
       0.9663723 -0.05637702 0.21540198 -1.02434
0002e0 8f 8a 02 be 85 42 2c 3f 8b c4 43 3f d5 eb 26 3f
       -0.12748168 0.67289 0.76471776 0.652036
0002f0 23 73 0b be 0a ef ac be ce a6 a0 3f da 50 8e 3f
       -0.1361814 -0.33776122 1.2550905 1.1118424
000300 1e a5 01 bf 9a 39 5c be 8c fd ff be b1 2c f9 3e
       -0.50642574 -0.21506348 -0.49998128 0.4866691
000310 42 3e 5d 3f 0d d0 c6 be ba 39 ad bf 0f 5b 60 3f
       0.8642312 -0.38830605 -1.3533242 0.87638944
000320 41 20 55 3e 54 95 86 3e 13 9c 51 3e 5e f8 19 3f
       0.20813085 0.26285803 0.20469694 0.60144603
000330 df ca fc 3f 00 62 bf 3e 00 f2 ea 3d e2 19 7a 3e
       1.9749411 0.37379456 0.11471939 0.24423936
000340 f1 5e 14 3d c4 3c b7 3f cb 7a 1c 3f a0 f1 d4 bd
       0.036223356 1.4315419 0.6112487 -0.10397649
000350 b1 86 80 3f 0d 9c 80 b9 c1 a3 48 3e 49 c7 06 3f
       1.0041105 -0.0002453033 0.19593717 0.52647835
000360 e0 78 fc be 73 8f 06 bf 8e 77 04 40 b8 35 e9 3e
       -0.4931097 -0.52562636 2.069797 0.45548797
000370 32 d0 8e 3f 64 7f 3a 3e 0c 1f 3b 3f 27 88 2c be
       1.1157286 0.18212658 0.7309425 -0.16848813
000380 af 2e 03 be ce b2 39 ba a4 f0 14 be 80 08 ee bd
       -0.12810777 -0.0007083834 -0.14544922 -0.11622715
000390 1e e5 81 be de 46 88 be 83 df 22 bf 52 0f ea 3e
       -0.25370115 -0.26616567 -0.636223 0.45714813
0003a0 a2 00 a9 3f 29 29 b8 3f f9 08 05 3f 5f 3b cc 3e
       1.3203318 1.4387561 0.51966816 0.39889047
0003b0 34 f5 92 bc c9 c2 0b 3f 1d 26 08 3f b1 82 9b 3e
       -0.017939188 0.54594094 0.53183156 0.30373147
0003c0 7b 29 2d 3f 47 d0 b5 3c fc cd df 3d 81 18 5a 3f
       0.6764142 0.022194041 0.1092796 0.8519364
0003d0 3d 19 13 3e 0b 55 76 3f 8d 55 96 be 75 84 8b be
       0.14365096 0.96223515 -0.29362145 -0.27249494
0003e0 d6 dd 8d 3f 4b b8 d9 3d 27 f8 4e 3f 0d 52 94 3f
       1.1083324 0.10630854 0.808474 1.158754
0003f0 89 bd 0b 3f 61 92 4f 3f 12 8c 75 be d2 e3 32 be
       0.5458608 0.8108273 -0.23979214 -0.17469719

l1.bias f4 [8]
000000 e1 33 a1 3f 3e ee a5 3f 01 8a 30 40 1d ca 3e 3f
       1.2593957 1.2963331 2.758423 0.7452715
000010 36 2f ed 3f af 94 6e 3f 8f 59 d0 3f 3f 11 95 3f
       1.8530033 0.93195623 1.6277331 1.1645888

l2.weight f4 [8, 8]
000000 33 ef 94 bf f1 e1 cb 3f 05 d3 09 40 b6 47 31 3f
       -1.1635498 1.5928327 2.1535046 0.6925005
000010 7d d2 22 40 a5 57 65 bf 0d e3 3d 3e a7 c4 ad bf
       2.5440972 -0.8958686 0.18543644 -1.3575639
000020 d5 3a 9f 3f 0b 6e e8 bf f9 6a 64 3f 59 4f d6 bf
       1.2439829 -1.8158582 0.8922573 -1.6742965
000030 4f 4b 15 40 5d ae df 3f 5f be cb 3f 8c d8 ea 3f
       2.3327215 1.7475086 1.5917472 1.8347335
000040 e3 9e 3a 3f 4f 30 84 3f 72 72 9e 3f 5a c0 a5 3f
       0.7289869 1.0327243 1.2378676 1.2949326
000050 6f d1 a0 3f f0 56 3f 3f 66 85 33 c0 07 90 3f 40
       1.2563914 0.7474203 -2.805017 2.9931657
000060 da 59 a0 bf 4d b4 93 3f da 1e 21 40 f1 7c 45 3f
       -1.252742 1.1539398 2.517508 0.7714377
000070 9c 20 0a be df 5a 70 bf 4d f1 98 3f 5e 8e 21 3f
       -0.13489002 -0.9388866 1.1948639 0.6310786
000080 8f be c1 3f 7f f9 4a 3f c5 c9 86 bf 59 2f 97 3f
       1.5136279 0.7928695 -1.0530325 1.1811324
000090 0f 55 d6 3f 45 62 54 bf 86 da 1f 40 4e 0e fb 3f
       1.6744708 -0.8296245 2.4977126 1.961374
0000a0 8c d5 f0 be 02 02 44 40 a8 d6 df be db 8b 5c 40
       -0.47037923 3.0626225 -0.43718457 3.446036
0000b0 e5 5f 9d 3f 76 71 d0 3f e0 cd 7f 3c 44 82 05 40
       1.229489 1.6284626 0.015613049 2.0860758
0000c0 90 86 37 40 b8 e4 82 bf 20 dc 14 40 f2 fc f4 be
       2.867588 -1.022605 2.3259354 -0.47849232
0000d0 e0 a6 11 40 fc 25 fe 3f 27 81 35 3f 95 1c 85 bf
       2.2758102 1.9855342 0.70900196 -1.0399348
0000e0 41 f6 ff 3f a5 b1 68 3f 0e 4c e2 3f d3 40 80 3f
       1.9997026 0.90896064 1.767946 1.0019783
0000f0 41 e9 e9 bf 38 b6 04 40 b2 3a 26 3f b9 85 b1 3f
       -1.8274308 2.0736217 0.6493331 1.3868934

l2.bias f4 [8]
000000 a2 b7 c0 3f e3 ae 33 be 0d 20 0a 3f d8 6e 90 3f
       1.505604 -0.17547183 0.53955156 1.1283827
000010 c6 aa 58 3f 8e 66 7f be 35 f8 2c 3f 5a 4d bc 3f
       0.8463558 -0.24941465 0.67566234 1.4711106

l3.weight f4 [37, 8]
000000 6b f2 a5 be 1f ae 35 3f 2f b8 ba bf 7a 73 05 c0
       -0.32411513 0.7096881 -1.4587458 -2.0851731
000010 45 f8 c0 bf d7 9f e9 bf 47 7e 42 3f 77 35 ef be
       -1.5075766 -1.8251904 0.75973934 -0.46720478
000020 62 79 aa be 30 54 d1 be c6 9a c3 3e fc 15 3b c0
       -0.33295733 -0.40884542 0.3820402 -2.9232168
000030 69 39 58 bf bd 87 8a 3e c1 f8 0c bf d9 27 d9 bf
       -0.844626 0.27056685 -0.5506707 -1.6965286
000040 97 c2 b4 bf f2 8c ce be d2 44 1b 3f 75 73 1c c0
       -1.4121884 -0.40341908 0.60651886 -2.444547
000050 aa f7 2f c0 94 9d 49 bf d3 db 95 3e eb 24 03 3f
       -2.7494912 -0.7875607 0.29269275 0.5122821
000060 3c 3e 67 bf e7 30 3a c0 62 47 69 3f 77 36 6c bf
       -0.9032934 -2.9092348 0.91124547 -0.92270607
000070 c8 f0 f2 bf 42 e2 02 3f 7c 6b 90 bf 08 8d 29 bd
       -1.8979731 0.5112649 -1.1282802 -0.041394264
000080 9a a6 41 c0 b4 d9 3a c0 ff 52 c0 3e 6d b6 6b bf
       -3.0257936 -2.9195375 0.3756332 -0.92075235
000090 33 67 9e bf 32 c3 ae 3e 1b ba fb be ea 45 1a 3f
       -1.2375244 0.34133297 -0.49165425 0.6026293
0000a0 35 f6 01 bf 91 30 3c c0 27 10 81 3e 55 c4 0d c0
       -0.5076631 -2.9404643 0.25207636 -2.2151082
0000b0 62 7e 05 c0 d7 03 62 3e 0f 3c 0f 3f 01 a6 b9 3e
       -2.0858388 0.22071777 0.5595102 0.36259463
0000c0 53 62 78 3e 3e 57 56 c0 e4 35 0e 3f c7 26 82 bf
       0.24256258 -3.3490748 0.5555098 -1.0168084
0000d0 eb 45 dd be d6 ff f0 be ce 7a 46 bd d8 d2 10 bf
       -0.43217406 -0.47070187 -0.04845696 -0.5657172
0000e0 66 8a 1f 3f 7b 06 80 3e 56 3e ad be 08 35 18 3e
       0.62320554 0.25004944 -0.3383662 0.1486398
0000f0 65 f6 01 c0 01 10 47 c0 12 e2 81 3e 9b d6 95 bf
       -2.0306637 -3.1103518 0.2536779 -1.1706117
000100 3b 7a 42 3f d3 06 03 c0 f9 7d 52 bf 35 24 b8 bf
       0.7596776 -2.0472915 -0.8222347 -1.438605
000110 7f db b3 3e 0c c7 09 3f 21 0f 6b bf 92 66 3a c0
       0.351284 0.53819346 -0.9181996 -2.9125104
000120 a1 72 0d 3f 01 c7 84 c0 8a 7f 91 be 4c bf 9b 3e
       0.55253035 -4.1492925 -0.28417617 0.30419385
000130 73 0d b5 be 8d ec 8e 3e c0 6d ea bf 33 8f 55 bf
       -0.35361823 0.2791485 -1.8314743 -0.8342163
000140 d9 a6 30 3f 57 9e 9e bf 4d 9a 6b 3e 80 f1 c3 3d
       0.6900459 -1.2392071 0.2300808 0.09567547
000150 28 6e 54 c0 f2 dc d0 be 56 e6 92 be 5f 46 47 bf
       -3.3192234 -0.40793568 -0.28691357 -0.7784175
000160 2f ec c1 3d a0 1f 66 be aa 9a a3 3c d8 ca d2 bf
       0.094688766 -0.22473001 0.01997121 -1.6468153
000170 0a ef 4b c0 6e 70 94 bf 6b da 09 3f 7c e4 bf bd
       -3.1864648 -1.1596811 0.53848904 -0.09369752
000180 ed d0 03 c0 fb b8 55 c0 5e 1f 57 bf fd e0 23 be
       -2.0596268 -3.3394153 -0.8403224 -0.16003795
000190 cd ec e0 3d fe c8 06 3e 17 9a 04 bf 57 99 28 3e
       0.10982666 0.1316261 -0.5179762 0.16464745
0001a0 95 15 d1 bf a0 77 3e 3e 02 4a b2 bd da 26 bd bd
       -1.6334711 0.18600321 -0.08705522 -0.09235926
0001b0 c8 06 04 c0 83 f7 28 c0 eb ed cb 3e 0b af d6 3e
       -2.062914 -2.640107 0.39829955 0.41930422
0001c0 80 b4 63 bf 9b e9 40 c0 be b1 14 bd f7 26 98 3e
       -0.88947296 -3.0142581 -0.03630232 0.29717228
0001d0 c1 eb 45 bf b7 ea f1 3e d0 cb 4d c0 16 19 b7 3e
       -0.77312857 0.47249386 -3.2155647 0.35761327
0001e0 34 52 9a 3d 63 d4 4e c0 64 93 d3 bf cb 75 7c bf
       0.0753521 -3.231713 -1.6529355 -0.9861724
0001f0 f3 44 5f bf 69 44 09 be 7d d5 73 3e 03 0c 63 3f
       -0.87214583 -0.13405003 0.23811908 0.88690203
000200 59 20 41 c0 35 c2 01 c0 23 18 fc bd 82 9c 0c c0
       -3.0175993 -2.0274785 -0.12309291 -2.1970525
000210 56 ba da bc e0 93 16 3f 18 00 22 c0 8c c1 34 3f
       -0.02670018 0.5881939 -2.5312557 0.7060783
000220 7b f8 44 c0 9c e2 f0 bb 52 a5 aa bd 50 82 92 c0
       -3.077666 -0.0073512327 -0.083323136 -4.5784073
000230 e8 f1 59 bf 48 75 a9 be 7c db a6 3e 0d ce 4b 3e
       -0.85134745 -0.3309729 0.32589328 0.19902821
000240 81 82 74 bf 19 7b 2e c0 2d 45 0d 3f e6 1e ed bf
       -0.95511633 -2.7262633 0.5518368 -1.8525054
000250 8e 1c 25 bd 89 f9 23 3f 42 21 0d c0 e2 1a 05 bf
       -0.040310435 0.64052635 -2.205155 -0.51994145
000260 b2 8d 19 bf a8 1c 42 c0 25 45 a2 be 2f 34 5a c0
       -0.59981835 -3.032999 -0.31693378 -3.409435
000270 32 22 67 bc 4e fb c6 3e e6 63 0d be c6 40 63 3e
       -0.014107274 0.38863605 -0.1380764 0.22192678
000280 70 cf a5 bd 9c 11 85 be 47 f0 36 3e c0 7f 22 c0
       -0.08096206 -0.25989997 0.17865096 -2.5390472
000290 4f 04 a7 be e3 59 07 c0 2d ab 19 3e 85 cf cb be
       -0.32620475 -2.1148612 0.15006705 -0.39806762
0002a0 70 09 07 bf bb 2b a1 bf 66 0e 20 bf 16 fd de bd
       -0.52748775 -1.259147 -0.6252197 -0.10888116
0002b0 65 7d ef be 58 ae c5 be 58 99 bb bf 76 cc 5e 3c
       -0.46775356 -0.38609576 -1.4656172 0.013598552
0002c0 0b 88 85 be ba cc 83 be 60 2c dc be 9c fd 3c bf
       -0.26080355 -0.2574213 -0.43002605 -0.7382448
0002d0 31 c7 67 be 5b fa 90 bf 99 a0 32 bf cc 67 84 bf
       -0.22634579 -1.1326402 -0.697763 -1.0344176
0002e0 68 f6 3c 3f 24 95 5c c0 bf 4d bb 3e d8 14 e8 3e
       0.73813486 -3.4466028 0.36582753 0.45328403
0002f0 16 c8 2e c0 0a 74 51 be 69 5b e8 bf 8d 4f 31 3f
       -2.7309623 -0.20454422 -1.8152896 0.6926201
000300 0f 71 78 3f e9 68 82 c0 f5 46 6e bf 3d 76 85 3f
       0.97047514 -4.0753064 -0.9307702 1.0426708
000310 88 2b c0 bf c5 9e 5a bf 68 7b 7c 3e 92 3c 98 be
       -1.5013285 -0.85398513 0.24656451 -0.2973371
000320 75 23 2a 3f f7 43 30 bd 1f 8c 40 c0 0a 18 69 3f
       0.66460353 -0.043033566 -3.0085523 0.91052306
000330 d9 8e 9b bf 0c 99 49 c0 42 08 a6 3e 0a e6 7d be
       -1.2152969 -3.1499662 0.32428175 -0.24794784
000340 33 fe 7d 3e 67 57 69 bf 9f a5 64 bf f0 a8 f7 3d
       0.24804 -0.9114899 -0.8931522 0.12092769
000350 3e c2 7d bf 42 33 d9 bf 80 54 99 bc d8 59 32 3e
       -0.99124515 -1.6968768 -0.01871705 0.17417085
000360 cb 50 3b bf 97 98 ee 3d 38 09 d5 bf 5d d2 15 c0
       -0.73170155 0.11650198 -1.6643438 -2.3409646
000370 c8 59 ca bf fe 89 a0 be ae 2f a6 3d ee c4 1f 3f
       -1.5808649 -0.3135528 0.08114563 0.62409866
000380 0c f8 45 bf 5c 9e 3a 3d f3 af 27 c0 6b 79 3b 3c
       -0.77331614 0.04556118 -2.620114 0.0114425225
000390 4a 44 61 3e 68 ab 4a c0 04 cd a4 3e ca e2 09 3e
       0.21998706 -3.1667118 0.32187665 0.1346542
0003a0 af d5 96 bf 6c 6d a2 bd a6 8f 26 c0 cf 50 54 c0
       -1.1783961 -0.07931027 -2.6025176 -3.3174322
0003b0 fb f9 cb 3e 34 03 22 bf d5 34 73 3e 45 75 a8 bd
       0.39839157 -0.6328614 0.23750623 -0.082254924
0003c0 b3 5d 65 3f f4 fe 40 bf 15 8f 0a bf c9 18 c4 bc
       0.895961 -0.7538903 -0.54124576 -0.0239376
0003d0 34 b3 29 bf a2 cb 54 bf 6e b3 82 be df 5a 2e c0
       -0.6628907 -0.8312322 -0.2552752 -2.7242963
0003e0 4c d0 d8 3e e0 ed bc 3e bc 3c 13 c0 9b 1c d2 be
       0.42346418 0.36900234 -2.300582 -0.4103745
0003f0 9a 93 d0 3d 21 9d 01 c0 c4 62 c0 3d 17 2f fe bf
       0.10184403 -2.0252154 0.09393838 -1.9858121

l3.bias f4 [37]
000000 ba ed 29 be ce 16 68 bf 35 0f 03 bf e3 8d 5e be
       -0.16594592 -0.906598 -0.5119508 -0.21733813
000010 7b d7 a0 be 06 82 99 bd 59 62 26 3e b7 6b 80 3d
       -0.314144 -0.07495503 0.16248454 0.06270545
000020 6a 0f 6d 3e 15 72 83 bd dc 0e 00 bf 83 3e eb be
       0.23150411 -0.06418244 -0.50022674 -0.4594613
000030 7b 9f 2e 3c 36 7a 5e 3e ea a5 3b 3d 90 91 47 3e
       0.01065814 0.21726307 0.045812525 0.19489121
000040 a1 3b f0 3d 43 0d c4 bd 2e f4 be 3c 70 3f 3e 3e
       0.11730123 -0.09572842 0.023309793 0.18578887
000050 97 8d 23 3e 69 e2 3d 3e 2a 88 af be 98 fa 3c 3f
       0.15971981 0.185434 -0.34283572 0.73819876
000060 71 b5 da bd b0 0f 1c be aa c1 16 3f e4 88 18 3e
       -0.106791385 -0.1524036 0.5888926 0.1489597
000070 da 28 1f 3f f6 24 9a 3d 58 51 a3 3e e3 2e 4f be
       0.6217171 0.07526581 0.31897998 -0.2023273
000080 8e 90 8b bd 84 33 bf 3e 3a 55 c3 bc 4f 0f 2d be
       -0.06814681 0.3734399 -0.02384435 -0.16900371
000090 bf 78 ed bd
       -0.11595296
