src/data.pth (torch, 19115 bytes, 6 tensors)

l1.weight f4 [8, 304]
00000000: 67f5 3341 153d be40 c35b c03e c4ad e53e
00000010: 2545 d63e 6209 1f40 c535 e93f 6116 0940
00000020: e79b a440 d583 30be 1297 2140 f3e1 8c40
00000030: 8d76 2b3f 3757 af40 96e3 9d40 f9c9 7840
00000040: ebfc 6a3f aec8 933f 5ba5 0740 74c5 a23f
00000050: 23cb 6640 0e81 503f 1f82 d93e 4f93 253f
00000060: ac6b 263f 5135 973f ce4d 4840 a125 5b3f
00000070: bc14 6240 cb5a 0140 d842 ab40 78bd a040
00000080: 9f1b d33e 8100 3a3f e866 8240 1eb0 163f
00000090: da04 c63f 0380 6440 cb6d 7c40 0269 7540
000000a0: a872 6240 2ae9 9b40 a876 5840 c6aa 873f
000000b0: cf34 163f 2281 5d40 86f5 fe3f ba95 933e
000000c0: a9ab d73e bac2 023f 158b 0940 7aeb 863e
000000d0: c5a1 413f d51f 603d 3f94 a43f 9507 a23f
000000e0: 4a86 2440 f5bf 2240 ec0d 1740 9b26 1640
000000f0: 9c14 0340 dde1 c13f 6b1f f53f 239c ac40
00000100: c69d 0940 82a1 ff3f 0a5f 0240 5e38 1d40
00000110: 49c2 ea3f a0ad 7f3f a398 783c 16a0 643f
00000120: 7e2e 533f f78b cd3e 1d70 453f 1baa 353f
00000130: 54ee 9b40 bf99 133f 3af8 333f 940d 4441
00000140: 193b cc3f d850 353c 1008 6c40 728b 77bc
00000150: 7e4f afbc 742c 9c3f c9fc df3f 3728 6c3f
00000160: 7e8c 193f 5eb7 283f 01aa 383f 8030 4fbd
00000170: afe3 1fbe b0d6 f83f 2cfc 5a3f 36bc 703f
00000180: a4a9 263f abb1 e53f 72d2 8240 d633 3040
00000190: 0f26 1040 073e 0140 8839 8f40 6df8 dc3f
000001a0: 5c21 a13f 87a3 1940 98b2 583e 69d9 d140
000001b0: 338c fe3f e0ce 1440 e9b1 1a40 ac5f da3f
000001c0: 3414 78be 330b 903f f9d0 3c3c fe43 6b3e
000001d0: 80dc 0240 29e3 8d40 912f 0440 dd25 6f40
000001e0: 6363 7a40 ff73 a140 8845 333f 557e 5d3f
000001f0: 3608 3540 b072 003f 6224 6e3f b914 9f3f
00000200: 6bf6 9940 f23a 9140 3a17 a63f 4ed9 223f
00000210: 6920 303f 713f 7d40 d67b 7640 b6ad 953f
00000220: b3c7 903f 5ea9 bc40 fcd0 a33f 8f28 8e40
00000230: 5f60 993f ec50 f23f 0705 f33f b679 4140
00000240: d076 ab3f cbe6 8e40 bdd6 27be e6c8 623f
00000250: 9e80 96bd 856d 993f 2708 1340 c310 0740
00000260: 3f85 0740 4d9a 873f f9c6 1140 c788 0540
00000270: 1ecf c33e 85b5 a73f e210 863f 8c9b b23f
00000280: 493d 713f 3a5e 9040 9e1f 1940 aa4a b53f
00000290: f38b 5440 cbee be40 e271 7c40 f38d b6be
000002a0: 2052 5c40 700c e63e 00e9 0c3f 00f9 bf3f
000002b0: aa7d dcbd 6550 a73f 9d38 b340 9619 dd3e
000002c0: 2ec6 a440 32eb c43e 85f2 5e3f 2c76 323f
000002d0: ce43 5e40 95d8 6e40 ca0b 243f 577f 4a3f
000002e0: 09a2 293f 1ad5 f93f 89a9 833d 8171 f23e
000002f0: ec57 403f 8c93 243f f16a 353f dd90 1140
00000300: a34e ce3e e543 b140 cea5 e83e c4e1 f73f
00000310: bb02 a440 a588 b33f 9076 9540 9267 7d40
00000320: 5ff5 3040 0ff0 303f 23c7 a33f 8464 ba3e
00000330: 7707 1740 a993 e83f 6d48 6a3f bfdf a03f
00000340: fb16 e93f 48fc e93f e581 02bd 1e1e a03f
00000350: 2ac8 b440 1b16 dabd 97b0 e0bd b851 ad3f
00000360: 1238 fc3e 1ca3 8abd 5e06 3bbd 70a4 fa3f
00000370: 694a d13e beb7 963e 7b91 ec3e ba64 cb3e
00000380: 2fd9 103f 366b 933f e0a3 7640 7e91 f33f
00000390: fccb f03f 897c d43f 3a9f 0440 d253 cf3d
000003a0: 9b33 f83f ba61 0b3f cbf6 0d3f c5f2 c93d
000003b0: 2be1 1f40 39c7 ec3f 1bed ef3f 2809 233f
000003c0: a3c8 223e e29b fd3f f28e cc3f 9063 5840
000003d0: dbb4 8140 3221 fa3f 679a 1840 cb7f fe3f
000003e0: 0c8c d23f 926d 0440 37e2 0340 1796 c23e
000003f0: be36 7e3e da40 1640 ecf3 6340 ffea a13f
11.247413 5.9449563 0.3757001 0.44859135 0.41849628 2.4849477 1.8219534 2.141991
5.144031 -0.1723779 2.5248456 4.4025817 0.6697777 5.4793963 4.9340315 3.8873274
0.9179217 1.1545618 2.1194675 1.2716508 3.6061485 0.8144692 0.42482087 0.646779
0.65008044 1.1813146 3.1297488 0.8560429 3.5325155 2.0211666 5.3519096 5.0231285
0.4123201 0.7265702 4.075062 0.58862484 1.547023 3.5703132 3.9442012 3.8345342
3.538248 4.8722124 3.3822422 1.0598991 0.5867433 3.4610066 1.9918678 0.2882517
0.42123154 0.5107838 2.149114 0.2635153 0.75637466 0.054717857 1.2857741 1.2658564
2.5706964 2.5429661 2.3602247 2.3461063 2.048133 1.5147053 1.9150213 5.3940597
2.1502547 1.9971163 2.0370507 2.4565654 1.8340541 0.99874306 0.01517311 0.8930677
0.82492816 0.40145847 0.77124196 0.70962685 4.872843 0.5765647 0.7030064 12.253315
1.5955535 0.011066638 3.687992 -0.01510893 -0.02140021 1.2201066 1.7499019 0.92248863
0.5998 0.65904796 0.72134405 -0.050583363 -0.15614198 1.9440517 0.85541034 0.9403719
0.651026 1.7944845 4.088189 2.7531638 2.252323 2.0194108 4.475773 1.7263314
1.2588305 2.400606 0.21161878 6.5577893 1.9886535 2.3251266 2.4171088 1.7060447
-0.24226457 1.1253418 0.011524432 0.22975156 2.0447083 4.4339795 2.0654032 3.736686
3.912316 5.0454097 0.7002797 0.8652089 2.8286262 0.50175 0.93024266 1.2428199
4.8113303 4.5384455 1.2975838 0.6361283 0.68799454 3.9569972 3.8513083 1.1693637
1.1310943 5.8956747 1.2798152 4.442451 1.1982535 1.8930945 1.8985909 3.0230536
1.3395634 4.465673 -0.1639051 0.88587797 -0.073487505 1.1986548 2.2973726 2.110398
2.1175077 1.0593964 2.2777693 2.0864732 0.38243955 1.310227 1.0473902 1.3953719
0.9423414 4.5115023 2.3925548 1.4163411 3.3210418 5.9666495 3.9444509 -0.35655174
3.4425125 0.44931364 0.5504303 1.4997864 -0.10766156 1.307141 5.600661 0.43183583
5.149192 0.3846069 0.87088805 0.69711566 3.4728885 3.731969 0.6408049 0.79100555
0.6626287 1.9518158 0.06428821 0.47352222 0.7513416 0.6428764 0.70866305 2.2744668
0.4029437 5.539538 0.45439 1.9365773 5.1253333 1.4026076 4.670723 3.9594464
2.7649763 0.691163 1.2795147 0.36404812 2.3598306 1.8170062 0.9151676 1.2568282
1.8210138 1.8280115 -0.03186216 1.2509191 5.649434 -0.106487475 -0.10971182 1.3540564
0.49261528 -0.06769392 -0.04566037 1.9581432 0.40877083 0.2943706 0.46204743 0.39725286
0.56581396 1.1517093 3.8537521 1.9028776 1.8812251 1.6600505 2.0722184 0.10123409
1.9390749 0.54445994 0.554547 0.09860758 2.4981182 1.8498298 1.8744234 0.63685846
0.1589685 1.9813197 1.5981123 3.3810768 4.053327 1.954138 2.384424 1.9882749
1.6448989 2.0691876 2.060682 0.38005134 0.2482557 2.3477082 3.5617628 1.264984

l1.bias f4 [8]
00000000: f684 4840 e031 bf3f 3408 2c40 57e3 0640
00000010: 4039 3040 0292 87bd 5598 6740 5012 4240
3.1331153 1.4937096 2.6880007 2.1076257 2.7534943 -0.06619646 3.6186726 3.0323677

l2.weight f4 [8, 8]
00000000: f2d4 0dbf 51b1 0f40 0a9a 91bf 82d5 a9bd
00000010: 0ae4 cd3f e583 3e3e ee68 3540 3f5f 0240
00000020: 2927 053f 2761 a93f b5e9 0140 e0a6 893f
00000030: 71f4 9e3f 2792 71be 0beb 093f 0c32 033f
00000040: e350 5a40 486a a63e ab47 733f b3e2 2c40
00000050: 5647 4340 6f0e 5cbe fef9 d43d 15e7 1140
00000060: 8f28 1a40 2515 3040 a151 3540 a838 1c40
00000070: 9fe8 933f f7ad b03e 94f5 c33f 2307 f93d
00000080: 1f3e aa3f df0f 223f e74b 2dbf e6ab a93f
00000090: 5b78 d33f 200d 9cbe a206 d93f 89d5 0e40
000000a0: a8cf 3c40 2ee0 3e40 4080 f73f b860 5b3e
000000b0: 654b 353f 785c 56bd 5d83 3c40 e1dd 3640
000000c0: 433a dc3f 4279 40bf 2015 2f40 411f c43f
000000d0: 0212 023d 3e6e ecbd 6d94 2740 350f 0e40
000000e0: 5fdb 0b40 3621 3abf f3aa 7e40 4ee0 0d40
000000f0: 2ad2 0840 99a7 c4bc 7d76 af3f ec2e 5d3f
-0.55403054 2.2451975 -1.1375134 -0.082926765 1.6085217 0.18605001 2.8345294 2.0370634
0.5201288 1.3232774 2.0298893 1.0754051 1.2418348 -0.23590909 0.5387427 0.5124824
3.411187 0.3250296 0.9503123 2.7013366 3.051229 -0.21489881 0.10399245 2.2797291
2.4087255 2.7512906 2.8331072 2.440958 1.1555365 0.34507725 1.530932 0.12159564
1.3300208 0.6330547 -0.6769394 1.3255584 1.6521105 -0.30478764 1.6955149 2.2317832
2.9501743 2.9824328 1.9336014 0.21423614 0.7081817 -0.05233428 2.9455178 2.8572924
1.720528 -0.75185025 2.7356644 1.5322038 0.031755455 -0.115444645 2.6184342 2.2196782
2.1852643 -0.72706926 3.979184 2.2168155 2.1378274 -0.024005698 1.3708035 0.8639972

l2.bias f4 [8]
00000000: d2ed 993f 59fd 473f 31a2 3e3f 64ef c33e
00000010: 7535 3ebd 3098 0c3f b087 efbd c04c ef3f
1.2025702 0.7812095 0.74466234 0.38268578 -0.0464377 0.5491972 -0.11695802 1.8695297

l3.weight f4 [39, 8]
00000000: 02b3 f4be 1612 52bf c81a 8abf 80cb cabf
00000010: f2fd 9bbf c8ad 8bbf 4bdb 91bf 10f4 8fbf
00000020: 0ce3 23bf baaf e4be c578 a1bf c44f b3bf
00000030: 9509 7ebf 6611 85bf 04bf bbbf 3811 93bf
00000040: 03c5 7ebf f774 7dbf 51e2 9abf a3f9 cabf
00000050: 2ae1 3bbf 87fd 71bf b1ce b5bf 2d4e 5cbf
00000060: 7c66 88bf d4d9 debe 9dfd c1bf afe0 60bf
00000070: 7bfe 9abf 8f75 c5bf d887 c6be 17d5 8dbf
00000080: 3011 e5bc 4851 1cbf 99c6 9fbf 0fef 03bf
00000090: 630b dabe 4e46 3dbf c6b8 39c0 9a34 c0bf
000000a0: c8ea 4dbf f07d 6cbf da22 6bbf 25b6 b0bf
000000b0: 189d b4bf c2f4 93bf 14c3 a4bf a237 6bbf
000000c0: 8d55 1ebf 93e3 56bf 906c 94bf 70f8 c7bf
000000d0: 1ee7 51bf 3c58 78bf 13f3 b6bf 0f26 88bf
000000e0: b000 33bf 60c4 79bf 542e 58bf 2ccf a2bf
000000f0: a752 87bf 4914 c8bf 99dc 90bf a797 7fbf
00000100: 75db 113f 082c a3be bb8e 4cc0 17f2 94c0
00000110: c626 03bf 187b d4be 61d6 b03e 3e9a f13e
00000120: 7dab 353f e137 fabc b1ac 99bd d37c 54c0
00000130: a778 33be ba9c 73c0 53a9 11bf d0a2 1f3f
00000140: 10b3 33c0 abf7 1abf b8ac 8dbe b964 aebf
00000150: f00f 43bf 61de 47c0 2ca9 623f de7f 11bf
00000160: c545 d9be b074 9bbe 62e8 edbd 30fa 8fbc
00000170: 4636 9fbe 404e 0fc0 0d86 6bc0 a386 3abf
00000180: 28b4 c43d 6131 c1be 0eb0 73bf 588c 6ac0
00000190: aeeb 2abd 9e43 b9be 97e9 94bf af3c a8bf
000001a0: a31f 61bf 7cef 1abf 7743 71bf 72d8 acbf
000001b0: 0e39 1ebf 379b b9bf 2aa3 bcbf b5d7 89bf
000001c0: fe1a 5cbf 2568 98bf b223 20bf 4a1c 67c0
000001d0: e857 06bf 1336 b5bf 6585 ca3e cfd1 f1be
000001e0: ddbd 80bf 69d3 7ebf 4a7f 9bbf 9957 c8bf
000001f0: 5190 1dbf a2d4 cbbf bdc9 72bf 84af 20bf
00000200: 5f53 3c3f ec5d c0bd 0fd7 08c0 85ef b3bf
00000210: 8ff5 e73d e7cd 0a3e 8d02 10c0 48ce 2ac0
00000220: 3d88 31bf 0044 41bf 8000 68bf 024a a1bf
00000230: 460e a8bf 0be8 a4bf 066e aabf 0209 87bf
00000240: b9f6 70be 56a7 2ebf b8fd 3ec0 7144 9cbf
00000250: d645 45bf eaf8 5dbe 582b 5dbd ae24 02c0
00000260: a1a8 51bf 32e8 5dbf 6724 b1bf ec50 c9bf
00000270: 27bb 59bf c3c0 8dbf 5fe9 87bf f6ac 6bbf
00000280: e489 1bbf 1b5b 22bf 20ab a0bf d4cc c0bf
00000290: 6024 29bf 2754 afbf c16e 94bf b271 8abf
000002a0: 86f6 18bc c800 b03e a02c 2ac0 f25a 853e
000002b0: 2cc6 29c0 0124 13bf 1d67 2dc0 0236 ccbe
000002c0: 8cf4 68bf 5b71 0ebe 2c01 eabe 12f5 77be
000002d0: 9ee8 a3bf 254a a93d 3575 b1c0 35b5 1bbf
000002e0: 97bb 07c0 7c23 cd3e bf9e 5dbf 8ce6 a53e
000002f0: 5f10 0bc0 897c d3bf 96c1 37c0 a6af 9f3b
00000300: 38b2 17bf c2a4 77bf 6994 a3bf df61 d6bf
00000310: 0816 59bf 7600 7bbf d86a bfbf ad47 40bf
00000320: 45a2 69c0 16d8 fbbd 98c8 e7bf f32d 2cbf
00000330: 3ab7 69c0 c826 0ebf 20d9 0b3f d1c9 9dbe
00000340: 24bb 0ebe 9801 e8bc bfef ac3e 5af0 56c0
00000350: e463 89bd 2f2f f7be fcd5 7ec0 000a a6be
00000360: 13c4 4dc0 caf2 db3d 909f 023f ee7f 1abe
00000370: 1fb1 f9be 72a2 97c0 8935 c6bf b475 443f
00000380: b3d5 37bf a6e9 64bf 92f9 86bf 38f6 ccbf
00000390: 0cb0 3fbf 8cc1 8dbf b6a0 a8bf 56d8 8abf
000003a0: 70e1 e7be c214 18bf 420e 38bf 650c a1bf
000003b0: f7d0 82bf 1478 c9bf 2d37 c2bf f878 93bf
000003c0: e6dd 8bbf 2460 75bf 27b2 76bf 96e0 98bf
000003d0: f098 93bf 759b 9dbf 4ac0 bbbf 99cd 45bf
000003e0: 9029 8cbf 475b 0dbf 5049 a1bf e7cf afbf
000003f0: c4ef 75bf a70f 8abf e8cd 9dbf 84dd 89bf
-0.47792822 -0.82058847 -1.0789423 -1.5843353 -1.2186873 -1.0912409 -1.1395048 -1.1246357
-0.6401832 -0.4466532 -1.2614981 -1.4008718 -0.9923337 -1.0395935 -1.4667668 -1.148963
-0.99519366 -0.990066 -1.2100316 -1.5857433 -0.7339045 -0.9452748 -1.4203702 -0.86056787
-1.0656276 -0.43525565 -1.5155522 -0.8784284 -1.2108911 -1.5426501 -0.38775516 -1.1080655
-0.027962297 -0.61061525 -1.2482482 -0.5153665 -0.42586812 -0.739354 -2.9019027 -1.5016053
-0.8043637 -0.92379665 -0.91850054 -1.3805586 -1.4110441 -1.1559069 -1.2872033 -0.91881764
-0.6184929 -0.83941 -1.1595631 -1.5622692 -0.8199328 -0.97009635 -1.429293 -1.0636615
-0.69922924 -0.9756527 -0.8444569 -1.2719474 -1.0572098 -1.563119 -1.1317321 -0.9984078
0.5697549 -0.3186953 -3.1962116 -4.654552 -0.5123104 -0.41500163 0.34538558 0.4718799
0.70964795 -0.030544223 -0.075036414 -3.3201187 -0.17526494 -3.8064408 -0.56898993 0.6235781
-2.807804 -0.6053416 -0.27670836 -1.3624488 -0.76196194 -3.122948 0.88539386 -0.56835735
-0.42436042 -0.30362463 -0.11616589 -0.017575353 -0.31096095 -2.239151 -3.6800568 -0.7286169
0.096046746 -0.37732986 -0.95190513 -3.664816 -0.041728668 -0.361844 -1.1633786 -1.3143519
-0.879389 -0.60521674 -0.9424357 -1.3503554 -0.6180581 -1.4500493 -1.4737294 -1.0768954
-0.85978687 -1.1906782 -0.62554467 -3.6111016 -0.52477884 -1.4157127 0.39554897 -0.47230384
-1.0057942 -0.99541336 -1.214822 -1.5651733 -0.61548334 -1.5924265 -0.9483908 -0.62767816
0.73564714 -0.09392914 -2.1381261 -1.405747 0.113261335 0.13555108 -2.2501557 -2.6688404
-0.6934851 -0.75494385 -0.9062576 -1.260071 -1.3129356 -1.2883314 -1.3314826 -1.0549624
-0.23531617 -0.68224084 -2.9842358 -1.2208387 -0.77059686 -0.21676984 -0.053996414 -2.0334888
-0.8189793 -0.86682427 -1.3839234 -1.572782 -0.85051197 -1.1074451 -1.0618094 -0.9206079
-0.6075728 -0.63420266 -1.2552223 -1.5062509 -0.6607113 -1.3697556 -1.15963 -1.0815947
-0.0093361195 0.34375596 -2.6589737 0.26045948 -2.6527205 -0.5747681 -2.7094185 -0.39884955
-0.9099815 -0.13910429 -0.4570402 -0.2421458 -1.2805364 0.08266095 -5.5455575 -0.60823375
-2.1208246 0.40066135 -0.8657035 0.32402456 -2.1728742 -1.652238 -2.8711905 0.004873234
-0.59256315 -0.96735775 -1.2779666 -1.6748618 -0.8479924 -0.9804758 -1.4954481 -0.7510937
-3.6505291 -0.122970745 -1.8108091 -0.6725761 -3.6518083 -0.55527925 0.5462818 -0.30818036
-0.13938576 -0.028321072 0.33776662 -3.35842 -0.06708506 -0.48278186 -3.9818106 -0.32429504
-3.2150924 0.10739668 0.51024723 -0.15087864 -0.48767945 -4.7385798 -1.5485088 0.767421
-0.71810454 -0.8941902 -1.0544913 -1.601264 -0.74878 -1.1074691 -1.3174045 -1.084727
-0.45289183 -0.59406674 -0.71896756 -1.2581908 -1.0220021 -1.573977 -1.5173088 -1.1521292
-1.0927093 -0.95849824 -0.9636559 -1.1943538 -1.1531048 -1.2313067 -1.4668057 -0.7726684
-1.0950184 -0.55217403 -1.2600498 -1.3735322 -0.9606898 -1.0786027 -1.2328463 -1.0770726

l3.bias f4 [39]
00000000: 9a07 21bf bd1e f8be e31b 87be 7320 09bf
00000010: 6530 65bf b7bf c13c 50ce 22bf 0c30 f3be
00000020: a38a 1f3e 8e16 2a3f 2d2b 0dbf 8457 99be
00000030: fbb4 9abe 2007 0bbf 2a63 e7be ae35 1abf
00000040: f6d8 afbe 64d4 023b 1e13 1fbd caab c4bd
00000050: 22ed 0abf 3193 0c3e ac79 9dbc d176 543e
00000060: c210 37be ed5e 513f dd5e 683e 4d63 103f
00000070: 6ec7 36be c2be c2be 7e38 0fbf 7fdf 64be
00000080: 5c75 25bf a005 69be 7d7b 513c 27d9 77be
00000090: 364c 6dbe 4667 c1be a4cf d2be
-0.62902224 -0.4846095 -0.26388463 -0.5356514 -0.8952697 0.023650987 -0.6359606 -0.47497594
0.1558023 0.66440666 -0.55144006 -0.29949582 -0.30216202 -0.54307747 -0.45192844 -0.6023816
-0.34345216 0.001996302 -0.03883659 -0.09603079 -0.54268086 0.13728024 -0.019223057 0.2074845
-0.17877486 0.8178547 0.22692437 0.5640152 -0.17849514 -0.38036162 -0.55945575 -0.22350882
-0.646322 -0.22756052 0.01278579 -0.24203931 -0.23173603 -0.37774104 -0.41174042
