src/data.pth (torch, 9759 bytes, 6 tensors)

l1.weight f4 [8, 115]
00000000: 539e 2e3e 3bf6 0f3f 93e6 be3e dcf3 a13d
00000010: f475 293f f9bb bdbd 2f53 47bd 8324 2d3f
00000020: 5e8a 343f 01c6 8bbe 06f3 8e3e ee3b 3a3f
00000030: 372c 1c3f c094 903e ca28 c0be f172 ea3e
00000040: 68ef a63e 2c2c 5a3f 1127 2f3d 11c6 8a3e
00000050: 86f8 eb3e 5a89 0d3f ba7b a0be 7424 f0be
00000060: ee34 753f 23d2 f43c 3756 d3bd 3302 8ebe
00000070: 6ea9 3e3f a086 4abe 2d54 80be ad5f 153f
00000080: 5e57 15bf bbce c0be c176 d53d ae22 9d3f
00000090: 68d9 973d 7404 67be e103 87be f067 833f
000000a0: 058a dd3c 235c fe3e 1bc7 1a3f cc4c 823f
000000b0: 0dcf bc3f ad45 9abf d787 cf3f 9fb9 ca3f
000000c0: acc9 de3e d4a2 963f 2974 813f 6055 a03d
000000d0: 98c1 553f 4c1e be3e 3b9c 533f d086 ccbe
000000e0: 8504 f4be 172b 91bf d6e0 9abe 03b8 8ebe
000000f0: 54d0 2dbe 296b 8f3f ff5a bc3e e72e b93f
00000100: 5613 aebe 69d1 803f ed65 bd3e f82c a6be
00000110: a6a6 273f 843a 19bd 72a1 f33e db88 16be
00000120: 697d c23e e7c6 783f 5fcd 13bf 0221 383f
00000130: f4f3 f43e e7ac 1740 a104 b43e 1662 1fbf
00000140: 86aa 3f3e 2e9c 74be 1245 9d3e c461 9e3c
00000150: f2a4 163f f723 c63e 08d9 11be e57c 333f
00000160: 6dcb d7be 2c58 223f e16a 8c3e ad17 74be
00000170: 62b0 4c3f c6af d53e f349 45be 41d1 813f
00000180: 4901 a1bf 0c25 733f ae09 983e 09fc 2b3f
00000190: 1fd9 ab3e 1f7c 743f 41b1 ff3d 0b9e 2f3c
000001a0: 1948 343f 0508 24be 0aae de3e dd74 1b3e
000001b0: 8fc0 c23e fb90 82bf 0371 c13d ac30 0b3e
000001c0: 2ae3 403e 35c9 be3e 2aed 9b3f 3d11 98be
000001d0: 9744 c0be e5d5 cbbe c72c 753f b651 a23d
000001e0: 4275 c839 f53f 253e 5e26 ba3d 205c 25bd
000001f0: 409d 11bf 26e3 83bd 78d4 9ebe c1d6 583f
00000200: 9d41 1d3f 3662 963f 9105 5cbe fb97 de3c
00000210: 1585 f93e aad5 00bf 4f3e 313c 6090 163e
00000220: 3bdd 3e3f c371 2c3f 59bd b93f c72e b8be
00000230: f7d4 e63e e0cb c13e ef79 14bf 0fea 60bf
00000240: 2e36 20be 259c 6b3f c539 033e 0d0f 87bf
00000250: a716 67bc 3b13 ce3e 6372 e5bc 50df 6fbd
00000260: 28e1 10bf fbbe 083f 7ad8 783e d7aa fabe
00000270: 660d 4d3f b03e b3bd b9f3 863d a03e 6fbe
00000280: 258a 5dbf 4aff 93be a3f1 94be c962 b73d
00000290: 126c dabd a0d9 e63d c9d4 0a3e 5879 9e3f
000002a0: a6d1 debd ebdf f53e 68c7 a6be e15d 2c3f
000002b0: 4a72 94bf aa57 a43d a537 283e 3607 8c3f
000002c0: ecd9 c73e dafd e63e c4b0 143f 0d8d a73f
000002d0: 2ac9 0f3f 058e 22be b7b7 45bf 367b ac3e
000002e0: a9be 44be a0c4 30be 2374 e93e 8103 bd3d
000002f0: 54eb acbd 8959 a33f 8b6c 453f 69fb 5b3e
00000300: 900b 443e 908b ebbe d5f9 83bf c8a4 aabd
00000310: eb21 513e 886b 053e 7fd8 823f 6fc7 eb3f
00000320: 86ea d43f a8d7 e03d 7f7f febc 3efa c8be
00000330: 5d1f 8a3b 35d7 d0be 3fc9 2cbc edb2 66be
00000340: 0366 c03e 51b5 ec3e 16fc f93d 6921 953f
00000350: 3f07 3abf d9b2 f2be f07e 93be 1c96 a4be
00000360: 2af0 33bf c4c3 c93f 3a96 a73e c6fd 343f
00000370: 68dd ec3d 4680 35be 3b93 b4be cc9c fb3f
00000380: e773 adbe daab de3e 9218 87bd db10 08be
00000390: 4a5a 08bf 6563 b63e 7413 4abf 80d5 a6bf
000003a0: 7eb5 7bbe ff21 963e 2fd7 353f 8149 083f
000003b0: 5a61 e73e 9c90 b03d c47c 8d3e 49bb 82bf
000003c0: 4738 19bd 0a14 af3e 7841 623e e16f 0e3f
000003d0: 0f9f 523f ca6a abbd 93f9 fbbe 3fce 643f
000003e0: be85 933f 633d 15bf 12bc 6cbe 374a 783f
000003f0: 2001 8b3d 9b0b 2f3f 1be5 c03e a306 30be
0.17052583 0.5623509 0.3728529 0.079078406 0.6619561 -0.092643686 -0.048663314 0.6763384
0.7052363 -0.27299502 0.27919787 0.72747695 0.61004966 0.28238487 -0.3753112 0.45790818
0.32604527 0.8522365 0.042761866 0.27104238 0.46088046 0.55287707 -0.31344396 -0.46902812
0.9578389 0.029885357 -0.103191786 -0.27736053 0.7447728 -0.19777918 -0.2506422 0.58349115
-0.58336437 -0.37657723 0.10423041 1.2276208 0.07414514 -0.22560292 -0.26370147 1.0266094
0.027043352 0.4967967 0.6046006 1.0179687 1.4750687 -1.2052513 1.621333 1.5837897
0.43513238 1.1768441 1.0113574 0.07828784 0.83498526 0.3713249 0.82660264 -0.39946604
-0.47659698 -1.1341275 -0.3024966 -0.27874765 -0.16974002 1.1204578 0.36788175 1.4467438
-0.33999127 1.0063907 0.36991826 -0.32456183 0.6548866 -0.03740932 0.4758411 -0.14700644
0.37986305 0.971785 -0.57735246 0.71925366 0.4784237 2.3699281 0.35159782 -0.6225904
0.18717393 -0.23887703 0.3071676 0.019333728 0.58845437 0.38699314 -0.14242947 0.7011245
-0.4214739 0.6341579 0.27425292 -0.23837157 0.7995664 0.41735667 -0.1926649 1.0141984
-1.2578517 0.94978404 0.29694885 0.6718145 0.33564088 0.95501894 0.124849804 0.010718833
0.7042251 -0.16018684 0.43492156 0.15181299 0.38037536 -1.0200495 0.094453834 0.13592786
0.18836656 0.37262884 1.2181752 -0.29700652 -0.3755233 -0.39811626 0.9577145 0.079257414
0.00038234337 0.16137679 0.09089349 -0.04037106 -0.5688057 -0.064398095 -0.31021476 0.8470269
0.6142824 1.1748722 -0.21486498 0.02717208 0.48734346 -0.50326025 0.010818078 0.14703512
0.7455632 0.67361087 1.4510909 -0.35973188 0.45084354 0.37850857 -0.57998556 -0.87857145
-0.15645668 0.9203513 0.12815006 -1.0551468 -0.014104522 0.40249047 -0.028008645 -0.058562577
-0.5659356 0.53416413 0.2430133 -0.48958465 0.8009857 -0.08752191 0.06589455 -0.23363733
-0.86538917 -0.28905708 -0.29090604 0.08954389 -0.10665144 0.112719774 0.13557734 1.2380781
-0.10879831 0.48022398 -0.3257401 0.6733075 -1.1597378 0.08024533 0.16427477 1.0939701
0.3903345 0.45115548 0.5808222 1.308992 0.56166327 -0.15874489 -0.7723345 0.33687752
-0.19213356 -0.17262506 0.45596418 0.09229184 -0.08443323 1.2761699 0.7711875 0.21482624
0.19145036 -0.46004915 -1.0310618 -0.08332211 0.20423095 0.13029301 1.0222319 1.8420237
1.6634071 0.10978633 -0.031066654 -0.3925342 0.0042151646 -0.4078919 -0.010546028 -0.22529192
0.3757783 0.46232083 0.12206285 1.1650821 -0.72667307 -0.47402075 -0.28807783 -0.32145774
-0.70288336 1.5762868 0.327318 0.7069973 0.115656674 -0.17724714 -0.35268578 1.9657226
-0.3387749 0.43490487 -0.06596483 -0.1328768 -0.5326277 0.35622707 -0.78935933 -1.3033905
-0.24580953 0.29322812 0.7103147 0.5323716 0.4519146 0.08621332 0.2763425 -1.0213405
-0.037407186 0.34194976 0.22095287 0.55639464 0.82273954 -0.08369978 -0.49213848 0.89377207
1.152519 -0.58296794 -0.23118618 0.9698824 0.06787324 0.68377084 0.37674794 -0.17190032

l1.bias f4 [8]
00000000: 8c58 e73e 1bf5 413f b3c6 1340 8457 e33f
00000010: d091 833f 2c3b 0540 e7d8 b33f d3cc 623f
0.45184743 0.75764626 2.3090026 1.7761083 1.0278873 2.0817366 1.4050568 0.88593787

l2.weight f4 [8, 8]
00000000: cdd5 3540 1e0b 0740 9db2 3140 e60c f33f
00000010: 315f 1b3f 5a92 3d40 9918 e3bf 1e02 323f
00000020: 50eb d23f e418 e93f c45b a23d df4d d7bf
00000030: cabf 0bbd 8928 203f 3fcf fb3f 92e9 2340
00000040: 2d51 66bf 7cec 11bf 4707 1b40 923b 803f
00000050: 2324 3e40 9676 8bbf 3ef0 0140 1636 233f
00000060: caa3 f83e 6413 20be ef07 91bf 5287 2040
00000070: 11f9 1340 8851 9e3f 9adb f03e b2a4 283d
00000080: 8788 83bf 51c2 4240 63b2 d3be fb8e b73f
00000090: ab12 76bf 7358 a03f 78dc 2840 ff96 a0bf
000000a0: b35d aa3f 4e1e 8dbf c8c2 923f 8c36 1f3f
000000b0: 0473 97bf ee13 aebe cead 453f 34da 0540
000000c0: 7823 c73f 0399 b5bf bd7d b5bf cb43 0b40
000000d0: b485 a93f 60b5 2c3f 59e9 a93f 1b5a 713f
000000e0: a875 d2bf c294 48bf 4b9b dd3e 4dde c13f
000000f0: 5539 85bf bdeb f93f 8167 983f 430c 573f
2.8411744 2.1100535 2.7765267 1.8988311 0.60692126 2.9620576 -1.7741882 0.6953448
1.6478062 1.8210721 0.07927659 -1.6820639 -0.03411845 0.6256185 1.9672621 2.561131
-0.89967614 -0.5700147 2.4223192 1.001818 2.9709556 -1.0895565 2.0302882 0.63754404
0.4856246 -0.15632397 -1.1330546 2.5082593 2.3120768 1.2368631 0.47042543 0.04117269
-1.027604 3.0431101 -0.41347036 1.4340509 -0.96122235 1.2526993 2.6384563 -1.254608
1.3309845 -1.1024873 1.1465693 0.62192607 -1.1831975 -0.3399958 0.7721833 2.091443
1.5557699 -1.418732 -1.4178997 2.1760128 1.3243928 0.67464256 1.3274337 0.94278115
-1.6442156 -0.78351986 0.43282542 1.5145966 -1.0408121 1.9525067 1.1906587 0.84003085

l2.bias f4 [8]
00000000: 14b6 943f b9fa 7a3e a682 773f 1b58 9dbe
00000010: 1703 423f 9bf4 af3e cdcf 9fbd 0a89 d73f
1.1618066 0.24509706 0.9668373 -0.30731282 0.75785965 0.34366307 -0.07803307 1.6838696

l3.weight f4 [37, 8]
00000000: ae2d acbf 08ca 89bf e2c9 f43a 105b 4dbf
00000010: 6912 50bf a7d4 2c3f b902 6cbc 1a5c f43e
00000020: b918 21c0 b0a8 233f becb aabe ae40 13c0
00000030: 04d7 99be d809 2c3f d589 82be cfcc 9b3e
00000040: e5af 26c0 e1cd 94bf a17b 9fbc 2d7d e93c
00000050: 5243 103f 0fb2 e0be 80e6 ae3e e301 5d3e
00000060: bf04 6cbf 04c9 69bf 77b8 513f 56d9 5abe
00000070: a838 dbbf cd87 65be 3e84 bfbe 42ba 2abf
00000080: 645c f7bf 93d9 4cbf 8196 793f 0a97 1dbf
00000090: a8bb 483e ae04 c3bf 10cb 07bf 4cf3 83bf
000000a0: 531c 9ebf 59fa 24c0 c2f4 bf3e daa0 323f
000000b0: 117f ddbe 6ab3 3abe 4b77 103e 8556 b3ba
000000c0: ca39 643e 3b45 76bf 437d 9abf 3d93 98bf
000000d0: 045f bc3e f1b5 c5be ee3a 50c0 d40a 8f3f
000000e0: 6b1c 9d3e e6b4 11bf b2fb 8cc0 1149 de3d
000000f0: e04f 63bf b959 93bb 1ef5 0a3e d4b2 d83e
00000100: f308 103f d3b5 833d 424d 65bc 6162 b6be
00000110: 4ae9 ffbf d13f 983d 4f02 55c0 16a0 f1bf
00000120: 199c 943f d9a3 0bc0 6823 8abf 1f17 a1bd
00000130: 354b 923e fe52 84bf 8d10 0ac0 66fd aabf
00000140: 6d4b b9be 175b 9dbf 0618 98bf ee71 693e
00000150: 4719 4abf d096 d03e ac6e c63e ac05 85be
00000160: 7932 c7be 953c 47c0 9431 1ebf c2ad 263f
00000170: 1f23 c9be a5f5 b5bf 0f71 4d3f 45ba 613e
00000180: 0ef5 dabe 0567 f1bd e85a 673e d505 2fbf
00000190: 389b 6abe 3666 0bbf 7b13 22bf d944 56c0
000001a0: 5cbf 74bf 1c3d 94be 3dcd 79bf 2b51 24be
000001b0: 8e63 a3bd 6a9e b03e ad23 113f 41e6 e3bf
000001c0: 7223 16bd 84cf f0bd 8d63 0d3e efc2 c4bd
000001d0: 5d73 43c0 58b6 80bd ac6b 39be 32aa 3bc0
000001e0: 714a cebe 4cea 80bf 9ee3 24be 4326 a93e
000001f0: a1e1 09c0 db34 9abe 9197 503f 5fac b6bf
00000200: 23cd 7cbf a1cc 343d 9b8c c7bd 2c71 e7be
00000210: c14b 7f3f a896 fcbf 29b9 ecbf 2f2c d4bf
00000220: 002c 49bf 88f0 10bf ec92 eebf 8e9e a4bd
00000230: d9ed 853f dc4d c2bf 6d80 d93c 35f4 d0be
00000240: 3c1a 2b3c a2a0 ebbe d32e 0abf 9e99 a9be
00000250: 02d9 6f3e 5f51 f1bf 1c7c 12bf a518 9fbf
00000260: 8665 0fbf cf31 b2bf c562 13bf bcd9 fe3e
00000270: 738f af3e 5d1a 23c0 6c79 c43d 0a17 8ebe
00000280: ba7d 1c3e 8e12 a0bc b370 b1be 9668 85c0
00000290: 826a f63c e228 993d d3fd 42c0 d92c 93be
000002a0: 9a45 0ebf 8965 943e 239c b2bf 5812 babf
000002b0: d55b 803e cb55 1bbf 486d a1bf baee cb3e
000002c0: d2b5 74be 3cb4 893d f01a edbd 6a11 b9be
000002d0: 9d13 2bc0 abc8 4fbf b411 3dbf 716d b13e
000002e0: f1d4 183f c55c 4bbf 5a71 15bf ba4e 3dc0
000002f0: 8d5a 17c0 1c61 e23e aea9 3bc0 b80c ab3f
00000300: 6698 573f 594f b0bf f91b 23bf 2bd9 803e
00000310: 63df 17c0 eba6 6fbf b372 71be 739e 49bf
00000320: d328 483f 455e 753e 0414 26c0 f667 18c0
00000330: 92ef 5f3c b399 18be 405f 3ac0 1955 7dbf
00000340: fc03 dc3d ad0d 17c0 fc1a cd3d 7f30 d2be
00000350: 1293 01bc bdc4 b3be 0e3f 1ebf f99c 963e
00000360: 030a 0fbe bb8a afbf 63e7 d83e 32b5 e6bf
00000370: fca7 16c0 bfcb 543f e545 c6be a84a d83d
00000380: 4046 403f 30b7 b0be 72c2 e2bf df7d abbf
00000390: c09e 1ec0 fb41 453f 5e30 8dbe ac03 a2bf
000003a0: c307 f13e 0b14 10bf edf3 1cc0 c4d2 06bf
000003b0: 2f03 3dbc 522c ed3d 5012 cdbe 4d82 28bf
000003c0: ffba 033e a510 9bbf 9806 38c0 5bd5 483c
000003d0: 534c bb3e 6c3a a2bf ed2c 4abe e6cd 5f3f
000003e0: e177 efbd 5616 5d3e 6b98 12c0 d4a1 8cbe
000003f0: 8d7c 4dc0 8c55 f83e 1d03 9a3e c5dc 7a3d
-1.345144 -1.076478 0.0018675888 -0.80217075 -0.8127809 0.6751198 -0.014404946 0.47726518
-2.517134 0.6392927 -0.33358568 -2.3008227 -0.30046856 0.6720252 -0.25495782 0.30429694
-2.6044858 -1.1625329 -0.01946813 0.028502071 0.5635272 -0.43885848 0.34160233 0.21582751
-0.9219474 -0.9132235 0.81922096 -0.2137197 -1.7126665 -0.22415085 -0.3740558 -0.66690457
-1.932507 -0.8001949 0.97495276 -0.6155859 0.19602835 -1.5235803 -0.53044224 -1.0308623
-1.2352394 -2.57778 0.37491423 0.6977669 -0.43261006 -0.18232504 0.14108007 -0.0013682401
0.2228767 -0.9619939 -1.2069477 -1.1919934 0.3679124 -0.38615373 -3.2535968 1.117518
0.30685744 -0.56916654 -4.4057245 0.1085378 -0.88793755 -0.0044967798 0.13570067 0.42323935
0.56263655 0.064311646 -0.0139954705 -0.35621932 -1.9993069 0.07434047 -3.328266 -1.8876979
1.1610137 -2.1818755 -1.0792055 -0.07865738 0.28573003 -1.0337827 -2.1572602 -1.3358581
-0.36190358 -1.2293423 -1.1882331 0.22797367 -0.7894482 0.4074006 0.3875631 -0.2598089
-0.38905695 -3.1130726 -0.617944 0.65108883 -0.39284608 -1.421559 0.8025064 0.22043712
-0.42765087 -0.117872275 0.22593272 -0.68368274 -0.22910774 -0.54452837 -0.63310975 -3.3479521
-0.9560449 -0.28952873 -0.97578794 -0.16046588 -0.07977973 0.3449586 0.5669506 -1.7804643
-0.036654897 -0.117583305 0.13807507 -0.09607493 -3.0539162 -0.06284779 -0.1810748 -2.932263
-0.4029117 -1.0071502 -0.16102454 0.33037004 -2.1543963 -0.3011845 0.8148127 -1.4271353
-0.98750514 0.04414046 -0.09743615 -0.4520353 0.99724966 -1.9733477 -1.8494006 -1.6575984
-0.78582764 -0.5661702 -1.8638587 -0.080380544 1.046321 -1.5180011 0.026550496 -0.40811315
0.0104432665 -0.4602099 -0.539777 -0.33125013 0.23422626 -1.8852957 -0.57220626 -1.2429396
-0.5601429 -1.392145 -0.57572585 0.49775493 0.3428913 -2.548484 0.09593472 -0.27751952
0.15282336 -0.019540098 -0.34656295 -4.169017 0.030080084 0.07478501 -3.0467422 -0.28745154
-0.55574954 0.28983715 -1.3953899 -1.4536848 0.25070062 -0.60677785 -1.2611475 0.3983057
-0.23897484 0.0672383 -0.115774035 -0.36146098 -2.673072 -0.8116557 -0.7385514 0.3465381
0.5969992 -0.7943843 -0.58376086 -2.95793 -2.3649018 0.44214714 -2.9322314 1.3363256
0.84216917 -1.3774215 -0.6371456 0.25165686 -2.3730094 -0.9361407 -0.2357891 -0.787574
0.7818729 0.23961742 -2.5949717 -2.3813453 0.013667958 -0.14902382 -2.9120636 -0.98957974
0.107429475 -2.3602097 0.100149125 -0.41052625 -0.007908599 -0.35111037 -0.61814964 0.29416636
-0.13968663 -1.3714212 0.42364034 -1.8024046 -2.354003 0.8312339 -0.387252 0.105611145
0.75107193 -0.3451476 -1.771559 -1.3397788 -2.4784393 0.77053803 -0.27575964 -1.265737
0.47076234 -0.56280583 -2.452388 -0.5266535 -0.011536404 0.11580719 -0.40053034 -0.65823823
0.12864302 -1.2114455 -2.8754025 0.012257899 0.36581668 -1.2674079 -0.197437 0.8742355
-0.11692787 0.21590552 -2.2905529 -0.27467215 -3.210727 0.48502767 0.300805 0.0612457

l3.bias f4 [37]
00000000: 0a08 29bd 6e83 f23d 6035 87bd e5c7 ad3e
00000010: 49cf a93e 13d3 9fbe e02e 8b3e 5fc6 cfbe
00000020: a314 1b3f b661 d03d 0a3b dfbe da6b c3bd
00000030: c222 653e e27b 02be 593d 75be ab04 7abe
00000040: ef4b 823e a1d3 efbc dfeb cbbe 70ba a53d
00000050: 0bf7 6f3e 46a0 aebd d8c7 1ebe 5603 1d3f
00000060: 7d85 463e c417 893e 6869 be3b adea c4be
00000070: f4a6 86be 1c6b 9dbe 93bd 04be a9cf abbe
00000080: f466 d73e 8fe6 d2bb f30f 0e3e 5935 95be
00000090: dc1b 313e
-0.041267432 0.118414745 -0.06601977 0.3394157 0.3316596 -0.31215724 0.271842 -0.40581033
0.60578364 0.10174887 -0.4359973 -0.095420554 0.2237654 -0.1274257 -0.23949184 -0.24415843
0.25448558 -0.029275717 -0.39828393 0.08092201 0.23434083 -0.085266635 -0.15505922 0.61333215
0.19386859 0.26775944 0.0058109052 -0.38460293 -0.2629925 -0.3074578 -0.12962942 -0.3355687
0.42070735 -0.006436176 0.13873272 -0.29142264 0.17295784
