src/data.pth (torch, 9823 bytes, 6 tensors)

l1.weight f4 [8, 116]
0	0x3ede353d	0.43399993
1	0x3fb34071	1.4004041
2	0x3ed31894	0.4122969
3	0xbea9fc2b	-0.332002
4	0x3e9b8095	0.30371538
5	0x3dce82cb	0.100835405
6	0x3e9ccd9b	0.30625615
7	0x3e8fe522	0.28104502
8	0x3ebe0366	0.37111968
9	0x3ecaec7f	0.39633557
10	0x3e2e4bd5	0.17021115
11	0x3f33d011	0.7023936
12	0x3ea26bbe	0.31722826
13	0xbf4afb8b	-0.79290074
14	0x3f88dad3	1.069178
15	0xbe127f61	-0.14306404
16	0x3f5a0c49	0.85174996
17	0xbefef628	-0.49797177
18	0x3f8e517f	1.1118621
19	0x3f5c5f8d	0.860833
20	0x3df985be	0.121837124
21	0xbd7c8620	-0.06165135
22	0x3f1de499	0.6167694
23	0x3f3f0ed6	0.7463201
24	0x3f0b4cc0	0.54413986
25	0x3dd47f48	0.103758395
26	0xbd190411	-0.037357394
27	0x3ecc8eb5	0.39952627
28	0xbe4758d6	-0.19467482
29	0x3dacfff3	0.08447256
30	0xbe9e3c22	-0.30905253
31	0x3dd96056	0.10614078
32	0x3fabfd41	1.3436662
33	0x3da8aabc	0.0823569
34	0x3bdff5a1	0.006834701
35	0xbecae977	-0.39631245
36	0x3e4230a1	0.18963863
37	0x3ed0c103	0.40772256
38	0x3f2e6228	0.68118525
39	0x3e995ddf	0.2995443
40	0x3f8fad25	1.1224715
41	0x3f565698	0.8372588
42	0x3ee7cb0e	0.45272106
43	0x3f44e619	0.769136
44	0x3f614cdb	0.880079
45	0x3f6f0c70	0.93378353
46	0x3f4e7003	0.80639666
47	0x3f502f0e	0.813218
48	0x3f2aeb93	0.6676571
49	0x3f2c76f8	0.6736903
50	0x3e840171	0.2578235
51	0x3e0eba9e	0.13938376
52	0xbdfa687f	-0.12226962
53	0xbe41b2dd	-0.18915887
54	0xbeffe776	-0.49981278
55	0x3f4e3361	0.8054715
56	0x3ef697ca	0.4816268
57	0x3f61df87	0.882317
58	0x3e68ed07	0.22746669
59	0xbec99163	-0.39368734
60	0xbdf49ff5	-0.11944572
61	0xbdde4c30	-0.10854375
62	0x3f0b4761	0.5440579
63	0xbf2446e4	-0.6417067
64	0x3f60d5ce	0.8782624
65	0xbd42e02d	-0.047577072
66	0xbe02bee0	-0.12768126
67	0x3f23d89e	0.64002407
68	0xbe746abf	-0.23868845
69	0x3f8d8c78	1.1058493
70	0x3e709212	0.23493221
71	0x3efe8f45	0.4971868
72	0x3f3c9f82	0.7368089
73	0x3de77f92	0.11303629
74	0x3f5c3128	0.86012506
75	0x3f4a5ac6	0.7904476
76	0x3d4a4dad	0.049390484
77	0xbf96d14a	-1.178262
78	0x3ee1ec61	0.44125655
79	0x3f9dc42f	1.2325495
80	0x3f0867ef	0.5328359
81	0xbecaf4d1	-0.39639905
82	0xbfa36b5d	-1.276714
83	0x3f0e8e87	0.5568623
84	0xbf5d4099	-0.86426693
85	0xbf2f41b8	-0.68459654
86	0x3de3baa7	0.111195855
87	0x3f069b6d	0.5258091
88	0x3f46ea73	0.7770149
89	0x3f80975f	1.0046195
90	0x3fbf70d7	1.4956311
91	0x3e08bd64	0.13353497
92	0xbfa54bf8	-1.2913809
93	0x3f5470e8	0.8298478
94	0x3ee18fde	0.44055074
95	0xbd2e71af	-0.042588886
96	0x3fb7b94b	1.4353422
97	0x3fe94bde	1.8226278
98	0x3e9ff177	0.3123891
99	0x3f4c0c67	0.79706424
100	0x3f938c6a	1.1527226
101	0x3f39d139	0.72584873
102	0x3fd30870	1.648695
103	0x3f4ec188	0.80764055
104	0x3f3d5eed	0.7397297
105	0x3d8447b6	0.0645899
106	0x3e66ff41	0.22558309
107	0x3e56a578	0.20961559
108	0xbee86172	-0.45386845
109	0x3e7416b3	0.23836784
110	0x3f39f8ae	0.7264508
111	0xb89448b8	-7.070735e-05
112	0x3e7b9b3a	0.24570933
113	0x3e138aea	0.1440846
114	0x3eda8dcb	0.42686304
115	0x3db07f73	0.08618059
116	0xbefd48eb	-0.49469694
117	0xbdde29b7	-0.108478
118	0xbd083e37	-0.033262458
119	0x3e089415	0.13337739
120	0x3f648f02	0.8928071
121	0x3eec08f5	0.46100584
122	0x3ed111e2	0.40833956
123	0x3ee57af6	0.44820374
124	0x3f156c89	0.58368737
125	0x3f8e4001	1.1113282
126	0x3ef92558	0.48661304
127	0x3f1f123a	0.62137187
128	0x3e85f4a2	0.26163203
129	0xbf17fa30	-0.5936613
130	0x3f1a0d03	0.60176104
131	0x3eee4511	0.46537068
132	0x3dafc954	0.08583322
133	0xbf821179	-1.0161582
134	0xbfb6531d	-1.4244114
135	0x3dce6fbe	0.10079907
136	0x3ef33716	0.47502965
137	0x3ea91611	0.33024648
138	0x3f191e2b	0.5981166
139	0x3f06c189	0.5263906
140	0x3ec9a70e	0.39385265
141	0xbea0db64	-0.31417382
142	0xbe16a699	-0.1471199
143	0xbf67d78d	-0.9056328
144	0x3fe1de1a	1.7645905
145	0x3e08d733	0.13363342
146	0x3f02a99b	0.5104005
147	0x3f531d61	0.82466704
148	0xbf287bf7	-0.65814155
149	0x3f1be8bb	0.60901994
150	0xbc6ce885	-0.014459734
151	0xbf3bcf2c	-0.73362994
152	0xbe936900	-0.28791046
153	0xbf6335de	-0.8875407
154	0x3ef3af72	0.47594792
155	0xbe0db31f	-0.1383786
156	0xbfb37ec1	-1.4023057
157	0x3f20a422	0.62750447
158	0x3f03ab84	0.5143359
159	0xbea9c1ae	-0.33155578
160	0x3f6873b5	0.90801555
161	0x3f9dca5d	1.2327381
162	0x3f7b29d4	0.981107
163	0x3f78e598	0.9722533
164	0xbe82210b	-0.25415835
165	0xbedc0683	-0.42973718
166	0x3f779d80	0.967247
167	0xbeebb26f	-0.46034572
168	0x3effe22d	0.49977246
169	0x3eb53891	0.3539472
170	0xbf8564bf	-1.042137
171	0xbf8092e7	-1.0044831
172	0x3f1dde6a	0.616675
173	0x3f674778	0.9034343
174	0xc002f823	-2.046395
175	0xbf5a4e41	-0.85275656
176	0xbf5887d6	-0.8458227
177	0xbf0e427b	-0.5557019
178	0x3f26359c	0.6492555
179	0x3f58a53a	0.84627116
180	0x3f5bd14c	0.85866237
181	0x3f9df514	1.2340417
182	0x3efdd7dc	0.4957875
183	0xbf9c0986	-1.2190406
184	0x3f4d5721	0.80211073
185	0xbea22749	-0.31670597
186	0xbe831556	-0.25602216
187	0xbe907ddb	-0.2822102
188	0x3e62705a	0.22113171
189	0x3f505af9	0.81388813
190	0x3eb21485	0.3478128
191	0xbf2e1189	-0.67995507
192	0xbdd82053	-0.1055304
193	0x3ec5cca5	0.38632694
194	0xbc61b076	-0.013774982
195	0xbf1b7fd9	-0.60741955
196	0xbefbbe96	-0.49168843
197	0xbf337d77	-0.7011332
198	0xbfb579b7	-1.417777
199	0x3f3620e2	0.71143925
200	0x3eaafd7c	0.33396518
201	0x3ea208b2	0.3164726
202	0x3edc4702	0.43022925
203	0x3f0af43a	0.5427891
204	0xbf72b3d1	-0.9480563
205	0x3f0c0bb4	0.5470536
206	0x3eab5bab	0.33468375
207	0x3ef0a7e4	0.4700309
208	0x3f949202	1.1607058
209	0x3f8df9fd	1.1091915
210	0xbeb767c2	-0.35821348
211	0x3fa35131	1.2759153
212	0x3f270996	0.65249
213	0x3f447116	0.76735055
214	0x3f4d4ef8	0.8019862
215	0x3f33ef6a	0.7028719
216	0x3eaa2729	0.33233002
217	0x3e5802e7	0.21094857
218	0xbfe34cfa	-1.7757866
219	0x3ee4369c	0.44572914
220	0xbf146af2	-0.57975686
221	0x3f05a55d	0.5220545
222	0xbe945fda	-0.2897938
223	0xbeeaa3f7	-0.4582822
224	0xbdefa1e9	-0.11700804
225	0xbf1e8fbf	-0.6193809
226	0xbe26ca0f	-0.16288017
227	0x3efe7ea0	0.49705982
228	0xbe92655f	-0.28592965
229	0xbec6c24c	-0.38820112
230	0xbd4901e3	-0.049074065
231	0x3f993158	1.1968184
232	0x3f19ceca	0.6008116
233	0x3f30b14e	0.69020545
234	0x3f073db9	0.52828556
235	0x3ea7b817	0.32757637
236	0x3c73d535	0.0148823755
237	0x3e98f76d	0.2987627
238	0x3f0d0cbe	0.5509757
239	0x3e361a2a	0.17783418
240	0x3f150c15	0.5822156
241	0xbe0b58bb	-0.13608067
242	0x3ea263ed	0.31716862
243	0x3ea4a497	0.32156822
244	0x3f2797fa	0.6546627
245	0xbfb06dac	-1.3783469
246	0xbf0c8a06	-0.5489811
247	0xbea40e4d	-0.3204216
248	0xbef3c791	-0.47613195
249	0x3da62d44	0.081141025
250	0x3fb7ea49	1.4368373
251	0xbeef7335	-0.46767583
252	0xbf07fb60	-0.5311794
253	0xbfa2f962	-1.2732356
254	0x3ea4982e	0.32147354
255	0xbec6cdff	-0.38829038

l1.bias f4 [8]
0	0x4011b595	2.276708
1	0x3fe631ab	1.7983907
2	0x3f3827e6	0.7193588
3	0x3f9f566d	1.244825
4	0x3fa02877	1.2512349
5	0x40031e87	2.0487382
6	0x3f496eef	0.78684896
7	0x3fa63930	1.2986202

l2.weight f4 [8, 8]
0	0xbdd6d5f3	-0.10490026
1	0x3ffa9b07	1.957856
2	0xbec05673	-0.37565956
3	0xc0109258	-2.258932
4	0x3facb018	1.349124
5	0x403fb572	2.9954495
6	0xbf1a99c3	-0.6039087
7	0x3fdf7d3d	1.7460095
8	0x4053f8c5	3.3120587
9	0xbeb991b0	-0.36243963
10	0xbf6bac8a	-0.9206015
11	0x3fbed2f3	1.4908127
12	0x3ff84b88	1.939805
13	0x3efdaece	0.49547428
14	0xbf45f91e	-0.7733325
15	0x3fe398a5	1.7780958
16	0xbfa9efcc	-1.3276305
17	0x3fa13f34	1.2597413
18	0x401c56b2	2.4427915
19	0x3f857a3b	1.0427927
20	0x40250ccf	2.5789068
21	0x3f16c395	0.58892184
22	0x4040758f	3.0071752
23	0xbf836202	-1.0264285
24	0xbe10eef4	-0.14153653
25	0xbfcdd1ea	-1.6079686
26	0x400e49b9	2.2232497
27	0x405d027a	3.4532762
28	0x3fa01e71	1.250929
29	0x3fa0c354	1.255961
30	0x3e48b7d5	0.19601376
31	0x402b3da4	2.6756372
32	0x401d8073	2.460965
33	0x400127f3	2.0180633
34	0xbfa34121	-1.2754251
35	0x401ceda6	2.452005
36	0x4030a0a9	2.759806
37	0xbfa448b2	-1.2834685
38	0xbf480552	-0.7813312
39	0x3f98a577	1.1925496
40	0x400e95da	2.2278962
41	0xbf81b142	-1.013222
42	0x40040a33	2.0631225
43	0xc00236e4	-2.0346003
44	0x3f899339	1.0748054
45	0x3ff54124	1.9160504
46	0x3f94d215	1.1626612
47	0x3edba931	0.4290252
48	0x3f929d6e	1.1454294
49	0x40306f7a	2.756804
50	0xbe363e16	-0.17797121
51	0x3de1da1f	0.110279314
52	0x3f8c9b25	1.0984846
53	0xbc2f596d	-0.010702473
54	0x4048cc33	3.1374633
55	0xbf52328b	-0.8210837
56	0x40017a87	2.0231035
57	0x4005d987	2.0914018
58	0x40318a76	2.774076
59	0x3fdce919	1.7258636
60	0xc028befd	-2.636657
61	0x3f77bc7f	0.96772
62	0x40180dd6	2.3758445
63	0xbf07ab0f	-0.5299539

l2.bias f4 [8]
0	0x3fdcdf8f	1.7255725
1	0x3f8007b8	1.0002356
2	0xbed09544	-0.4073888
3	0x3eed4e41	0.46348765
4	0x3f49bb6f	0.78801626
5	0x3e593b73	0.21214084
6	0x3e6699ec	0.22519654
7	0x3fbd2709	1.4777538

l3.weight f4 [37, 8]
0	0xbfce932c	-1.6138663
1	0x3f414107	0.7548985
2	0xbef7af8f	-0.48376128
3	0x3f38f5f3	0.7225029
4	0x3f0b0055	0.5429738
5	0xbea50284	-0.32228482
6	0xc010c79f	-2.262184
7	0xc01417f8	-2.313963
8	0xbf4c5405	-0.79815704
9	0x3e5b9f7a	0.21447554
10	0xbe0c77fa	-0.13717642
11	0xbf0b6f89	-0.54467064
12	0x3f1fc2b1	0.6240645
13	0xc017da8d	-2.3727143
14	0xbcefe8c2	-0.029285792
15	0xbf363ac2	-0.7118341
16	0xbfbe9cac	-1.4891562
17	0xbe899a3a	-0.26875478
18	0x3e8460b9	0.25855044
19	0x3ea20438	0.31643844
20	0xbedca90a	-0.43097717
21	0x3e45c6f5	0.19314177
22	0xbfa5381b	-1.2907747
23	0xbf3089d2	-0.689603
24	0xbee4395b	-0.4457501
25	0xbb5e9040	-0.0033960491
26	0xbe6ff520	-0.23433352
27	0x3f0b0398	0.5430236
28	0x3e864235	0.26222387
29	0xbec9ff8e	-0.39452785
30	0xbf948d30	-1.1605587
31	0xbfd48342	-1.6602557
32	0xc020c25d	-2.511863
33	0xbef7ec29	-0.48422363
34	0x3ec56be4	0.38558877
35	0xbf99d33e	-1.2017591
36	0xbd8c6704	-0.06855586
37	0x3d971019	0.07376117
38	0xbda2c0a9	-0.07946903
39	0x3cc4a3b1	0.024003835
40	0x3cdc1652	0.026866112
41	0xbc713ece	-0.014724446
42	0x3e804eee	0.2506022
43	0xbf0a5700	-0.54039
44	0xbcf1ed60	-0.029532135
45	0x3e278a58	0.16361368
46	0xbea0ad43	-0.31382188
47	0xc011c8e6	-2.2778869
48	0x3f32b7a2	0.6981145
49	0x3f0b3182	0.5437242
50	0xc0274c61	-2.6140368
51	0xc03eef01	-2.9833376
52	0xbeac4e67	-0.33653566
53	0x3e9f7a1b	0.31147847
54	0xbf13a7c8	-0.5767789
55	0x3ec0e4be	0.37674516
56	0xc02441a5	-2.5665066
57	0x3d976d81	0.07393933
58	0xbeb495e4	-0.35270607
59	0xbe23cf1f	-0.15996979
60	0x3e5e0e2f	0.21685098
61	0xbed9d2c4	-0.42543614
62	0xbf16fce9	-0.5897966
63	0xbd057aed	-0.032587934
64	0x3edb0b8d	0.4278225
65	0x3e404904	0.18777853
66	0xbcfd2b67	-0.030904485
67	0xc05269f7	-3.2877176
68	0x3f32daf7	0.69865364
69	0xbe9dc1b7	-0.30811855
70	0xbef3e431	-0.47635034
71	0xbf3bcbe1	-0.7335797
72	0x3dfb9d30	0.122858405
73	0x3ece0dfe	0.4024505
74	0xc04f191b	-3.2359073
75	0x3e5ffca3	0.21873717
76	0xbe402649	-0.18764605
77	0x3e5516b5	0.20809443
78	0xc026d113	-2.6065109
79	0x3edbc86b	0.42926344
80	0xbff8d263	-1.9439205
81	0x3f1a4a9e	0.60270107
82	0xc0317330	-2.7726555
83	0x3d3fb8fd	0.046807278
84	0x3f1ef29e	0.62088954
85	0xbee6318b	-0.44959673
86	0xbefd1b35	-0.4943482
87	0xbe9f5e2e	-0.3112654
88	0xbe844583	-0.25834283
89	0x3eea1542	0.45719343
90	0xc033449d	-2.8010628
91	0xbe559692	-0.2085822
92	0x3f0324ca	0.5122801
93	0x3ee9b513	0.4564596
94	0xbf2fcb30	-0.68669415
95	0xbfbcd612	-1.4752829
96	0xc0422f1a	-3.0341249
97	0xc043ff23	-3.0624473
98	0x3f2cfdc3	0.6757471
99	0xbf7a8f23	-0.9787466
100	0xbed516c9	-0.41618946
101	0xbda69734	-0.081343085
102	0x3e8d8b98	0.27645564
103	0x3f08252e	0.5318173
104	0xbfb4f554	-1.4137368
105	0xbf8dc094	-1.1074395
106	0x3ed03406	0.4066469
107	0x3f0338b5	0.51258403
108	0xbfdefaa4	-1.742024
109	0x3de85275	0.113438524
110	0xbfd24649	-1.6427699
111	0x3e52295a	0.20523587
112	0xbbd538f3	-0.006507033
113	0xbe0116a5	-0.12606294
114	0xbe965ad1	-0.29366162
115	0x3f12df3f	0.57371897
116	0xbd253d2f	-0.040341552
117	0xbf2be877	-0.6715159
118	0xc0615bf0	-3.5212364
119	0x3e08fff4	0.13378888
120	0x3f272e41	0.6530495
121	0x3c68ca17	0.014208338
122	0xbf1bb584	-0.60823846
123	0xbeccb373	-0.3998066
124	0xbf8c1ba8	-1.094594
125	0x3f28141c	0.65655684
126	0xbfc65e2d	-1.549749
127	0xbf2ef916	-0.68348825
128	0xbfc66b27	-1.550145
129	0xbfb1d429	-1.3892871
130	0x3e834568	0.2563889
131	0xc05bc73a	-3.4340348
132	0xbe5d4c9b	-0.21611254
133	0x3ebc3552	0.3675943
134	0x3f118b92	0.5685359
135	0x3f157486	0.58380926
136	0x3e75e739	0.24013986
137	0xbe692c3f	-0.22770785
138	0x3eb05266	0.34437865
139	0x3edfc342	0.43703657
140	0xc000bd68	-2.0115604
141	0x3d2dae7c	0.04240273
142	0xbfdb1e22	-1.7118571
143	0xbf63086c	-0.88684726
144	0x3f24e85f	0.6441707
145	0x3ebefbc7	0.37301466
146	0x3ce37183	0.027764088
147	0x3f0dc293	0.5537502
148	0xbe2b6e10	-0.16741204
149	0xbd90460e	-0.07044612
150	0xc078b54a	-3.886065
151	0xbff3af12	-1.9037802
152	0x3f5fb3f4	0.8738396
153	0x3d750f81	0.05982924
154	0xbf3a9ab6	-0.7289232
155	0xbd14e02d	-0.036346603
156	0xbe1034b4	-0.14082605
157	0x3f19e0be	0.60108554
158	0xbfa1ef36	-1.2651126
159	0xc067bf38	-3.621046
160	0x3eb4c7ec	0.35308778
161	0xc014f0e3	-2.3272026
162	0xbd6a4f16	-0.05720433
163	0x3d8a04ca	0.06739195
164	0xbfdf5276	-1.744704
165	0x3edeafe2	0.43493563
166	0xbfc328f0	-1.5246868
167	0x3e9d4c98	0.307225
168	0xbf78b13a	-0.97145426
169	0xbfdca99d	-1.7239262
170	0x3e287842	0.16452125
171	0xbe902fe8	-0.2816155
172	0xbf8ccaeb	-1.0999426
173	0xbeaff6af	-0.34367892
174	0xbe51d2f2	-0.20490626
175	0x3f11652b	0.56794995
176	0x3e9ee93a	0.31037313
177	0x3f00e8a1	0.50354964
178	0xbf176b0f	-0.59147733
179	0xbddd7894	-0.10814014
180	0xc00a761d	-2.163459
181	0x3eacd023	0.33752546
182	0xc065a640	-3.588272
183	0x3ec20e4d	0.37901536
184	0xbfbb0b55	-1.4612833
185	0xbe20e161	-0.15710975
186	0xbf659448	-0.89679384
187	0x3e0f8948	0.14017212
188	0xbf638962	-0.88881505
189	0x3ea2b95a	0.31782037
190	0xbf69d72f	-0.9134397
191	0x3ee9772d	0.45598736
192	0x3dca4e70	0.09878242
193	0xbec6b949	-0.38813236
194	0xbe95815c	-0.29200256
195	0xbfe7c619	-1.810733
196	0xbf900252	-1.1250708
197	0xbd6e4b5d	-0.05817734
198	0xbe5893fb	-0.211502
199	0x3f31e975	0.6949685
200	0xc02414da	-2.5637727
201	0xbf36107b	-0.711189
202	0x3e5036e8	0.20333445
203	0x3d309f72	0.04312081
204	0xbe3be6c0	-0.18349743
205	0xc007a4c2	-2.119431
206	0x3dd05d5f	0.10174059
207	0x3ed171d3	0.40907153
208	0x3e361760	0.17782354
209	0x3ccdaa76	0.025105696
210	0xbf567a92	-0.8378078
211	0xbef79c86	-0.48361605
212	0x3e579c50	0.21055722
213	0xbf0de5a0	-0.55428505
214	0xbf1f68f6	-0.6226953
215	0xbe802de0	-0.25035
216	0xbeccb24f	-0.3997979
217	0xbefe3216	-0.49647588
218	0x3f2103d0	0.6289644
219	0xbfb0f874	-1.3825822
220	0x3d27dc4d	0.04098158
221	0xbf7bed32	-0.98408806
222	0x3e121445	0.14265545
223	0xbf06a807	-0.5260014
224	0x3e3bed63	0.18352275
225	0xc02e1371	-2.7199366
226	0x3f34392b	0.7039973
227	0xbfb23f25	-1.392552
228	0xbf01d135	-0.5070985
229	0xbf9f3c24	-1.2440228
230	0x3ed7f416	0.4217841
231	0x3e8458d5	0.25849023
232	0x3f3c8ce6	0.73652494
233	0xbfa06366	-1.2530334
234	0x3e9c8c65	0.30575863
235	0xc07d13b4	-3.9543276
236	0xbd0a0243	-0.033693563
237	0xbf084f2e	-0.5324582
238	0x3f0ede56	0.5580801
239	0xbe1ab810	-0.15109277
240	0xbffda79c	-1.9816775
241	0x3e6b5072	0.22979906
242	0xbf097250	-0.5369005
243	0xc010e88c	-2.2641935
244	0x3ed571a6	0.4168827
245	0xbf45bd2b	-0.7724177
246	0x3e6a78b0	0.22897601
247	0x3f110072	0.56641304
248	0x3e9f2c5f	0.3108854
249	0xbf7f193f	-0.996479
250	0xbe8f02e8	-0.27931905
251	0xc0161681	-2.3451235
252	0x3f12f6c0	0.5740776
253	0xc039521c	-2.8956366
254	0x3ecd92aa	0.40150958
255	0x3e8306dc	0.2559117

l3.bias f4 [37]
0	0xbe9366cc	-0.28789365
1	0xbed24de4	-0.4107505
2	0xbf80d828	-1.0065966
3	0xbe530f47	-0.20611297
4	0xbf1931d0	-0.5984163
5	0xbf2d2f9f	-0.6765079
6	0x3f1ec200	0.6201477
7	0x3dbb90db	0.09158488
8	0xbee87b0e	-0.45406383
9	0xbda948ac	-0.08265814
10	0xbdffdb74	-0.12493029
11	0xbb35def6	-0.0027751303
12	0x3e68c17c	0.22730058
13	0x3df16fbd	0.117888905
14	0x3e5afb72	0.21384981
15	0x3e2a4818	0.16629064
16	0x3dfcd7f8	0.1234588
17	0xbed96ea0	-0.42467213
18	0x3eefd930	0.46845388
19	0xbe6363c2	-0.22206023
20	0xbdfc3b1c	-0.12315962
21	0xbe99222b	-0.2990888
22	0xbd2775fa	-0.040883996
23	0x3e0a5ce6	0.13512
24	0xbd82ca40	-0.063862324
25	0x3ed98a15	0.4248816
26	0x3eec885f	0.46197793
27	0xbe56b94a	-0.2096912
28	0x3c80aa1d	0.015706116
29	0x3d6ea218	0.058260053
30	0x3e9bacf8	0.30405402
31	0x3e9c8d4a	0.30576545
32	0xbe1e94ed	-0.15486498
33	0xbf826af7	-1.0188893
34	0xbd224f3d	-0.03962635
35	0xbeb104ae	-0.34573883
36	0xbe94ee3d	-0.2908801
