src/data.pth (torch, 9183 bytes, 6 tensors)

l1.weight f4 [8, 108]
00000000: 6323 edbd ffa1 d03e eb1b b3bd a781 3d3f
00000010: 4bf3 393e b8a8 02bf be2e 133f 044b 183d
00000020: 67ba 88be 0c32 85bf 623c bf3a 8c06 45bf
00000030: ae8d 133f b572 87bd 4b87 4d3f 6aa0 cebd
00000040: b9c0 8a3e 4927 513f 38ba 2bbf 3446 8b3e
00000050: 933d 4a3f 5404 313e 49eb 913f caae f53e
00000060: c01b babe b053 7bbe 3065 863e 4388 3bbf
00000070: 1963 873e be5b 1abd 8d36 073f ecf1 e63f
00000080: d3c2 40bf c871 f63d 676b 54bf 63ce 8f3f
00000090: abb2 9dbe 26a8 2bbf 1e44 453f f5ea 77be
000000a0: b607 0c3f 15b9 2bbf 63f8 21bf 5992 2bbf
000000b0: 438e 2bbf 25fc 9b3f 7491 1f3f 5f8f 813f
000000c0: 2ff1 803e d162 453f 37d1 67be 85ff 523f
000000d0: a9e8 8bbd 191b 893f 2c21 0a40 09d4 3ebf
000000e0: 3ecb eebd 9d22 cabd cb4e 8ebf 2066 08bf
000000f0: 736f 8a3f 8f83 c23f 0623 4d3f b4be d5bd
00000100: 4b41 d03e 5666 8d3f 7cbe 1abe 418a 6d3e
00000110: 5068 5e3e 3194 023e 2336 133f fd1f 9bbd
00000120: 28aa 923f 4a4a 44bf a93d 21be 8cd9 e83f
00000130: e0bc 883f 5b9d 61be a84e 92be e564 9e3f
00000140: 02bc bb3f 391f a93f 5ae7 13bf 6398 25be
00000150: ef56 a3bc 921f cf3e 24fb afbe 013c 4bbf
00000160: 6484 13bf 53e2 5cbf 0b3e ff3d 0435 5b3f
00000170: 537a 89be e360 1d3f 646b 03bd f859 28bf
00000180: ac04 7b3e 74d6 24be 6107 653f 493b 2f3e
00000190: 36df 153f 0c88 ecbe a029 46be 7139 1ebe
000001a0: 15b5 3cbe 19dd d93e 59e0 3dbd c2d6 c2bf
000001b0: c0ec dcbc 5a98 413f b4a8 2c3c 4165 84bd
000001c0: eead ef3c 35e8 ba3d 8379 9c3e 5e92 4e3d
000001d0: 60d4 bdbe ba98 32bf 8e2f 823d 5e0d d7be
000001e0: 00ad fbbe 0850 b63d 09a7 f43e f42e 5cbe
000001f0: 37bc 2a3f 2a3b f8be 2d42 e4be b65e 2d3f
00000200: df3f 203d ee1c f8bb 6699 c83e f35e 223e
00000210: ea18 f4be 39f5 8dbe 4bf7 443f e336 09bf
00000220: 3337 393e 6a7c ca3e d5e4 29bb 3a20 b73f
00000230: dac1 853e 33df 44be 0c4f 66bf 1e06 fe3e
00000240: 5364 1bbf 5a57 0ebf 5d9f 183f c79d d3be
00000250: dc07 8dbe fc91 8abf 1540 3e3f d9a0 8abf
00000260: 139b 8abf fe7e 89be 4424 a7be 77a0 7e3e
00000270: 7e6a c83e c1e3 35be 0a5b 9bbe 4f69 f2be
00000280: 38b7 0bbe 5123 313f a122 233f d2de 93bf
00000290: 8dce 2a3d a8d3 363f 04d8 21bf 95f6 d73e
000002a0: 06bb acbe e76a 493f bb5c 213e 1a2d 08be
000002b0: c630 3a3d 1019 293f b82c cdbe 53d4 513e
000002c0: e9db 333f 7f80 1b3d 2bda 2c3f d846 34bb
000002d0: a127 c2bf 3141 663f 40d9 f93b 8be3 bd3f
000002e0: fde3 823e 0fbe f93d 68be d3bd 2d3d ef3e
000002f0: b2a5 d53e 5c6e ae3e 9107 d23d cc13 94be
00000300: 1b42 6dbd b72a bc3e a1a1 913e 65ed 503e
00000310: bf67 87be d2ba 7ebf dacc 833e 6916 973e
00000320: bce9 ba3f 2d0f 713f 2b24 543e 9c84 f8be
00000330: 265f 3d3f 5926 a83e 2f1c b33f 9652 b43e
00000340: 7a3e 373f 39b1 583e 4e0d 0bbf 42e1 f9be
00000350: 163e e6be 9d5f 953e a733 083e b539 a5be
00000360: 5f28 a1be 007d 163f 8e18 13be fc9e 4f3d
00000370: 15e9 1e3f 85b3 e23e 7f22 ca3e a589 cabd
00000380: f331 61be 1958 8abf 7246 98bc c6a7 8cbe
00000390: 64d4 903e 836b 9d3f 3168 403f 2e53 923c
000003a0: 5001 363f 48a6 8e3b df4c a73f c28d 4b3f
000003b0: 8248 1c3f facd 893f b99a b33d 874e eb3e
000003c0: 69dd 71bf 3e36 663f 1855 d5bc 79c9 39bf
000003d0: 1830 b83e 9918 863e 8767 b73e c7d0 4cbe
000003e0: 56e9 da3e eaad 3f3f 0485 61bf e378 c23d
000003f0: dbe7 463f 9279 9f3f 6f4f 303f ed7c 1ebe
-0.11579015 0.40748593 -0.08745559 0.7402596 0.18159215 -0.51038694 0.574932 0.037180915
-0.26704714 -1.0405898 0.0014590139 -0.76963115 0.5763806 -0.066136755 0.80284566 -0.1008919
0.2710016 0.8170057 -0.6708102 0.27201998 0.79000205 0.17286807 1.1399928 0.47984916
-0.36349297 -0.24543643 0.26249075 -0.73254794 0.26442793 -0.03768515 0.5281761 1.8042579
-0.7529728 0.12033421 -0.8297638 1.1234859 -0.30800375 -0.6705345 0.77057064 -0.24210723
0.54699266 -0.6707929 -0.63269633 -0.67020184 -0.6701395 1.2186323 0.6233132 1.0121878
0.25184008 0.77103907 -0.22638403 0.8242114 -0.06831486 1.0711395 2.1582747 -0.7454229
-0.11659859 -0.09869883 -1.1117796 -0.5328083 1.0815262 1.5196398 0.80131567 -0.10436764
0.40674815 1.1046855 -0.15111727 0.23197271 0.2171948 0.12751843 0.5750448 -0.07574461
1.1458178 -0.76675856 -0.15746178 1.819139 1.068264 -0.22032683 -0.28575635 1.237454
1.466675 1.3212653 -0.5777489 -0.16171412 -0.019938914 0.40453774 -0.34371293 -0.79388434
-0.5762389 -0.86282843 0.12463006 0.8562777 -0.26851138 0.6147596 -0.032084838 -0.6576228
0.24513501 -0.16097432 0.89464384 0.17112459 0.5854372 -0.46197546 -0.19351816 -0.154516
-0.18428452 0.42551497 -0.046356533 -1.5221789 -0.02696836 0.75623095 0.010538269 -0.06464625
0.02925774 0.09126321 0.30561456 0.050432555 -0.37076092 -0.6976429 0.063567266 -0.42002386
-0.49155426 0.089019835 0.47783688 -0.21502286 0.66693443 -0.4848264 -0.44581738 0.6772264
0.039123412 -0.007571808 0.39179534 0.15856533 -0.47675258 -0.27726153 0.7693984 -0.53599375
0.18087463 0.39548045 -0.0025923748 1.430671 0.2612446 -0.19225769 -0.89964366 0.49614042
-0.6069996 -0.5560204 0.5961817 -0.41331312 -0.2754506 -1.0825801 0.7431653 -1.0830337
-1.0828575 -0.268547 -0.32644856 0.248659 0.39143747 -0.17762662 -0.30342895 -0.4734597
-0.13644111 0.69194514 0.63724715 -1.1552374 0.04170089 0.7141671 -0.6322024 0.42180315
-0.33736438 0.78678745 0.1575803 -0.13298455 0.04545667 0.6605387 -0.4007318 0.20491152
0.7025743 0.03796434 0.675204 -0.0027508046 -1.5168344 0.89943224 0.007624775 1.4835066
0.25564566 0.12194454 -0.103390515 0.4672636 0.41727978 0.34068573 0.102553494 -0.28921354
-0.05792437 0.3675134 0.28443626 0.20403059 -0.2644634 -0.99503815 0.25742227 0.29509285
1.460258 0.9416378 0.20716922 -0.48538673 0.7397331 0.32841757 1.3992976 0.35219258
0.71579707 0.21161355 -0.54317176 -0.4880467 -0.44969243 0.2917451 0.13300954 -0.3227059
-0.31476113 0.58784485 -0.14364836 0.05068873 0.62074405 0.44277588 0.39479443 -0.09889535
-0.2199171 -1.0808135 -0.018588278 -0.2747175 0.2828704 1.2298435 0.75158983 0.017861929
0.7109575 0.0043533184 1.3070334 0.7951318 0.6104814 1.0765984 0.087697454 0.4595835
-0.9447847 0.89926517 -0.026041552 -0.7257305 0.35974193 0.26190642 0.35821173 -0.20001517
0.42756146 0.74874747 -0.8809359 0.094957136 0.77697533 1.2458975 0.68871206 -0.15477343

l1.bias f4 [8]
00000000: bcd7 273f 28a0 8a3f f82c ee3f e91e 803f
00000010: 15fe bf3f 56e4 b03f 956e e53f 2259 583f
0.6556356 1.0830126 1.8607473 1.0009433 1.4999415 1.3819683 1.7924372 0.84511006

l2.weight f4 [8, 8]
00000000: 9ff8 3bbf 8621 fa3f b35b 813f a274 84bf
00000010: 43da 09be cdc4 0d40 13d7 b63f 77d2 3c40
00000020: 369e edbf 0cf4 14bf 96f7 2c40 a24d 5f3f
00000030: 6842 8f3f ae19 8dbf 825e cb3f 2db6 82bd
00000040: 421a 033f dc50 d4bc b450 9cbf 853a 4b40
00000050: fcd2 babf cc40 803f b5a1 8a3f fc3b c53f
00000060: 1099 73bd 103d 44be aa0c 83be bca6 d9bd
00000070: 251c 5ebe c42c 80bd 6082 4fbd b627 7d3e
00000080: e17d 8ebe 98a5 093e abd0 0cbf a95f 383e
00000090: 13ba 89bf 48e2 c23e f519 5fbe d79d 473f
000000a0: b7a4 733f e8ca 93bf 4d0f 3abf 6077 00bf
000000b0: cc56 d63f 1e71 1d40 df78 3440 79b2 1cc0
000000c0: 882a dc3e afac b6bf a0f4 69be f988 1b3f
000000d0: 3e93 64bf ae16 f2bc 4ee7 0c40 bea2 113f
000000e0: e92a 5840 0592 0e40 7f44 0140 4711 d839
000000f0: 6ea5 2340 e242 c43f 9d22 7bbf 268c ec3e
-0.7342624 1.954148 1.0106109 -1.0348094 -0.13462166 2.2151368 1.4284385 2.9503458
-1.8563907 -0.58184886 2.7026114 0.87227833 1.119214 -1.1023462 1.5888216 -0.063824035
0.5121194 -0.025917463 -1.2212129 3.1754467 -1.4595637 1.0019774 1.0830599 1.5408931
-0.059472144 -0.19163918 -0.255956 -0.10627505 -0.21690424 -0.06258538 -0.050661445 0.2472218
-0.27830413 0.13442075 -0.550059 0.18005241 -1.075991 0.38063264 -0.21787246 0.7797522
0.9517321 -1.1546297 -0.726796 -0.5018215 1.6745238 2.4600291 2.8198774 -2.448393
0.430012 -1.4271449 -0.22847223 0.6075588 -0.89287174 -0.02955183 2.2016177 0.5688895
3.377619 2.2276623 2.0198057 0.00041211603 2.556972 1.5332911 -0.9809969 0.46200675

l2.bias f4 [8]
00000000: d845 8dbe 16e6 d93f 4a7c 5d3f 56bd 87be
00000010: 1b19 9cbe 9c69 8d3f d2a8 73bf 1d86 d1bd
-0.2759235 1.7023342 0.86517775 -0.2651164 -0.30487904 1.1047854 -0.95179474 -0.10230658

l3.weight f4 [32, 8]
00000000: fbec 76bf 266e 09c0 03b9 06c0 3e03 4bbe
00000010: 48dc 903d ab82 2d3e 5d60 9ebf b1c5 4c3f
00000020: 6d33 08be e9a9 27c0 c25b b2be dcc4 f5bd
00000030: e795 ccbd 1ff6 313e 88ac 16c0 5717 bf3e
00000040: cca4 e93e aa5a 1abf 47fb 383e c6b5 5a3e
00000050: 1465 793f cd26 4fc0 4150 5c3e f4d4 41bf
00000060: e703 0fbf 77f9 d03e bcad 303e 81c2 b1be
00000070: 7163 8ebf 4e72 68bf ad60 9abe cfb2 c6be
00000080: a56a c23e 5239 40bf 48ae 11c0 0af9 27be
00000090: 61a9 8b3e cb2a 94bf b296 15c0 cefc 3c3f
000000a0: 1c09 253f 7eda 7bbf 2952 3abf 4ed9 303e
000000b0: 3d5b 99bf 855f a3bf 0db6 9abc 43ac 3f3d
000000c0: f1af 213f a9a9 08c0 5051 1bbf 6700 b43e
000000d0: 7714 023f 6af5 b7bf e05f eebf 7314 083f
000000e0: a1d5 37c0 db1f b6bf 6615 a3be 9bae 0ebe
000000f0: f98d a73e f20d 2b3f 047f 54bf a526 b93e
00000100: faf2 efbe 78df 9abe f213 a33d 5ba7 43be
00000110: 0594 eabf e3f4 133f adc3 073f 0605 08c0
00000120: 5850 f0bf 20b4 3cbf 8243 8d3d dc44 1dbe
00000130: eada 0fbe 8fa7 3b3f 0a1c e23e 9bdc 42bf
00000140: 4902 73bf 49fe 3ec0 17c9 853d 6463 a03d
00000150: 218d 49bf a5d8 503f 12ab 87be 1123 5bbe
00000160: 37bc 27bf 3a00 14c0 cead 143e cb1d 983e
00000170: 19f3 83bf bca8 f8bf 0eda 21c0 b21a 4e3f
00000180: da07 fe3d 7383 cabf d492 163f cc61 973d
00000190: 7163 fa3e b3cd 5fbf 09f0 c63e 4b73 74bf
000001a0: eb49 cdbf d620 06c0 6b21 283f 2c53 37be
000001b0: 15ec b2bf d69c 80be 6796 123f c1ee b7be
000001c0: d5eb d2be d73b 47c0 6e1a 1d3f d34a 993e
000001d0: 9150 c83f ef68 5fbf e14f 66bf 99fc 3e3c
000001e0: 0ef2 22c0 98ae 7b3f 1576 93bb d028 5fbe
000001f0: 7a3e 633e 69ed d2bf dd21 0fc0 4f82 da3d
00000200: 9189 04c0 bc2b 503f a5b8 fd3e 9c53 9a3d
00000210: c672 82bf 0c07 cebe 95ff a53e 5b9c e1bf
00000220: 14ea 243f 0dfb 433f 8730 8bbf ef9f 64be
00000230: 09c2 b1bf b3e1 f5bf af72 3bbf 993d 57bf
00000240: ef97 6ebf f6a7 3a3f 74a3 03bf 3f74 a23e
00000250: 56d2 b8be 48f6 743f e966 1dbf 96ae a8bf
00000260: be29 013e 00a4 1b3f 320d e7bf a5b2 54be
00000270: 37da ddbc 448c 2fc0 9c13 4bc0 5a97 683e
00000280: 7026 2abf 2529 563f 35bb 0ac0 618c 23be
00000290: 4a71 a33e 1ec8 86be 1d9d c4bd 26c2 88be
000002a0: 2edf c13e ab58 5d3d 2905 10bf 816a a33e
000002b0: d73c 61bf f91b f63e 49da 32c0 b722 a2be
000002c0: b9e3 733e 4e24 e3bf 42bb efbf 3287 0abe
000002d0: bdf9 2bbc addc 393f 34a8 a8bf e2ee 833e
000002e0: 3b97 82be aea5 8abf b825 6abf cb70 46be
000002f0: 023d a3be 8695 483f 187a 2f3e 208e 9bbe
00000300: 9737 ac3e a315 13c0 9039 13be ef28 8bbe
00000310: 64a1 e0bf 45a8 7c3d e7eb 9fbe 5269 c9bd
00000320: 203c 823e 3ed1 1d3d 0e2c e63e 08f9 8fbd
00000330: c297 8abf 8235 55c0 b103 3dc0 ffcb b43d
00000340: ce1c 173f 0a8d 99bf c9a4 04be 0079 6abd
00000350: a8e8 563f feb1 773e 7d25 5f3c 6dfc a1bf
00000360: 7ffe 843c 5310 3fbe e578 283f f467 96be
00000370: 4419 1a3f 4248 b1be a8a4 dfbc 099e 60c0
00000380: 2b89 bcbf 7c40 82bd 723b dfbe abda 973e
00000390: 4686 b3be 4c7e 853e 8512 5fc0 866d c53e
000003a0: 85c6 85c0 f22e 873e 8bf3 f63e 73d1 b33e
000003b0: 3e1f 9f3e 074f 0b3e 1b6f 8ebe 66a9 f0be
000003c0: 4a48 19c0 7386 43bd 7bcc 443f 0882 603d
000003d0: ccb3 e0be 4d9c 17c0 586a d33e 74ae 33be
000003e0: 800b 40bd edd4 863e ce24 543f 441e ea3d
000003f0: 1b62 eebd debb 2fc0 7723 a0bd 25a0 0bc0
-0.96455353 -2.147348 -2.1050422 -0.19825456 0.07073265 0.16944377 -1.2373158 0.79989153
-0.13300867 -2.6197455 -0.3483563 -0.120004386 -0.09989529 0.17379044 -2.3542805 0.37322494
0.45633543 -0.6029459 0.18064605 0.21358404 0.9741986 -3.2367432 0.2151499 -0.75715566
-0.5586533 0.40815327 0.17253774 -0.34718707 -1.1124097 -0.90799415 -0.30151883 -0.38808295
0.37971988 -0.75087464 -2.2762623 -0.16403595 0.27277663 -1.1575559 -2.3373227 0.7382325
0.64467025 -0.9838027 -0.72781616 0.17270395 -1.1980969 -1.2763525 -0.018885637 0.04679514
0.6315909 -2.1353552 -0.6067095 0.35156557 0.50812477 -1.437177 -1.8623009 0.53156203
-2.8724139 -1.4228472 -0.31852263 -0.13933794 0.32725504 0.66818154 -0.8300631 0.36162296
-0.46865064 -0.30248618 0.07962789 -0.1910681 -1.8326422 0.5779554 0.5303295 -2.1253066
-1.8774519 -0.7371235 0.06897642 -0.15358299 -0.14048353 0.7330255 0.44162017 -0.7611787
-0.9492536 -2.9842703 0.065324955 0.07831457 -0.7873097 0.81580573 -0.26497704 -0.21400096
-0.6552157 -2.3125138 0.14519426 0.2971023 -1.0308563 -1.9426494 -2.528934 0.80509484
0.12403841 -1.5821365 0.5881779 0.073917 0.48903993 -0.8742325 0.38855007 -0.95488423
-1.6038183 -2.0957541 0.6567599 -0.17902821 -1.3978297 -0.25119656 0.57260746 -0.35924342
-0.4119555 -3.1130273 0.61368454 0.299399 1.5649587 -0.8726949 -0.89965636 0.011656904
-2.5460238 0.98313284 -0.0045001605 -0.21792912 0.22191802 -1.6478702 -2.2364419 0.10669386
-2.0708964 0.81316733 0.49554935 0.075354785 -1.0191276 -0.4023975 0.32421556 -1.7625841
0.64419675 0.7655495 -1.0874184 -0.22326635 -1.388734 -1.9209503 -0.7322187 -0.84078366
-0.9320058 0.7291254 -0.51421285 0.31729314 -0.36097974 0.95688295 -0.61485153 -1.3178279
0.1261358 0.6079712 -1.8050902 -0.20771272 -0.027081592 -2.7429361 -3.1730719 0.22713986
-0.664649 0.8365653 -2.1676762 -0.15971519 0.3192237 -0.26324552 -0.096002795 -0.26710624
0.37865585 0.05403964 -0.56257874 0.31917194 -0.8798346 0.48068216 -2.794573 -0.3166711
0.23817338 -1.7745454 -1.8729022 -0.13528135 -0.010496554 0.7260235 -1.3176332 0.2576819
-0.25506005 -1.0831811 -0.91463804 -0.19378965 -0.31882483 0.78353155 0.17136419 -0.3038187
0.33636162 -2.2981956 -0.14377427 -0.27179667 -1.7549253 0.06168391 -0.31234667 -0.098345414
0.25436497 0.038529627 0.44955486 -0.07029921 -1.0827563 -3.3313909 -2.9533503 0.08827972
0.5902833 -1.1996167 -0.12953486 -0.0572443 0.83948755 0.24188992 0.013619778 -1.2655159
0.016234634 -0.18658571 0.6580947 -0.29376185 0.601948 -0.3462544 -0.027300194 -3.5096457
-1.472936 -0.06359956 -0.4360004 0.29659018 -0.3506338 0.2607292 -3.4855053 0.38560122
-4.1804833 0.26403004 0.48232684 0.35120735 0.31078523 0.13604365 -0.27819142 -0.4700424
-2.3950372 -0.047735643 0.7687451 0.054811507 -0.43887174 -2.3689148 0.4129207 -0.17547017
-0.046885967 0.26334324 0.8286866 0.11431554 -0.11639806 -2.7458415 -0.078192644 -2.1816494

l3.bias f4 [32]
00000000: c54c fe3d 29c6 6fbd 68b3 08be d2a1 4cbe
00000010: d0ab a8bd 1801 9dbd f9f0 10be b47b fbbd
00000020: 74a8 a5be 09a6 693d b71d 263e d6c2 213f
00000030: 95c1 82bd 5e4d bb3e f6e7 3d3d 459c 983e
00000040: 30cb cb3e 473c 513f b887 463f 85a5 e2bd
00000050: 0ea6 23bf 1531 c33e ff63 5cbe 42ce 95be
00000060: e8db 033e 98ef d33e 3c01 a4be 57dd e53e
00000070: fb8a 76bd f05b 09be 29c6 963e 6dba 843d
0.124169864 -0.05853859 -0.13349688 -0.19983605 -0.08235896 -0.07666224 -0.14154424 -0.12279454
-0.32355082 0.05704311 0.16222273 0.6318792 -0.06384579 0.36582464 0.046363793 0.29806724
0.39803457 0.817326 0.7755084 -0.110667266 -0.63925254 0.38123384 -0.2152252 -0.29258925
0.12876856 0.41393733 -0.32032192 0.4489543 -0.060191136 -0.13413978 0.2944806 0.064808704
