src/data.pth (torch, 9759 bytes, 6 tensors)

l1.weight f4 [8, 115]
00000000: 47b2 7e3f 4173 163f 57d5 263f 4633 1fbd
00000010: 9778 cd3d cc8c 313f dd71 f73e c872 0ebe
00000020: 64f1 74be 463c d2be 5708 97be 6239 f5be
00000030: d2aa a8be 8e86 473f c9df 17bf ad4f 04be
00000040: fddf da3c 01c2 67bf a952 81bf b35e 923d
00000050: 45f0 8c3f edc6 3c3f 1b17 3b3f f04a 5bbf
00000060: 3efd 35bf 748d ff3e 03e5 563f 78fb 253f
00000070: f014 12be 9dfe b83e 48ad 723f 24f7 be3e
00000080: 620d b0bd e62c 483f 418d 37be 4cd1 423f
00000090: 09a5 453e a9f1 2b3f ca81 333f ef0c 7cbd
000000a0: 0246 81bf fba9 66be 4fb1 4dbe b460 20bf
000000b0: 204f 69bf 93dc d23f ed27 76bf 2eb5 75bf
000000c0: 475a 013f ce09 17bf ca45 323f 839a 75be
000000d0: c62e 7c3e e238 dabd 6299 63bf e2c9 37be
000000e0: 407c bd3f 602a ef3f 1bf7 c73f a56f 9b3e
000000f0: ed76 653f 99ed 863f 2ae9 8abe a1bd 65bf
00000100: 9c6e d73f edbc aebb 42ec 09be 2874 533f
00000110: 87a6 253e f2c0 93be 3f83 8fbe 9c01 993e
00000120: 11f2 f23d f5a4 5cbf fb9e 5abf 57bf 343f
00000130: fa82 803e 70c3 4cbf a7b6 103f 8566 3dbd
00000140: d100 e0be 331a a63e b103 6a3f 1256 833f
00000150: 4336 09bf 9c37 07bf 4cc8 293f ddaf 84be
00000160: fc26 0dbe 51c9 833e 610e 5abf f5f5 523f
00000170: 2bd4 633f f274 c63f 2246 453e 0d8e 94bd
00000180: 76e2 1b39 7d0e 39bf 941b 423f 656d 14bf
00000190: 2104 ae3e b41f cdbd 2f92 293f 130f 7a3f
000001a0: 1fa8 1d3f 1896 373f c885 c6be 9d0b 933e
000001b0: 5f94 4a3f fbb9 1cbf 263a febb c26f 0a3e
000001c0: 636a e53d d2fa 103f 1694 1dbf 53dd 973c
000001d0: 2489 42bc 41ac a0be 914d 983f a0ee 1ebf
000001e0: 8f12 233f c1af 883e 0277 d63e 6038 c43e
000001f0: 67e4 33bd 61a0 c9be d5a8 0c3f c3a1 9c3f
00000200: a488 223f 5f1c d93e 97a4 e03e beb3 0d3e
00000210: d736 fdbd 636e b33f 1cc7 783e 3b47 fabe
00000220: 73f5 2b3f f2f9 163e 2e63 e43e d06b fa3e
00000230: 0d89 003f ce3c 943f 4a95 05bf 7335 9abd
00000240: f9ab b8bd 9b84 973f 8551 a8be 5f83 73bf
00000250: 7341 383f 2b6f 603f 28a3 ba3e cbd3 02be
00000260: 66bb 21bf d0b2 5d3e d3cb 4b3f 0332 b43f
00000270: 4da7 70bf 37b3 e03e 7ba6 023e 5596 833f
00000280: 8918 b1bf b99f 6c3f 4562 803f 4d27 d73e
00000290: c367 9d3e 138d 30bf ba97 a23e 6638 6e3f
000002a0: 2909 d53e 1a64 04be e06f 143f 9e68 013e
000002b0: 2204 3abf 6e8c ec3e 368f 133f d562 b03f
000002c0: caa6 8a3f 2e48 89be 8000 1ebd 873e 443f
000002d0: a696 593e fe34 e93e 9a29 35bf 5a51 39be
000002e0: 89fd 7fbc 61d0 d13e 68b7 fa3c d84f 7e3e
000002f0: 0149 ccbe 71f2 0a3f b5b8 66bf cb32 383f
00000300: 9cd5 673e 9bb7 22be a09d 77bf 7394 893e
00000310: 9f6a 123f 1e8d 3f3f 6217 6a3f 7b6a 993f
00000320: de1b b23f 9f1e 253f f955 d23e f400 093f
00000330: 28c4 51be f857 6ebf 65e9 413f 46ec 073f
00000340: 3507 813f 48b5 dcbc 0a9d 29bf 2731 aebf
00000350: 6361 09be edec 6bbd de56 ff3e 0598 35be
00000360: 24b6 0ebf fb47 cebf a663 e1be 0b68 79bf
00000370: f3c4 3a3f 4d55 dd3e b298 d1bd 036a 2f40
00000380: 65ab 263e 925c 603f 12a6 6dbd e80c 36bd
00000390: c9d9 a8be 593c 4b3f f2a9 17bf e8e7 28bf
000003a0: b0af 99be 3e08 873f 00f9 713f c512 69be
000003b0: 147b 233f 7dc5 1d3f 05e3 713d 6b90 733f
000003c0: 1351 873f f65e a83b 2dbf 863f d10b 38bf
000003d0: 6c4d 5e3f 9812 af3e 8664 663d 61d2 cc3f
000003e0: f51f 66bf 1a58 d6bd f78f 403e 6cbf 29bf
000003f0: abe4 b43e 2679 213f 08f6 4b3f 13e1 23bf
0.9949078 0.58769614 0.6516928 -0.038867258 0.10032766 0.69355464 0.48329058 -0.13910973
-0.23920208 -0.4106161 -0.2949855 -0.47895342 -0.32942826 0.7793969 -0.59325844 -0.12921019
0.026718134 -0.905304 -1.0103351 0.07146969 1.1010824 0.73741037 0.7308213 -0.8566122
-0.7108954 0.49912608 0.83943194 0.64836836 -0.142658 0.36131755 0.94795656 0.37297928
-0.085963026 0.7819351 -0.17924978 0.7610061 0.19301237 0.6716562 0.7011992 -0.061535772
-1.009949 -0.2252578 -0.20087169 -0.6264756 -0.9113636 1.6473564 -0.9615467 -0.95979583
0.5052838 -0.58999336 0.6963774 -0.23984723 0.24627218 -0.10655381 -0.8890592 -0.17948106
1.4803543 1.8684807 1.5622286 0.30358616 0.8963459 1.0541259 -0.27131015 -0.89742476
1.683063 -0.0053325803 -0.13469031 0.82599115 0.16176806 -0.28858143 -0.2802982 0.2988404
0.11862577 -0.86189204 -0.85398835 0.7060446 0.25099927 -0.79985714 0.56528705 -0.04624035
-0.43750623 0.32441863 0.9141188 1.0260642 -0.5359842 -0.5281923 0.66321254 -0.25915423
-0.13784403 0.2573953 -0.8517819 0.8240655 0.8899562 1.5504439 0.19265035 -0.072536565
0.00014866315 -0.7228773 0.7582333 -0.5797942 0.33987525 -0.100158125 0.66238683 0.9767925
0.6158466 0.717134 -0.38773942 0.28719798 0.79132646 -0.61221284 -0.0077583967 0.13519195
0.11201932 0.5663272 -0.61554086 0.018538153 -0.011873517 -0.3138142 1.1898671 -0.6208286
0.63700193 0.2669659 0.4188767 0.3832426 -0.043918993 -0.39380172 0.5494512 1.2236866
0.6348975 0.42404458 0.43875572 0.13838097 -0.123639755 1.4018062 0.24294704 -0.4888247
0.671714 0.14743784 0.44606918 0.4891038 0.5020912 1.1581056 -0.5218092 -0.07529726
-0.09017176 1.1837343 -0.32874694 -0.9512233 0.7197487 0.8766963 0.36452603 -0.12776105
-0.6317657 0.21650243 0.79607886 1.4077762 -0.9400528 0.4388673 0.1275882 1.0280253
-1.3835613 0.9243122 1.002999 0.42022172 0.30743226 -0.6896526 0.31756383 0.9305481
0.4160855 -0.1292881 0.5798321 0.12637565 -0.72662556 0.4620089 0.576404 1.3780161
1.083215 -0.2681288 -0.038574696 0.7665791 0.21248874 0.45548242 -0.70766604 -0.1809744
-0.015624412 0.40979293 0.030605033 0.24835145 -0.39899448 0.54276186 -0.9012559 0.71952504
0.2264008 -0.15890352 -0.9672489 0.2687107 0.5719394 0.748247 0.9144193 1.198562
1.3914754 0.6449985 0.41081217 0.5351708 -0.20484984 -0.9310298 0.75746757 0.530949
1.0080324 -0.02694191 -0.6625525 -1.360875 -0.13416056 -0.057598997 0.49870962 -0.17733772
-0.55746675 -1.6115717 -0.44021338 -0.9742438 0.7295677 0.43229142 -0.102342024 2.7408454
0.1627632 0.8764125 -0.058019705 -0.044445902 -0.32978657 0.7938896 -0.5924369 -0.6597886
-0.3001685 1.054939 0.9452057 -0.22761066 0.6385968 0.6162947 0.059054393 0.9514224
1.0571617 0.0051382734 1.0527092 -0.7189303 0.86836886 0.34193873 0.05624821 1.6001703
-0.8989251 -0.10466023 0.18804918 -0.6630771 0.3533071 0.6307548 0.7967229 -0.6401531

l1.bias f4 [8]
00000000: e170 813f 74c8 fa3f 0339 693f 5f26 db3f
00000010: 2c46 813f 84a6 db3f bb8d c13f 6779 843f
1.0112573 1.9592423 0.9110262 1.7121085 1.009954 1.7160192 1.5121378 1.0349549

l2.weight f4 [8, 8]
00000000: bcf1 adbf 251c 9b3f b4f7 3840 8956 703f
00000010: c916 473f 1bef ccbe 0e67 0f40 c86c b5bf
00000020: 1147 94be b36a eebd c0aa a0be e482 533e
00000030: 62ba 3cbe 5f74 43bd d142 b73d 69a9 343d
00000040: b7b6 b13f 34ed 36bf 9eeb 15bf d3cd edbe
00000050: 1548 ad3f 123a b63f 9caf 6b3f 722a 1840
00000060: 7fa6 763e 9f8d 2140 2655 9d3f fe12 28c0
00000070: 575e bf3f 4fe9 5abe 5a8e 2440 7f1e a33f
00000080: 0543 3840 c79c 0140 2540 cc3e c4a5 c43f
00000090: 6b7a 5640 af86 09bf 43b9 a4bf 291f ef3d
000000a0: 5c51 5dbf 83d4 c23f 95f5 97be 0ff7 9a3f
000000b0: ccee 99bf 94a9 1e40 415c c93d 7738 6340
000000c0: 639f dd3f 218f d73f 5ca3 eebf 9f3d fe3e
000000d0: ce0a b6bf b9a9 d73f 54b2 0740 3675 8abe
000000e0: 4ee3 d63f 2f8a d2bf 0d4e 0f40 31bc 1f40
000000f0: a72e 853f dccd 2740 3d0f 2a40 890f 3fbf
-1.3589396 1.2117964 2.8901186 0.9388204 0.7776914 -0.40026173 2.240665 -1.4173822
-0.2896047 -0.11641445 -0.31380272 0.206554 -0.18430474 -0.047718402 0.08948291 0.044106875
1.3883885 -0.71455693 -0.5856265 -0.46446094 1.3537623 1.4236472 0.92064834 2.3775907
0.2408695 2.5242689 1.229161 -2.6261592 1.4950665 -0.21378063 2.5711884 1.2743682
2.8790905 2.025194 0.39892688 1.5363088 3.3512218 -0.53721136 -1.2869037 0.11675865
-0.8645227 1.5221103 -0.29679552 1.2106646 -1.2026 2.4791002 0.09832049 3.5503213
1.7314266 1.6840554 -1.8643603 0.49656388 -1.4222047 1.684867 2.1202593 -0.2704255
1.6788118 -1.644842 2.2391388 2.4958613 1.0404862 2.6219397 2.65718 -0.7463308

l2.bias f4 [8]
00000000: c200 dc3f c888 bcbe 7b82 15bf 6d20 acbe
00000010: 51b9 833f ea4e a73f 9acb 913f cc6f 623e
1.7187731 -0.36823106 -0.5840222 -0.3361849 1.0290929 1.3070958 1.1390259 0.2211296

l3.weight f4 [37, 8]
00000000: cf3e 0bbf 8c30 c33d f4c1 763f d317 b5bf
00000010: b790 423f 1b1e 08c0 4fc2 ecbf 7436 6f3e
00000020: 5fe1 d3bf aedb 3e3e a11c 403f 1e69 03c0
00000030: 9d1f 9f3e 9489 01bf 785d 73bd 6b64 193f
00000040: 9cde 03c0 6d39 3bbc 497f 723e e30e 14bf
00000050: d85c 7f3e e0f5 d4be c2b8 113f 3fd9 58be
00000060: dee6 9e3e 9a56 8ebe 15b0 57bf 45c6 1fbf
00000070: 6e10 8cbe f5b1 8abf cdc4 1bbf 336c 163f
00000080: 0115 4ebe 3689 b6bd 0ea6 8a3e e8bc f4be
00000090: bf38 8d3e e700 3ac0 26a3 e83a c52f 8c3d
000000a0: 340d c5be c43f dcbc a690 aa3e 3a23 e5be
000000b0: 3b7d d73c 0119 13bf c83f 0bc0 06e7 6c3e
000000c0: 5e66 bf3e a518 e03d 0623 4dc0 aa42 3ac0
000000d0: 29c8 2d3f 2fe9 243f 2f25 cc3d bc9f 1fbd
000000e0: c5c1 2ec0 d5c3 2bbd 4bc7 c43e b1f7 f1be
000000f0: 3a2f f5bf 05b7 ce3e 5532 413f 3d6b 1bbe
00000100: d1af 9cbf 9a03 78be b344 a13e 9765 00bf
00000110: 3f3e 5b3f edb2 a93c cef6 91bf 8e9c 49bf
00000120: f4c2 9cbd b9ad 163e ed18 80bf cbc9 54c0
00000130: 91f0 62bf 8efb 79bd e879 653f bd51 5f3f
00000140: 92c7 35bd 4c7d 25be 399b 16bf dee6 92bf
00000150: 95e3 29c0 1ac7 a83e 5e47 2a3f b789 dd3e
00000160: f7ff 91bf 1773 473e 182c 323f 2598 87be
00000170: c386 e1bf 7067 793e 4b26 83bf 376c ef3e
00000180: 595f 01be 41a3 69be 8af2 ebbd 3bb5 4b3e
00000190: 0497 22be 73bd 85bf 991b a2be ef02 d1be
000001a0: 6c02 11c0 906d b7be 8c82 073f 47bb 023e
000001b0: 0575 27bf d990 aa3e bf6e d03d 223f 8dbf
000001c0: 7616 973e 9d8e 843d 5fad d2be 6f94 8cbc
000001d0: 1340 9fbf 7656 08bc 3a39 7abf 92f8 7e3c
000001e0: af35 45bf 3219 903e e829 ef3e e20e 643e
000001f0: a781 11bf 8e26 fb3e 412d febf 24fe 04bf
00000200: 8e70 9b3e 42ca 553e fae5 a7bf 8a67 083f
00000210: da29 2bbd 61a0 27c0 78e9 923e de5d f1be
00000220: 4aa3 dfbe 428f 97be eb93 c7bd fd4d 5b3e
00000230: 3c92 b1be e02e 34be b67c 673e 25c7 92bf
00000240: 6870 d73e a146 b7be f715 14c0 a3fe 2d3f
00000250: 6cd2 e8be 9403 43bf c1e8 89bf fe3b adbd
00000260: bf79 eb3e b541 793e 1943 43be 5d35 ef3e
00000270: 4b89 77be 297f 1ebf e50a 3dc0 a707 21bf
00000280: 3cf8 d1bd 345a c1be a1ff 45bf 9b4a 973e
00000290: 4267 553f 4f06 86bf 77e1 c93d 1b7c 25c0
000002a0: c13a 85bd 2acf 643e e95d 7ac0 957a 113e
000002b0: cc00 043f fa39 f33d 4b59 c83e d4b1 a4bf
000002c0: 450f d13d 7875 4a3e afb5 78c0 9d9d 443e
000002d0: cb80 043f 5637 403e 51d1 e9bf 9ef7 1cbe
000002e0: 04d0 86bf fe36 c0be 0afe 8abf 0e96 77bf
000002f0: eb5c 2dbf da8a 983f a131 2f3f 67ba 60bf
00000300: 3baf 0f3e 1af5 2bbe 6145 85bf 2e69 e73e
00000310: bc69 fdbf 6471 1e3f 637c e23e 7ec2 81bf
00000320: 66bd 3cbf decf 8f3d accb 33bf c228 803e
00000330: 7958 d13c 9f7c 6f3e c17d 263f 013e 39c0
00000340: 8683 b3bd 508f 213e 3116 00bf a60b a6bf
00000350: 8be9 393e 380d 65be 89cf 3c3f 0878 083b
00000360: ac4c b63e 5dbf cf3d d5c0 97bf 5282 0cc0
00000370: 2003 cb3e 9354 89bf a5c9 80bf 7e05 733f
00000380: 5eb4 7d3e 972c e53d d524 3abf ce78 7abf
00000390: e54d 15bf 0cc9 173f 2d20 4dc0 ed79 223f
000003a0: 66bf 633f 3113 2abe 79ef 58c0 ae73 713c
000003b0: 027f 5b3e 3900 1ec0 fda5 00c0 bf6b 0b3f
000003c0: 7a5b 3ec0 b463 523e d04d 223f 6d6a 55c0
000003d0: 7d6b 97be 6498 4c3f 89a7 e93d 92a9 593e
000003e0: f925 243f d446 43be 227d d3bf a259 773d
000003f0: e63b 67c0 522e fa3d 905f 86bf c324 223f
-0.54392713 0.09530744 0.963897 -1.4147896 0.7600207 -2.1268375 -1.8496798 0.23360616
-1.6553153 0.18638489 0.75043684 -2.0532908 0.31078807 -0.5060055 -0.05941531 0.5991885
-2.060462 -0.011427266 0.23681368 -0.57835215 0.24937761 -0.41593838 0.56922543 -0.21176623
0.31035513 -0.27800447 -0.84253055 -0.6241191 -0.27356285 -1.0835558 -0.6084717 0.5875885
-0.201252 -0.0891289 0.27079815 -0.47800374 0.27582356 -2.906305 0.0017748817 0.06845049
-0.38486636 -0.026885875 0.33313483 -0.44753438 0.026304832 -0.5746003 -2.175768 0.23135003
0.37382787 0.109422006 -3.2052627 -2.9103189 0.67883545 0.6441831 0.0996803 -0.038970694
-2.7305768 -0.041934807 0.38433298 -0.47259286 -1.9155037 0.40374008 0.75467426 -0.15177627
-1.2241155 -0.24220124 0.31497726 -0.50155014 0.85641855 0.020715201 -1.1403444 -0.7875451
-0.07654372 0.14714707 -1.0007607 -3.3248165 -0.88648325 -0.061030917 0.8963914 0.872341
-0.04437978 -0.16161078 -0.588306 -1.1476705 -2.6545155 0.32964402 0.6651515 0.4326913
-1.1406239 0.19477497 0.6959853 -0.26483265 -1.7619251 0.24355865 -1.0246061 0.4676225
-0.12634028 -0.22816183 -0.1152087 0.19893353 -0.1587792 -1.044844 -0.3166168 -0.4082255
-2.2657728 -0.35825777 0.52933574 0.12766753 -0.6541293 0.33313635 0.10177373 -1.1034892
0.29509324 0.06472514 -0.41147897 -0.017160622 -1.2441429 -0.008321395 -0.9774357 0.0155621935
-0.7703504 0.28144222 0.4671166 0.22271302 -0.5683846 0.49052852 -1.985756 -0.5195029
0.3035931 0.20877936 -1.3117058 0.5328299 -0.04178796 -2.6191638 0.28693748 -0.47141927
-0.43679267 -0.29601485 -0.0974501 0.21416469 -0.3468188 -0.17596006 0.22606167 -1.1467024
0.42077947 -0.35796073 -2.3138406 0.6796667 -0.4547304 -0.76177335 -1.0774156 -0.08458708
0.45991322 0.24341471 -0.19068564 0.467204 -0.24173467 -0.6191278 -2.95379 -0.629023
-0.10252425 -0.37764132 -0.77343184 0.29549107 0.83360684 -1.0470675 0.09857457 -2.5856998
-0.06505347 0.22344652 -3.9119818 0.14206918 0.51563716 0.118762925 0.39130625 -1.2866769
0.102079906 0.19771373 -3.886089 0.1920075 0.5175902 0.18771109 -1.8267003 -0.15328833
-1.0532231 -0.37541956 -1.0858777 -0.9671334 -0.67719907 1.1917374 0.684351 -0.8778443
0.14031689 -0.16792718 -1.0411798 0.45197433 -1.9797893 0.6189177 0.44235525 -1.0137479
-0.737265 0.070220694 -0.70232654 0.25031096 0.025554882 0.23387383 0.65035635 -2.8944094
-0.087653205 0.15777326 -0.5003386 -1.2972305 0.18155496 -0.22368324 0.73754174 0.0020823497
0.3560537 0.101439215 -1.1855723 -2.1954541 0.39650822 -1.0728935 -1.0061537 0.94930255
0.24775836 0.111901455 -0.7271245 -0.97840583 -0.5832198 0.5929115 -3.2050889 0.63467294
0.88963926 -0.16608883 -3.3896163 0.014737053 0.21435168 -2.4687636 -2.0101311 0.5446128
-2.9743333 0.20545846 0.6339998 -3.3346207 -0.29574195 0.7992003 0.11408908 0.21256092
0.6412044 -0.19069988 -1.6522563 0.060388215 -3.613031 0.12215866 -1.0497913 0.63337344

l3.bias f4 [37]
00000000: ae9b 883e 715c 38bf 1fc1 04bf a82f e7be
00000010: ed92 a6be c070 f9be 2616 953e 96af 4f3e
00000020: d93b 113f 6e95 9fbe 721c 69bd 05f7 adbe
00000030: edad 9bbe c4d0 29be a72b 2fbd 9276 b6be
00000040: 8dc1 e8be fd6f 50bf baed 8fbc c558 d3be
00000050: 95d8 30be a34e cd3d 2eca 3f3e a42e 403f
00000060: 62ed fa3e 82d7 e23d 0b4f 363f 6ada 91bd
00000070: e752 013f 24ae 76bc c514 1c3f 858a 3ebe
00000080: bff2 543e 5acb 5bbe 977b c9be daa3 3c3d
00000090: fa3a 88be
0.26681274 -0.72016054 -0.5185718 -0.45153546 -0.3253397 -0.48718834 0.2911846 0.20281824
0.56731945 -0.31168693 -0.056911893 -0.33977523 -0.30406132 -0.16583544 -0.04276624 -0.35637337
-0.45460168 -0.8142088 -0.017569412 -0.41278663 -0.1727012 0.100247644 0.18729469 0.7507117
0.49009234 0.11076261 0.7121436 -0.07121737 0.50517124 -0.015056167 0.6096919 -0.18607529
0.20795725 -0.21464291 -0.39352104 0.0460547 -0.26607496
