src/data.pth (torch, 9311 bytes, 6 tensors)

l1.weight f4 [8, 109]
00000000: 92ff df3d e986 2dbc 5467 1fbf d4ac 073e
00000010: c237 2bbe c058 35be 415d bf3e 2fed 483f
00000020: 3e1c 1c3f dea0 d23f 571d 083f d3be 323f
00000030: d939 8b3f e3af 093f 2a4e 313f 9bca 163f
00000040: b17e 8e3e 2b66 953f f970 903e 2577 173e
00000050: 4e66 073f 4be7 0c3f 0fc2 15bf 9be5 173f
00000060: 9664 723f 716f 693e 287e c73e 363e f33f
00000070: c033 67be 3fa3 fdbe 92a9 cdbe 8198 453f
00000080: 0f76 5bbe f34c 903e 57cf 5dbf 35c2 01bf
00000090: f70f 633f 49e2 af3e fd09 a23e cc0d 213f
000000a0: d8ca f73e fdce b83f 9f78 7b3f 430a bc3f
000000b0: 5f49 c63f f93c 3a3f 3ae1 1c3f ebb2 59be
000000c0: f527 08bf 281f 683f 19e4 f83e 777c 923f
000000d0: 1922 29be c11c 84bf b891 953d 720f 89be
000000e0: f28f e23c 8735 353e 62f3 14bf 3465 ea3e
000000f0: 73bc 9fbe c5ad 76bf c8f9 e53e eb39 e03e
00000100: efef 10bd 1d1d 1c3f 6c16 d0bd c914 e43e
00000110: c559 373e 65e1 353f f703 223f 63ad 503f
00000120: 632b a63e 3faa 353f af1f 90bf dcf4 29bf
00000130: 8d94 283f bee2 cd3e dbb7 b9bd d3d2 b3be
00000140: 9470 dabe 248b fdbe 1591 aebe 0eca 4cbe
00000150: 49e2 233f e1f2 11be 68dd 383e 82ff 873f
00000160: bee9 7abe 364b 083f 9e8a 59bf fba4 d03e
00000170: 9058 a53e 8fdd e03f 0a9d 723e 4540 da3e
00000180: 179f 0e3f f2cf a53e c48b a6be 64d7 dc3f
00000190: 3944 18bf a132 5b3f bc4d d2bd a56d dcbd
000001a0: 85d8 8a3f 8abc 843f d8e8 943e 2a4f 1cbf
000001b0: a67c 893f 3446 0fbf e5d7 12be 9e87 b43e
000001c0: 1291 253f 2b88 d5bd 3c6a 4d3d a34d 913d
000001d0: e3fe 87be 911e d43e f46e bbbe fb13 9c3c
000001e0: f79b e63e 8b35 5b3f ad4e 943d 758b 623f
000001f0: dfef 1d3f 5a13 94be 4d92 4abf 424b 85bf
00000200: 96bf 9bbe 0b38 133e 7927 423f 723c a93e
00000210: 15e2 483f 2741 133f 4574 823d d6c6 28bf
00000220: cf8f bebe 94b3 993c 6dc4 f13e 3d84 a7be
00000230: a17d c5be 68de cb3d 048b 6c3f b2cc 763f
00000240: fbd4 803e 18d9 153f a6ca 83bf e260 7b3e
00000250: 6837 d73e 7cc4 8fbf 5001 2f3f 8a6f a03e
00000260: 5cce 463f f40c 2d3f 1509 3e3f 233b 8fbf
00000270: dc0f ddbc 9b90 493e dcd3 7a3f 31d9 283f
00000280: 5ea2 4abf 4935 febe 65a4 1d3f 8573 8bbf
00000290: 4866 e1bf bd82 3a3f 5f1b b2bf aefc 513f
000002a0: 756c 92bd 2ad9 983d 64a3 903f 359d 803e
000002b0: 538a 1c3f adc0 39be d4c5 143e 3c90 89be
000002c0: bad0 28bd f755 a8be 3d1b abbe 30e6 6c3f
000002d0: a24d 54bf 16f3 b83e 1737 fabf f50d b2be
000002e0: bc7a c23e 9522 bbbe 6b48 273e bc04 523f
000002f0: 38cb 4a3f 0f17 843f 6b64 813f cf11 a53f
00000300: b50e df3d 92d3 8a3e eff5 02bf 2343 4f3e
00000310: a1f8 0dbf a53a 923d ddd1 8f3f 1609 cc3f
00000320: 5ac7 3bbd cb88 13bf cb86 01be 074b 263e
00000330: 49ae 8cbe 5c13 8e3e cb53 d4bc 5bf9 e03e
00000340: eb75 cdbf 508e 2f3f 0683 46bf 152a ca3d
00000350: de36 86be 3b27 8b3f e24e 8b3d 5f7b c33e
00000360: 210d f33e 0182 2d3e 40fb 1e3f 9442 b03f
00000370: 7a53 a23d 1a38 873f bbc3 583e c4d5 cc3d
00000380: 9194 143d 0aad cd3e 2adc 523e ace0 cb3f
00000390: 66bc be3e 0d1f e63e a050 2c3f cd09 92bf
000003a0: b1b0 e43e c38b 9bbe 3e37 523f 66d8 553f
000003b0: e84f 8e3f 6699 443f b726 2b3d d19f 8fbf
000003c0: d5ba 2dbf d6d1 b63e bae7 173f 0914 33bd
000003d0: d977 5dbd c02a 053f fc39 6ebe 84b8 283f
000003e0: ebc9 d4be 206e b93f 1739 403e 76dc 44bf
000003f0: d255 abbe 17a1 33bf eb43 8dbe c5b4 913f
0.10937418 -0.010591247 -0.6226704 0.13249522 -0.16720489 -0.17709637 0.37375835 0.78486913
0.60980594 1.6455343 0.5316977 0.69822425 1.0877029 0.53784007 0.69259894 0.589029
0.27831033 1.1671804 0.2821119 0.14791544 0.5289048 0.55040425 -0.58499235 0.59334725
0.9468473 0.22796418 0.38963437 1.900336 -0.22578335 -0.4953861 -0.40168434 0.7718583
-0.21431755 0.28183708 -0.866445 -0.5068696 0.88696235 0.3435233 0.31648245 0.6291168
0.48396945 1.4438168 0.9823093 1.4690632 1.5491141 0.72749287 0.6128117 -0.21259658
-0.5318597 0.9067254 0.48611525 1.1444234 -0.16516913 -1.0321275 0.07303184 -0.26769596
0.02765653 0.176962 -0.5818387 0.45780337 -0.31198463 -0.963589 0.4491713 0.43794188
-0.03538507 0.60981923 -0.10160527 0.44547108 0.17905338 0.7104705 0.632873 0.8151457
0.32454976 0.709629 -1.1259669 -0.6638925 0.6585167 0.40212053 -0.09068271 -0.35121784
-0.42664015 -0.49520218 -0.34095064 -0.19998953 0.6401716 -0.14252807 0.1805321 1.062485
-0.24503228 0.5323976 -0.8497714 0.4075087 0.3229413 1.7567614 0.23692718 0.4262716
0.557115 0.32385212 -0.32528508 1.7253232 -0.594791 0.8562413 -0.10268733 -0.107631005
1.0847327 1.0370038 0.29083896 -0.61058295 1.0741165 -0.55966496 -0.1434017 0.35259718
0.64674485 -0.104263626 0.05015014 0.07094886 -0.2656165 0.4142957 -0.36608088 0.019052496
0.45040867 0.85628575 0.07241569 0.88494045 0.6169414 -0.28921014 -0.7912949 -1.0413592
-0.30419606 0.14376847 0.7584148 0.3305393 0.78469974 0.5752129 0.06369833 -0.659284
-0.37219092 0.018762387 0.47220173 -0.32718077 -0.3857241 0.0995453 0.9239962 0.9640609
0.2516249 0.58534384 -1.0296218 0.24548677 0.4203446 -1.1231837 0.6836138 0.31335098
0.7765863 0.6759789 0.7423261 -1.1189922 -0.026985101 0.19684069 0.9797952 0.6595641
-0.79154 -0.49650028 0.6157897 -1.0894629 -1.7609339 0.7285574 -1.3914603 0.82026184
-0.07149593 0.07463296 1.1299863 0.2511994 0.61148566 -0.18139906 0.1452859 -0.26867855
-0.041214682 -0.32878086 -0.3341922 0.9253874 -0.8293096 0.3612296 -1.9548062 -0.34776273
0.37984264 -0.36549821 0.16336219 0.82038474 0.7921634 1.0319537 1.010877 1.289606
0.10891477 0.2711454 -0.51156515 0.20240454 -0.554575 0.07140092 1.123592 1.5940273
-0.045844413 -0.57630605 -0.12649076 0.16239558 -0.2747672 0.27749145 -0.025918862 0.43940243
-1.6051611 0.68576527 -0.77543676 0.09871308 -0.26213735 1.0871347 0.06802155 0.38180062
0.47470954 0.16944124 0.6210213 1.3770318 0.07926078 1.0563996 0.21168415 0.1000171
0.036274496 0.4017108 0.20591798 1.592794 0.37253112 0.44945565 0.67310524 -1.1409241
0.44666055 -0.30380067 0.8211554 0.8353332 1.1118135 0.7679657 0.04178497 -1.1220647
-0.6786321 0.35706967 0.5933796 -0.04372028 -0.054069374 0.52018356 -0.23264307 0.6590655
-0.415603 1.4486732 0.18771778 -0.76898897 -0.33463913 -0.7016768 -0.2759088 1.1383291

l1.bias f4 [8]
00000000: 5421 d23f faed 923f 44e8 0240 dc06 a33f
00000010: 6836 933f 1989 ce3e f8d4 8f3f 1de2 c43f
1.6416421 1.1478875 2.0454264 1.2736468 1.1500978 0.40338972 1.1236868 1.5381504

l2.weight f4 [8, 8]
00000000: 645d cc3e bc46 e9bf cdec 953f c0f7 0a40
00000010: 0594 493f 9b9d d1bf 4498 b73f 8225 20bf
00000020: e5a1 1c40 ed80 dc3d 501a 3940 124c e5bf
00000030: 1342 6a3f b692 d9bf 694c 04bf 8c87 1840
00000040: dd4b e53f 6889 d73f 82f6 eb3f 9106 2040
00000050: 7d2e b0bf 7ac5 0940 ebb0 6bbf 4294 33bf
00000060: 336b 263f 08e2 0fc0 bf4c a9be 12a0 2140
00000070: 729a 8d3f bad4 603f de69 f53d 7726 d63f
00000080: 3882 19bf 27dc 4940 57b4 f0be 358e a73f
00000090: b6d8 ab3f 095c 50bf 5b3d 0b40 68d6 df3f
000000a0: 2edc 49be c873 9ebe c104 19be 766f 533e
000000b0: 474c 0dbe f234 d7bd 088d acbe 3b51 abbe
000000c0: e52e 1d3f 088e 37bf 73c3 b53f d845 1ebf
000000d0: b1d1 ed3f 7e3d 64bc afe8 1840 a12f 24c0
000000e0: 5113 fe3f de71 07be 831e aabf bafb f2be
000000f0: 123a 1440 0b5a 0e40 3fbf 523f 07e6 d8be
0.39915 -1.8224711 1.1712891 2.1713715 0.78741485 -1.6376222 1.4343343 -0.6255723
2.4473813 0.10766778 2.892231 -1.791384 0.9150707 -1.6997898 -0.5167909 2.3832731
1.7913777 1.6838808 1.8434603 2.5004008 -1.3764187 2.152678 -0.9206683 -0.701481
0.65007323 -2.2481709 -0.33066365 2.525395 1.1062758 0.87824595 0.11983083 1.6730489
-0.59964323 3.154062 -0.47012588 1.3090273 1.342551 -0.81390435 2.1756198 1.7487307
-0.19712898 -0.3094771 -0.1494322 0.20647988 -0.13798629 -0.105081454 -0.33701348 -0.3346041
0.6139968 -0.717011 1.4200271 -0.61825323 1.8579618 -0.0139306765 2.3892019 -2.565407
1.9849645 -0.1322703 -1.3290561 -0.47457677 2.3160443 2.2242458 0.8232307 -0.42362997

l2.bias f4 [8]
00000000: 82fd 253f 5e37 883f 0300 0e3f 64e1 15be
00000010: e92c d53e ea29 05be e471 133f e424 333e
0.6483995 1.0641897 0.5546877 -0.14636761 0.41635826 -0.1300427 0.5759566 0.17494541

l3.weight f4 [34, 8]
00000000: 28ca 4c3f 5744 c8bf bccc cdbe 7c36 033e
00000010: bf5c d3be ac28 91bd d1df e53e 0dd0 fabd
00000020: db8d 73bf 5dea 46c0 7072 22be fcfc bcbe
00000030: 6f86 a23d f762 8f3e c654 373f 31d1 163f
00000040: 687d 52be 306a 6ebf 23af 233f 4356 af3e
00000050: 1cc1 75be 7136 953e d050 21c0 9093 f1be
00000060: 9dae d8be 677e 5fbf f049 6b3f 99de c7bf
00000070: f9b2 cebe 293f 95be ee91 c13e 3428 12be
00000080: d97f 013f 3aee edbe 9ddf fc3e d56b 27c0
00000090: fdc6 0e3f 8962 973e 0317 753e 0887 31c0
000000a0: cbfd 03c0 ee2a 2ac0 7d79 693f f8d7 1abf
000000b0: 8969 1e3f 2a2d 99be 800e 0ac0 0b00 cb3d
000000c0: 7c22 28c0 476b a3be 405c 753e 65c6 9e3e
000000d0: 924a eabf 415e 933e 091a 98be ab92 6d3f
000000e0: 85c1 fe3e cc82 963e afea d3be a5a1 75bf
000000f0: b240 9bbf 7cd3 94bd 7bc7 923f efa8 d4bf
00000100: 8fb7 473f 2336 d23b fe08 003f 94fd afbe
00000110: 3b0d 36bf 60a4 3ebe 7e62 69bf 2eb3 45c0
00000120: 6555 d0be cea1 a2bf e0bc b8bf 146c 64bf
00000130: 686d 703e 808b 86bb becd 7a3f 98e5 d33e
00000140: d07f 483f 511d cbbe f340 0ac0 72f1 42be
00000150: 9580 18bd cca7 c8bd 0a2b 323f 0ceb 8bbe
00000160: b910 19bd ef61 11bf fae7 74be af84 d1bc
00000170: 630b d8bf 5a35 37be f32a 573f 68f8 413e
00000180: 4650 d73e a5d4 b8be c7fd 423e 1117 b43e
00000190: 924c 97bf 8d2c 1bbe d587 28bf 2eef 5dbe
000001a0: f1ac b6bf 9bcc a5be 2e57 bebe 9b54 29c0
000001b0: e119 313f 54dd abbd fe94 2f3f 1bf4 10bf
000001c0: a2ac d63e 926a cf3e d957 dcbf 18fb dabf
000001d0: 4f55 583e b50f 14be a5d2 463f de32 3cbf
000001e0: 51ce 3dc0 975e 033f 377b 103f f1ac 71c0
000001f0: 8237 09bf cc99 15be b275 63be 5806 0fbe
00000200: f22b d0bf 8583 b03e d9ad 513f e68d 81bf
00000210: fdc4 e13e 5a6d 96be 3372 c5bf 5b9b 5ac0
00000220: 4198 32c0 89b3 1bbf 41df b83e 4121 64c0
00000230: c216 923e 3e62 7b3e 0e9b 2bbf b604 753f
00000240: 56d3 dfbd 28bb c63e 10eb afbe 1318 70c0
00000250: bd9b c2be c75f aa3e 0e5b d33e a849 2dbc
00000260: 12d0 9cba c992 823f 6226 6bbe 6854 40bd
00000270: 9be9 c6be 20a1 ee3d 4246 2ec0 ba57 54c0
00000280: 1ac3 1cc0 ca8c d33e 9826 cc3e bdf1 71be
00000290: 6687 e03c 42ee 96be 0b2d 29c0 56cb ebbe
000002a0: b410 33be 24c6 353f 6af5 01bf bd8a 82c0
000002b0: f8a6 2c3f 401a a1be ead2 2fbe 5d82 f6bf
000002c0: 8b44 ecbf 0452 73be c56d 03bf 1a97 8fbe
000002d0: 97bb e63e 217d a93e 1093 babf be2b 1e3f
000002e0: c869 fc3e 9d30 cc3d d1af bebe 4b11 3cbe
000002f0: 30bb 0e3f 1014 88bd 80f8 33bf 5981 83bf
00000300: 8133 0a3f ebf3 13c0 e9bb 61bf bd8c 5f3f
00000310: 4207 d93e 6a00 693e 20f9 c2bf a40d 8a3e
00000320: 59a7 62bd 9f35 43bf 77b8 21c0 d533 063f
00000330: 3767 173f 6d84 29be 00dd 5fbe 6b68 a33e
00000340: 8a90 a5bf 31ac 3e3f 95c4 10c0 2492 b33d
00000350: ea40 e13e 80e6 053e e9be b2bf 3acd 2bbe
00000360: 1e8a 66be 8e46 643f 19ff 193f 7870 25c0
00000370: 31f5 9abf 103a 853d 30fb 49bf 8563 a7bf
00000380: 6127 02bf 7469 e83e d59e 7dbf 002d 483e
00000390: 3850 43bf 4bbf b13e 4d08 9dbe c700 1a3d
000003a0: 6779 debe 6025 a33e ca00 1d3d fde5 bdbf
000003b0: 32ab c8bf 504a 91be 5df5 643e c76a 353e
000003c0: 26cd debe 8148 07c0 6f4a db3e 8e2e bf3e
000003d0: 8402 5dbe eb1c 3fbe b066 79be a42f 483e
000003e0: f3d3 2dbf 7e1a 1abf cb4a 13bf 00ba 26bc
000003f0: 6e55 a5bd 229f 2b3e 4610 793e b2f0 b73e
0.79995966 -1.5645856 -0.40195262 0.12813753 -0.41281697 -0.07087836 0.4489732 -0.12246714
-0.9513833 -3.1080544 -0.15863967 -0.36911762 0.079357974 0.28005192 0.7161373 0.5891295
-0.20555651 -0.9313078 0.6393911 0.342455 -0.23999447 0.29143098 -2.5205574 -0.47182894
-0.4232072 -0.8730225 0.91909695 -1.5614806 -0.4037092 -0.2914975 0.37806648 -0.14273149
0.50585705 -0.46470815 0.49389353 -2.6159565 0.5577238 0.29567364 0.2393456 -2.7738667
-2.0623653 -2.6588702 0.91201 -0.6048579 0.61879784 -0.2991727 -2.157135 0.099121176
-2.6271048 -0.31917784 0.23960972 0.31010738 -1.8304007 0.28782848 -0.29707363 0.9280192
0.4975702 0.29396665 -0.41389987 -0.95949775 -1.2129118 -0.072669 1.1467127 -1.6614054
0.78014463 0.006415145 0.5001372 -0.34373152 -0.7111394 -0.18617392 -0.9116591 -3.0890613
-0.4069015 -1.2705629 -1.443264 -0.89227414 0.23479235 -0.004105985 0.9797019 0.41386104
0.78320026 -0.39670804 -2.1602142 -0.19037417 -0.037232 -0.0979763 0.6959692 -0.27327764
-0.037369464 -0.5679006 -0.23916617 -0.025575964 -1.6878475 -0.17891446 0.8404991 0.18942416
0.4205343 -0.36099735 0.19042121 0.35173848 -1.1820242 -0.15153714 -0.65832263 -0.21673271
-1.4271528 -0.32382664 -0.37175888 -2.645789 0.69180113 -0.08391824 0.6858672 -0.56622475
0.41928583 0.40510994 -1.7214309 -1.7107878 0.21126293 -0.14459117 0.7766517 -0.7351512
-2.9657176 0.5131621 0.5643801 -3.7761805 -0.53600323 -0.1460945 -0.22212866 -0.13967264
-1.6263411 0.3447534 0.81905895 -1.0121429 0.44095603 -0.29380304 -1.5425476 -3.4157321
-2.7905428 -0.60820824 0.3610783 -3.5645297 0.28532988 0.24549195 -0.6703347 0.95710313
-0.10928981 0.38814664 -0.34359026 -3.7514694 -0.38009444 0.33276197 0.41280407 -0.010576643
-0.0011963865 1.0201045 -0.2296386 -0.046955496 -0.38850102 0.11651826 -2.7230382 -3.3178544
-2.449408 0.4131835 0.39873195 -0.23627372 0.027408313 -0.2947865 -2.6433742 -0.4605357
-0.1748684 0.71005464 -0.507651 -4.079436 0.67442274 -0.3146534 -0.17170301 -1.9258534
-1.8458418 -0.23761755 -0.5133937 -0.2804497 0.45064995 0.33103278 -1.457613 0.61785495
0.49299455 0.0997021 -0.37243512 -0.18365972 0.55754375 -0.066444516 -0.70301056 -1.0273849
0.5398484 -2.3117626 -0.88177353 0.87324125 0.4238835 0.22754064 -1.5232277 0.26963532
-0.055335376 -0.76253694 -2.5268838 0.5242284 0.5914187 -0.16554423 -0.21861649 0.31915602
-1.2934735 0.74481493 -2.2619984 0.087681085 0.43994838 0.1307621 -1.3964511 -0.16777506
-0.22513625 0.8917016 0.60154873 -2.5849895 -1.2106076 0.06505215 -0.78898907 -1.3077246
-0.5084134 0.45392954 -0.99070483 0.19548416 -0.7629428 0.34716257 -0.30670395 0.037598398
-0.43451998 0.31864452 0.03833083 -1.4835812 -1.5677245 -0.28377008 0.22359224 0.17716514
-0.4351589 -2.1138003 0.42830226 0.37340206 -0.21582991 -0.18663375 -0.24355578 0.19549423
-0.67901534 -0.60196674 -0.57536 -0.010176182 -0.08072935 0.16759923 0.24322614 0.35925823

l3.bias f4 [34]
00000000: 29b8 20bf e444 e2bd 9600 babe 270e f93e
00000010: 2a6a a9bd d751 453f f3a6 3b3d c306 b23d
00000020: e1a1 11bf 0b97 f23e 8568 f5be 3912 b5be
00000030: bfce 50bf 2179 0bbe bb22 a6be 95de 58be
00000040: 216c d2be b499 603d 81f5 d4bd 06aa 983e
00000050: 9af1 983e 74b2 8dbd 36de 1ebf 1b31 f23e
00000060: 1ce9 153a 633c e2bd 9634 c63d 3644 ac3e
00000070: 4b6d 83bf f9c9 36bf c828 cbbe d479 e9bd
00000080: c630 4cbe 65b1 02bf
-0.62781006 -0.11048296 -0.36328572 0.4864361 -0.08272202 0.77078 0.045813512 0.08692696
-0.5688763 0.47380862 -0.47931305 -0.35365465 -0.8156547 -0.13620426 -0.32448372 -0.21178658
-0.4109812 0.054834083 -0.10398389 0.29817218 0.29871827 -0.06918803 -0.62057817 0.4730309
0.0005718635 -0.11046674 0.09677999 0.3364579 -1.0267729 -0.71401936 -0.3967955 -0.1140019
-0.1994048 -0.5105193
