src/data.pth (torch, 21867 bytes, 6 tensors)

l1.weight f4 [8, 363]
1.1757212 1.9452666 -0.11181649 1.992204 0.03907193 -0.018129181 0.029873716 -0.1612616
1.3183956 0.91924316 -0.14129476 1.9436651 -0.23688312 0.2009004 2.632282 0.2336482
1.966424 2.3266468 1.9721233 0.3656206 0.5364738 2.304313 0.24587908 1.1480511
1.8813834 0.25964138 5.823177 0.18771794 0.2569362 0.18935362 4.1591363 1.153273
3.4388428 0.1967783 0.36997217 -0.16797523 1.3615015 0.8735425 6.248023 2.2887921
0.32402173 0.11989559 3.192968 0.3227137 0.77970105 1.9965204 1.9981279 2.3141344
2.3700583 2.1902878 1.8653522 0.8165318 0.25877348 2.1234906 1.3964598 -0.5400733
0.074824035 0.20975657 0.29025453 -0.4802316 0.41369474 0.30163243 0.41077453 0.38423207
0.30341998 1.1631342 1.1323781 2.3741784 0.17668153 0.3518254 0.29681435 0.24181333
0.2860566 0.3213187 1.9406081 0.17618036 0.8676402 0.27484345 0.23590495 0.30007643
3.583644 0.2755735 0.28413704 0.26785904 0.23520474 0.2469322 0.38287944 2.2957323
0.2538445 0.14418484 5.295933 0.8753132 -0.24984193 2.1938336 -0.32216418 -0.38951614
1.0928965 0.83321583 0.18970619 0.1366309 0.11521114 0.10113983 -0.35332462 -0.20893572
0.9447001 0.86569625 1.0578096 0.15209405 0.08586664 0.21550907 0.097477004 0.90580153
2.8060176 0.43138155 -1.2238585 -0.15605277 0.9720212 0.11667324 3.0500982 0.8115033
2.9549057 0.10898898 0.23873681 -0.59308517 1.8387076 0.2850852 0.27066022 0.23819174
0.1617335 -0.2827145 1.1689904 -0.30385393 0.45722598 0.19455339 2.0275638 0.8690798
2.1204548 0.8504749 2.135128 1.9147753 1.7923056 2.3614817 0.13915254 1.806544
2.0420837 0.1401293 0.10904357 2.157515 1.163913 2.9728081 3.6595855 2.0697129
1.1184112 0.16836081 0.25464693 1.9835265 2.2382193 1.1436027 1.1534766 2.140853
1.184361 3.4086394 1.1960534 5.701089 -0.48177382 5.7033486 5.8021607 0.8929133
0.82020175 2.2647328 4.1659675 0.40229592 -0.29578835 0.72722197 -0.2670542 1.1794622
2.2767763 0.76160264 0.8711912 1.1232278 2.3226144 0.3215177 0.78637815 0.19923039
1.174032 1.0874692 1.1739756 0.95389664 6.556114 0.3186665 0.8514611 1.1532241
2.8481145 2.5584693 2.0876622 -0.24665335 2.5856044 4.869527 1.9538692 1.3332832
0.37270257 0.4441683 3.159329 1.1207511 -0.26187629 1.172454 3.0624936 0.18336923
5.280726 0.30789757 1.6145082 0.38435292 0.079518825 -0.3548163 1.5593414 0.924708
-0.02238993 1.237235 1.42872 0.3795784 1.3863281 3.999875 0.31828836 0.17461799
0.17792387 -0.26107475 1.6399325 0.13951302 0.10838716 0.13553308 2.339406 0.18475641
1.6630932 0.07850256 -0.1816333 2.092065 0.9094609 0.90343827 2.3154454 2.2717676
0.26382953 1.2176247 0.22005895 0.16547044 0.4691963 0.31200552 1.0143158 0.74078035
-0.107844554 0.7900066 -0.50421417 1.1365892 3.3162017 -0.44021413 -0.37570238 1.1507089
00000000: 087e 963f 7ffe f83f 0b00 e5bd 8a00 ff3f
00000010: e309 203d a683 94bc b9b9 f43c c321 25be
00000020: 30c1 a83f 8553 6b3f 93af 10be 05ca f83f
00000030: 7d91 72be d6b8 4d3e 4f77 2840 7941 6f3e
00000040: c8b3 fb3f c8e7 1440 896e fc3f a032 bb3e
00000050: 5956 093f dd79 1340 bac7 7b3e 57f3 923f
00000060: 2cd1 f03f b7ef 843e 7757 ba40 2239 403e
00000070: 248d 833e eae5 413e a517 8540 739e 933f
00000080: 0016 5c40 4080 493e fe6c bd3e b301 2cbe
00000090: ae45 ae3f 7ba0 5f3f ceef c740 927b 1240
000000a0: 2de6 a53e d28b f53d 9659 4c40 bb3a a53e
000000b0: 7d9a 473f fb8d ff3f a8c2 ff3f c71a 1440
000000c0: 09af 1740 ad2d 0c40 dcc3 ee3f 3a08 513f
000000d0: f57d 843e 45e7 0740 32bf b23f 3e42 0abf
000000e0: 583d 993d 6dca 563e 3e9c 943e ebe0 f5be
000000f0: cccf d33e 916f 9a3e 0a51 d23e 11ba c43e
00000100: dd59 9b3e 95e1 943f c4f1 903f 8af2 1740
00000110: 01ec 343e 7522 b43e 0df8 973e ea9d 773e
00000120: 0376 923e e283 a43e d965 f83f a068 343e
00000130: ab1d 5e3f 48b8 8c3e 1191 713e 9ea3 993e
00000140: 6c5a 6540 f817 8d3e 697a 913e d224 893e
00000150: 83d9 703e cbdb 7c3e c608 c43e 47ed 1240
00000160: e8f7 813e 31a5 133e 4878 a940 8714 603f
00000170: 90d6 7fbe c567 0c40 b4f2 a4be a96e c7be
00000180: 08e4 8b3f a24d 553f 5742 423e f8e8 0b3e
00000190: d1f3 eb3d 6622 cf3d f7e6 b4be 3ff3 55be
000001a0: ded7 713f 459e 5d3f 4e66 873f 8bbe 1b3e
000001b0: d9da af3d 69ae 5c3e 06a2 c73d 9ce2 673f
000001c0: cb95 3340 0bde dc3e 65a7 9cbf 4ccc 1fbe
000001d0: 62d6 783f 61f2 ee3d cf34 4340 aebe 4f3f
000001e0: 2d1d 3d40 9d35 df3d 6c77 743e 6ed4 17bf
000001f0: c55a eb3f b0f6 913e fa93 8a3e 89e8 733e
00000200: 779d 253e f4bf 90be 7aa1 953f be92 9bbe
00000210: 8619 ea3e 0139 473e 9bc3 0140 047c 5e3f
00000220: 88b5 0740 b9b8 593f f0a5 0840 5b17 f53f
00000230: 456a e53f 8422 1740 017e 0e3e d53c e73f
00000240: 80b1 0240 0e7e 0f3e 3c52 df3d ba14 0a40
00000250: 1afb 943f 7d42 3e40 a636 6a40 2d76 0440
00000260: 1928 8f3f c766 2c3e 1561 823e 32e4 fd3f
00000270: fc3e 0f40 9361 923f 1fa5 933f bc03 0940
00000280: 2499 973f 2627 5a40 4718 993f 526f b640
00000290: 0fab f6be d581 b640 4dab b940 f795 643f
000002a0: bef8 513f 62f1 1040 9b4f 8540 bbf9 cd3e
000002b0: 9271 97be 382b 3a3f 54bb 88be 9ef8 963f
000002c0: b4b6 1140 64f8 423f 6306 5f3f eec5 8f3f
000002d0: b7a5 1440 f89d a43e 1450 493f 0d03 4c3e
000002e0: ae46 963f 3132 8b3f d544 963f 9232 743f
000002f0: b0cb d140 4128 a33e 5bf9 593f d99c 933f
00000300: 8247 3640 f6bd 2340 429c 0540 b292 7cbe
00000310: 8b7a 2540 2ad3 9b40 6318 fa3f 06a9 aa3f
00000320: dfd2 be3e 076a e33e 7232 4a40 c674 8f3f
00000330: a614 86be f912 963f e5ff 4340 25c5 3b3e
00000340: b5fb a840 c0a4 9d3e 34a8 ce3f e8c9 c43e
00000350: c4da a23d 7baa b5be 8098 c73f aab9 6c3f
00000360: 166b b7bc b75d 9e3f 4ce0 b63f 1a58 c23e
00000370: 3373 b13f f4fd 7f40 b1f6 a23e 0fcf 323e
00000380: ad31 363e 97ab 85be 4fe9 d13f 80dc 0e3e
00000390: 16fa dd3d 2fc9 0a3e d4b8 1540 c930 3d3e
000003a0: 3de0 d43f f3c5 a03d 14fe 39be 65e4 0540
000003b0: 6ed2 683f bb47 673f 4230 1440 a464 1140
000003c0: aa14 873e 20db 9b3f 2257 613e 1571 293e
000003d0: 7f3a f03e 30bf 9f3e 1ad5 813f c8a3 3d3f
000003e0: 9bdd dcbd df3d 4a3f 2e14 01bf c17b 913f
000003f0: a63c 5440 bf63 e1be 105c c0be 6e4a 933f

l1.bias f4 [8]
1.5757517 1.1710674 1.3073272 1.8871274 2.4387708 0.98064834 2.0542967 1.5206918
00000000: 3bb2 c93f 89e5 953f 7f56 a73f 648d f13f
00000010: d214 1c40 c50b 7b3f 9979 0340 07a6 c23f

l2.weight f4 [8, 8]
1.054788 1.1528714 1.8006365 -0.9052929 0.6029536 2.4582858 2.4054215 -2.6063764
-0.62879264 0.95038676 3.724992 1.689908 2.0976536 -1.2049181 1.9268945 2.141606
2.401477 -0.30991694 3.1916409 2.255268 -0.17170483 1.9683912 0.7682406 3.1597536
2.3369558 0.25988364 -1.6539468 3.7429025 3.676388 1.5818431 -0.7002939 0.23395456
-0.8325709 3.1782508 0.20290355 1.0772651 1.0416774 0.36067864 2.3287227 -0.70349073
0.7619768 2.37632 -0.5414726 -1.9454011 0.66383743 2.9603841 1.2455446 2.721027
2.5611327 -0.72678566 1.251562 -0.8937897 2.5041206 -0.30403373 1.679128 -1.0219724
2.227905 -0.2781278 -1.1880753 0.4145587 -0.32366765 -1.1030033 3.0261805 0.43966198
00000000: 4b03 873f 4a91 933f 427b e63f 47c1 67bf
00000010: 2b5b 1a3f 8e54 1d40 6df2 1940 dfce 26c0
00000020: 8ef8 20bf 8c4c 733f 4566 6e40 e84e d83f
00000030: f53f 0640 c23a 9abf 7ba4 f63f 1310 0940
00000040: cdb1 1940 6fad 9ebe d843 4c40 5056 1040
00000050: 64d3 2fbe 3ef4 fb3f 6aab 443f 6739 4a40
00000060: af90 1540 780f 853e 87b4 d3bf b78b 6f40
00000070: f149 6b40 d679 ca3f 7646 33bf c991 6f3e
00000080: 5e23 55bf 7668 4b40 f3c5 4f3e d3e3 893f
00000090: af55 853f dfaa b83e cb09 1540 f817 34bf
000000a0: e910 433f a015 1840 f39d 0abf e702 f9bf
000000b0: 40f1 293f ef76 3d40 016e 9f3f 4e25 2e40
000000c0: 99e9 2340 a00e 3abf 2f33 a03f 67cf 64bf
000000d0: 8343 2040 4faa 9bbe abed d63f fecf 82bf
000000e0: ff95 0e40 c466 8ebe da12 98bf 0a41 d43e
000000f0: c4b7 a5be 362f 8dbf f1ac 4140 601b e13e

l2.bias f4 [8]
0.826057 2.3512504 0.6905732 1.3048759 1.1688434 1.3352984 0.9147267 -0.02325967
00000000: 7978 533f e37a 1640 68c9 303f 2c06 a73f
00000010: a99c 953f 0feb aa3f 872b 6a3f 108b bebc

l3.weight f4 [39, 8]
-1.0461125 -0.81705374 0.594757 -3.8774545 -1.875963 0.11272049 -2.8415794 -1.7253445
-2.6927187 -0.16925195 -0.96799695 -1.3121046 -2.030287 0.4442497 -1.8510863 -2.6968272
-1.7312768 -2.8622615 -0.3293616 -0.67976785 -1.3821784 -0.5473124 -1.9111468 0.6816439
0.7359933 -4.339295 -1.0899309 -1.3658797 -1.6404015 -0.78275084 0.6139176 -0.33684945
0.1606137 -1.7730439 -0.6240369 -1.4302139 -1.8901575 -3.2104006 -0.20766112 0.023457842
-0.0950128 -3.0569828 -0.12798534 -1.9650502 -1.0464427 -0.42840582 -0.29806927 -3.296341
-2.2638462 -1.805388 -2.1345332 0.0313597 -2.3054795 -1.5291749 0.59410995 0.56314415
-0.74227095 -2.1873355 -1.0318512 -0.62556463 -0.032350153 -0.3506584 -4.346101 -0.49038076
0.6321808 -4.114888 -1.1121863 0.36973333 -0.82162154 -2.945221 -0.19961989 -0.6570123
-1.9579995 -3.185712 0.098467514 0.39197764 -3.8294573 -0.6916413 -0.010721976 -0.8133077
0.5367561 -3.5283194 -2.2136683 -2.5305855 0.5507938 0.16644587 -1.2050754 0.34532192
0.4290251 -1.8319544 -0.18176925 -3.140918 -0.2445255 0.3710812 -3.7544525 -2.5223603
-0.59190625 -1.4614556 -0.4440934 0.2953363 -3.2161121 -3.636291 0.02518896 -1.4241561
-2.8511715 -2.0270438 0.042996597 0.16108005 -1.1511456 -0.33449087 -3.5330932 -1.2086359
0.4146937 -4.833347 -1.4376442 0.34462464 -1.4105121 -0.11431664 0.2628473 -2.7507603
0.13065152 -4.2344937 -0.21203434 -0.31036282 -0.61357015 0.21395276 -1.9100671 -4.3815217
-1.7163475 -0.32171115 -0.18505426 -1.3706083 -3.109151 -3.429494 -0.12150858 0.11567896
-3.1877792 -0.67731154 -0.060338587 -0.6572699 -3.707696 -0.6955155 -2.2322195 0.7257792
-0.118354194 -2.0846357 0.046692614 -1.1800195 -4.3845162 -1.2023035 -0.24560137 -0.6504015
-0.23226668 -1.0628626 0.002896237 -1.676655 -4.0108232 -0.3547052 -0.6869067 -3.8730264
-2.6097848 -1.5954581 -0.1805503 -1.4079251 -1.2427561 0.6380082 -3.3595676 -0.5700798
-1.1498817 -0.5778599 0.36387607 -0.22597975 -3.532476 -1.8808848 -2.2999158 -2.7202408
-4.4932194 -1.5738606 -1.0468396 -0.0710405 -0.37643 -1.1631367 -0.8789661 -0.36287424
-2.3878763 -2.1204274 -0.82524496 0.8056122 -0.75138205 -3.3469472 -0.25763434 -1.5152434
-0.5888233 -0.68457365 -2.047004 -0.8374806 -0.57037914 -2.4780848 -0.88367087 -2.0659158
-1.2588516 -1.3682121 -1.3059657 -2.8460608 -2.0161297 -0.8567962 0.43647903 0.6756816
-3.5349224 -1.36118 -1.1780866 -1.5155361 -0.21506746 -0.18971413 -1.395289 -0.08512039
-0.19926974 -0.10898438 -1.2506523 -3.6562808 -0.51602674 -3.5564039 -0.30589825 -0.07469988
0.35208532 -1.7444843 -2.416417 -2.545503 -0.16993587 -1.0388 -0.021751953 -1.3525538
-0.74035174 -2.3431246 -2.8587356 -0.15626863 -0.28516057 0.21444686 -0.3638217 -3.8572948
-2.1259942 -0.0024083487 -0.71882 -2.4557452 -1.5013009 -1.3175511 -0.18815628 -2.8093674
-0.9753007 -0.7283149 -0.94295245 -5.074236 0.10874649 -0.2305633 -1.795053 -0.23171419
00000000: 04e7 85bf 6f2a 51bf ff41 183f 3728 78c0
00000010: 8e1f f0bf 00da e63d 70dc 35c0 17d8 dcbf
00000020: 8155 2cc0 6250 2dbe a6ce 77bf 0bf3 a7bf
00000030: 39f0 01c0 b274 e33e 65f0 ecbf d198 2cc0
00000040: 7a9a ddbf 4b2f 37c0 15a2 a8be 4405 2ebf
00000050: 39eb b0bf aa1c 0cbf 75a0 f4bf 3780 2e3f
00000060: 0f6a 3c3f 81db 8ac0 db82 8bbf 25d5 aebf
00000070: adf8 d1bf 5c62 48bf b429 1d3f 8877 acbe
00000080: eb77 243e 1af3 e2bf e2c0 1fbf 4011 b7bf
00000090: aef0 f1bf 3477 4dc0 1ea5 54be a92a c03c
000000a0: 1296 c2bd 9ba5 43c0 970e 03be c486 fbbf
000000b0: d6f1 85bf 0258 dbbe 899c 98be 40f7 52c0
000000c0: dbe2 10c0 f416 e7bf 319c 08c0 0773 003d
000000d0: fa8c 13c0 01bc c3bf 9717 183f 372a 103f
000000e0: 7805 3ebf 4efd 0bc0 b313 84bf 0125 20bf
000000f0: 9881 04bd 7f89 b3be 4213 8bc0 3013 fbbe
00000100: 9ad6 213f 2aad 83c0 1f5c 8ebf b04d bd3e
00000110: ca55 52bf 807e 3cc0 2869 4cbe f531 28bf
00000120: ba9f fabf b5e2 4bc0 56a9 c93d 4bb1 c83e
00000130: d415 75c0 670f 31bf 3aab 2fbc ef34 50bf
00000140: d968 093f fccf 61c0 beac 0dc0 1df5 21c0
00000150: d300 0d3f c970 2a3e e93f 9abf 09ce b03e
00000160: 2ea9 db3e 7b7d eabf b821 3abe cd04 49c0
00000170: e564 7abe 5bfe bd3e f348 70c0 5a6e 21c0
00000180: 2b87 17bf fa10 bbbf 3660 e3be 5236 973e
00000190: c8d4 4dc0 feb8 68c0 1459 ce3c bf4a b6bf
000001a0: 9879 36c0 16bb 01c0 331d 303d 2bf2 243e
000001b0: bd58 93bf 6342 abbe 331e 62c0 95b4 9abf
000001c0: bc52 d43e c7aa 9ac0 ba04 b8bf a472 b03e
000001d0: a98b b4bf d81e eabd ec93 863e 750c 30c0
000001e0: 83c9 053e f980 87c0 881f 59be e0e7 9ebe
000001f0: ef12 1dbf 6f16 5b3e 147d f4bf 6d35 8cc0
00000200: 46b1 dbbf 53b7 a4be dd7e 3dbe 1870 afbf
00000210: 54fc 46c0 d47c 5bc0 7ed9 f8bd 17e9 ec3d
00000220: 9304 4cc0 4a64 2dbf 9825 77bd d742 28bf
00000230: e44a 6dc0 4e0d 32bf afdc 0ec0 aacc 393f
00000240: af63 f2bd ac6a 05c0 c140 3f3d e10a 97bf
00000250: f54d 8cc0 15e5 99bf ed7e 7bbe b680 26bf
00000260: 51d7 6dbe e20b 88bf cbce 3d3b a29c d6bf
00000270: aa58 80c0 ec9b b5be 1ed9 2fbf aadf 77c0
00000280: b706 27c0 f937 ccbf 2ee2 38be e436 b4bf
00000290: a212 9fbf 8154 233f 2803 57c0 c0f0 11bf
000002a0: 532f 93bf a0ee 13bf f74d ba3e 3c67 67be
000002b0: 1614 62c0 d5c0 f0bf d231 13c0 6d18 2ec0
000002c0: 74c8 8fc0 4474 c9bf d7fe 85bf af7d 91bd
000002d0: 6fbb c0be aae1 94bf ec03 61bf a7ca b9be
000002e0: f7d2 18c0 15b5 07c0 4143 53bf 9a3c 4e3f
000002f0: 935a 40bf 6234 56c0 a6e8 83be 7ff3 c1bf
00000300: 20bd 16bf 3840 2fbf 1d02 03c0 2165 56bf
00000310: 5e04 12bf f198 1ec0 4138 62bf f737 04c0
00000320: 0d22 a1bf 9321 afbf e229 a7bf dc25 36c0
00000330: 4508 01c0 ff56 5bbf 2e7a df3e 78f9 2c3f
00000340: 2b3c 62c0 253b aebf 8bcb 96bf 16fd c1bf
00000350: a53a 5cbe 6c44 42be d498 b2bf 9953 aebd
00000360: 5e0d 4cbe 3433 dfbd 6015 a0bf 8100 6ac0
00000370: 541a 04bf 1f9c 63c0 b29e 9cbe 40fc 98bd
00000380: 8744 b43e 434b dfbf 93a6 1ac0 85e9 22c0
00000390: ab03 2ebe 66f7 84bf 2731 b2bc 7c20 adbf
000003a0: b187 3dbf c1f5 15c0 86f5 36c0 e204 20be
000003b0: 9100 92be f597 5b3e d646 babe ebdd 76c0
000003c0: 4a10 08c0 63d5 1dbb 9604 38bf ee2a 1dc0
000003d0: a12a c0bf 84a5 a8bf 0aac 40be adcc 33c0
000003e0: 4fad 79bf d872 3abf 5565 71bf 2460 a2c0
000003f0: 7bb6 de3d c918 6cbe 4cc4 e5bf 7c46 6dbe

l3.bias f4 [39]
0.14277208 0.12508301 -0.7039241 -1.2688444 -1.3398249 -0.31372562 0.67097586 0.21815006
-0.92812467 -0.36358944 -0.44319224 -0.031049974 -0.7102381 -0.06678355 -0.55550444 0.23925965
-0.5060758 -0.53656214 -0.42119622 -0.37236068 0.21725708 0.2658725 -0.22975074 -0.77028763
0.23915765 -0.30335334 -1.4580758 0.1542205 -0.5384923 0.19141531 0.2555198 0.8297227
-0.35411018 -0.6809115 -0.49723372 0.13139682 0.34175113 -0.55692166 -0.8460961
00000000: d832 123e c315 003e 5f34 34bf 7e69 a2bf
00000010: 627f abbf a5a0 a0be 13c5 2b3f bb62 5f3e
00000020: 9499 6dbf 6528 babe 18ea e2be 845c febc
00000030: 2ad2 35bf d0c5 88bd 8a35 0ebf 7b00 753e
00000040: 2f8e 01bf 235c 09bf 08a7 d7be 0fa6 bebe
00000050: a478 5e3e 7120 883e c743 6bbe 9231 45bf
00000060: bee5 743e 2151 9bbe 3aa2 babf fbeb 1d3e
00000070: a2da 09bf 6002 443e 7ed3 823e b568 543f
00000080: ee4d b5be 3750 2ebf 6b95 febe e38c 063e
00000090: 01fa ae3e 6b92 0ebf c199 58bf
