src/data.pth (torch, 9375 bytes, 6 tensors)

l1.weight f4 [8, 109]
000000 d2 32 4b 3f 04 1f 17 3f 63 de e5 be bd 53 aa 3e
       0.7937442 0.590317 -0.4489623 0.33267012
000010 de 21 00 3f 18 55 90 be 6d b3 83 3f 01 9d 17 bf
       0.5005168 -0.2818992 1.0289131 -0.59223944
000020 ed e4 6a bd 62 58 da 3e 16 55 96 bd c3 0d ac be
       -0.057347227 0.42645556 -0.073404476 -0.3360425
000030 af c1 a6 3e 8e e7 02 bf 2c ff 19 bf f2 f0 68 3d
       0.32569644 -0.51134574 -0.60154986 0.05687041
000040 b4 6f 0a 3f 33 37 cd 3f be dc 58 bf 05 c2 fc 3e
       0.54076695 1.603247 -0.84711826 0.49366775
000050 81 83 ec be 1b ff 34 bf ce bf 31 be 4f 07 50 bf
       -0.4619408 -0.7070176 -0.17358324 -0.8126115
000060 f4 d5 a2 3d 33 53 de 3e 9c 79 c7 3f 65 69 4c bf
       0.079509646 0.4342285 1.5583987 -0.7984832
000070 96 ba b9 3e f3 26 8d 3f 00 f1 82 3e f1 3d 0e 3f
       0.36275166 1.1027511 0.25574493 0.55563265
000080 93 34 ca be b1 9e 22 bf 9b 04 7b bf f6 5b 4c be
       -0.39493236 -0.63523394 -0.980539 -0.19956955
000090 cc 53 7c be 12 a1 58 bf 67 b3 97 be 2d 93 93 3d
       -0.24641341 -0.84620774 -0.2962906 0.07205806
0000a0 99 c2 83 3f b5 d3 7a be ee 49 a7 bf 44 f9 4f be
       1.0293761 -0.24494822 -1.3069437 -0.20309931
0000b0 61 bd 57 be f7 02 08 3f d6 04 90 3f f5 a3 bb 3e
       -0.21068336 0.53129524 1.1251476 0.36648527
0000c0 3b 08 02 3f 70 e3 50 3f 83 60 92 3c b7 33 ce 3f
       0.5079381 0.8159704 0.017868286 1.6109532
0000d0 00 24 e5 b9 7c d3 43 3e e6 24 31 40 a7 fa c3 3f
       -0.00043705106 0.19123644 2.767877 1.5310868
0000e0 e5 ea a1 3f bc 6d c4 3f fc 25 c5 be 97 fe e4 be
       1.2649809 1.5345988 -0.38505542 -0.44725487
0000f0 00 49 00 3e 5c 47 67 3e 51 ad 2b 3d e9 a4 8a 3c
       0.12527847 0.22585815 0.041913334 0.016924338
000100 a4 6d 1e 3e 2c 12 4d 3f 9b 6a b6 3d c7 6b 3d be
       0.15471512 0.80105853 0.08907052 -0.18498145
000110 9b 02 18 3f 01 fb a9 be ea 9e 58 bf 12 99 d4 be
       0.59378976 -0.33199313 -0.84617484 -0.41523033
000120 c5 e5 ad 3d 74 66 d3 bf 81 e2 19 3e dc 58 b2 be
       0.08491091 -1.6515641 0.1502781 -0.3483342
000130 99 2d 98 3e d4 80 05 bc 82 10 9d 3f 0d ac a8 3f
       0.29722288 -0.008148391 1.2270663 1.3177506
000140 9d 70 1d 3e 3c 28 10 3f 8e dc bf 3e a4 f7 a5 be
       0.1537499 0.5631139 0.37472957 -0.32415497
000150 01 b3 bd 3d 95 2e 8b bd 12 56 cf 3e 00 5b 15 bf
       0.09262658 -0.06795994 0.40495354 -0.5834198
000160 bc 79 e4 be 90 00 48 bf 46 4d ab bf 59 53 e4 bd
       -0.44624126 -0.7812586 -1.3382957 -0.1114871
000170 0a e4 96 3e 9c 62 58 bf 01 94 f5 3e 4d ca 30 3f
       0.29470855 -0.84525466 0.4796448 0.69058686
000180 af 5f aa be 31 44 82 3f c0 7a 34 bf f7 c1 a6 bf
       -0.33276126 1.017706 -0.704998 -1.3027943
000190 1b 8c a6 3e b4 02 ca be ba 0c 86 be a8 1e 54 3c
       0.32528767 -0.39455187 -0.26181585 0.012946762
0001a0 96 fb b9 3f 40 f1 8c 3e c4 0f e8 3e 1e cd d2 be
       1.4529903 0.2752781 0.45324528 -0.41172117
0001b0 a6 b2 b3 bf ad c3 85 be 13 45 a3 3c 53 04 d3 be
       -1.4038894 -0.2612585 0.019930398 -0.41214237
0001c0 a3 66 77 3f 62 b8 bb be 1c 07 eb 3e e6 c6 29 3f
       0.96640986 -0.3666411 0.45903862 0.6631912
0001d0 ae 07 76 3e 14 90 13 3f 14 45 5a bf 3e 05 a0 be
       0.24026367 0.5764172 -0.85261655 -0.31254
0001e0 1f 10 17 3f 32 83 8a 3f 07 a9 dc be 55 ea 68 bf
       0.59008974 1.0821288 -0.43097708 -0.9098256
0001f0 ac da bc 3e e0 bc d9 3e 39 eb 9a 3f 49 87 0f 3e
       0.36885583 0.42526913 1.2103034 0.14016451
000200 b6 86 a3 3e a7 9d 98 3e c1 68 bd 3e d0 38 12 3f
       0.31938714 0.2980778 0.36993983 0.5711794
000210 3e f2 6e bf 91 82 3d 3f 15 e1 31 bf e7 97 97 bf
       -0.9333838 0.74027354 -0.6948407 -1.1843232
000220 a7 c8 8f bf 67 18 2b 3d c3 1e e9 3e 1e 3d 82 be
       -1.1233109 0.04177132 0.45531282 -0.25437254
000230 67 31 cf 3f d2 8d 33 3f 9e 5e 5a 3f 9c 99 bd 3d
       1.6186951 0.70138276 0.85300624 0.09257814
000240 b1 f8 17 3f 3c b0 28 3f 03 45 2d 3e 42 17 05 be
       0.5936385 0.6589391 0.16920857 -0.12997153
000250 de c1 03 3f 3b 0f 82 3f 90 91 8f 3f 81 d2 7b bf
       0.5146769 1.0160898 1.1216297 -0.9836808
000260 d3 b2 83 3f 53 bb 8a 3f 37 d4 f1 3f bc 31 7a 3f
       1.0288948 1.0838417 1.8892888 0.9773214
000270 37 1e 87 be 50 7e 7a 3f 12 61 2d 3f 80 09 9d 3e
       -0.2639024 0.9784899 0.6772624 0.3067131
000280 7f ac 99 3f c7 86 0d be 58 e7 33 3f 6e e4 a3 3f
       1.2005767 -0.13820945 0.7027488 1.2804086
000290 e8 90 f6 bf 36 8c e7 bc f5 b3 d5 bf ec 6c 4e bf
       -1.9262972 -0.0282651 -1.6695544 -0.8063495
0002a0 73 c7 a5 be 03 c8 98 be ab 8c a5 3f b8 50 4b bd
       -0.3237873 -0.29840097 1.2933553 -0.049637526
0002b0 8d ca 98 3e 44 14 7b 3d 44 58 2c 3f 44 f5 3e 3e
       0.29842034 0.061298624 0.6732218 0.18648249
0002c0 64 d0 ed 3c f9 5c a7 3e 95 1b 6a bf c6 f3 90 bf
       0.029030032 0.3268812 -0.91448337 -1.1324394
0002d0 27 c5 83 bf 80 b3 22 3c 58 da b6 3e b6 05 8e 3f
       -1.0294541 0.009930491 0.35713458 1.1095493
0002e0 44 5e 10 bf 59 7a aa 3f 96 f6 0f 3f 0c ab 04 be
       -0.5639384 1.3318588 0.56235635 -0.12955874
0002f0 24 40 cb be 07 8b 84 3f ea 3c 84 bf 66 eb 4e bf
       -0.39697373 1.0354928 -1.033109 -0.8082794
000300 af 23 f2 3e ad d2 07 3f 42 2f 4a be 81 8a 91 3f
       0.4729285 0.5305584 -0.1974459 1.1370393
000310 d7 d8 25 be 4b 52 5a 3f 97 99 b5 be e2 35 ed 3f
       -0.16195999 0.8528182 -0.35468742 1.8532069
000320 f7 6d d9 3b 31 8b 3a bf 7a 68 ab bf 48 e5 8b 3f
       0.0066354233 -0.7286864 -1.3391259 1.0929346
000330 56 4e 37 be bb 14 38 3f de a6 bf 3e ae 95 26 3e
       -0.17900977 0.7190663 0.37431997 0.16268036
000340 e2 ce a3 bf d8 b2 0f 3f 61 67 7e bf 5f 57 da 3e
       -1.2797511 0.5613227 -0.99376494 0.42644784
000350 5e cf 0b 3e fe 1b fa be 45 92 c5 be 64 cd a8 be
       0.13653323 -0.4884948 -0.38588157 -0.329692
000360 c6 cd e3 be 5c f6 05 3f 62 06 4c bd e7 dd d6 3e
       -0.4449293 0.5232904 -0.049810775 0.41966173
000370 65 6f 13 3f c3 f4 34 be 90 41 33 3f 71 d2 f7 3e
       0.5759185 -0.17671494 0.70021915 0.48402742
000380 f0 4a 6a 3e 10 51 ac 3e e1 8e 60 3e 11 42 bf 3f
       0.22880149 0.33655596 0.21929504 1.4942037
000390 86 88 12 3f 47 97 01 3f fd c3 61 bd fb 2f 0e 3f
       0.5723957 0.50621456 -0.05511855 0.5554196
0003a0 9c 2b e5 bd 0a 01 07 bf 06 af c2 3e 3b 53 1e 3f
       -0.111899585 -0.5273596 0.38024157 0.6184575
0003b0 f0 ce 0c bf a6 f7 f8 3e a3 78 d0 3e 39 82 61 3f
       -0.5500326 0.4862644 0.4071704 0.8808933
0003c0 ea 16 6c 3d e2 6e 73 bd 64 a8 bc 3e 2e bc d8 be
       0.05763904 -0.059431918 0.36847222 -0.4233107
0003d0 00 31 6b bf 2d 24 94 3f 5e 61 83 3e 23 26 b9 3e
       -0.91871643 1.157354 0.25660223 0.36161909
0003e0 77 16 94 3e 03 5a b6 bf dc 37 24 3f 32 7e fa 3e
       0.2892339 -1.4246219 0.64147735 0.48924404
0003f0 e6 ae 7f 3f 8c bd 2e 3c 5e 74 15 3f d1 eb 17 bf
       0.9987625 0.010665309 0.5838069 -0.593442

l1.bias f4 [8]
000000 c6 9b 58 3f 33 b4 eb 3f 49 fc d9 3f 1f a6 83 3f
       0.8461269 1.8414367 1.7030116 1.0285071
000010 c0 bb 8b 3f 16 39 ef 3f 70 84 5a 3f 98 1d b4 3f
       1.0916672 1.8689296 0.85358334 1.4071531

l2.weight f4 [8, 8]
000000 84 7b 41 be 2f b5 e4 3f 0b 2d 29 3f 3c 39 5f 3f
       -0.18894774 1.7867793 0.66084355 0.8719671
000010 bc ab 24 c0 c8 b8 cd be fc 5e 8a 3d 62 31 bf 3f
       -2.5729818 -0.4018004 0.06756398 1.4936945
000020 8a e4 93 3f 9a 76 fe 3f 2b 2a 35 3d 2e 3c 77 bf
       1.155412 1.9879944 0.044229668 -0.965762
000030 90 e8 20 bd 05 f2 07 40 82 74 46 40 7d 6e 12 bf
       -0.03928429 2.1241467 3.100861 -0.5719984
000040 63 70 ca be 2c 1c b5 bf e0 72 06 40 f3 3a e7 3f
       -0.3953887 -1.4149222 2.1007614 1.8064865
000050 1e a9 9c 3f f5 32 3e bf c4 59 e3 3f f8 b7 f2 3f
       1.223911 -0.74296504 1.7761769 1.8962393
000060 25 40 fd bf 8f 10 34 3f 9a a7 96 bf fc e8 06 40
       -1.97852 0.70337766 -1.1769898 2.1079702
000070 5e 19 99 be 04 a8 b7 3f 42 35 96 3f 97 df 8d 3f
       -0.29902166 1.4348149 1.1735003 1.1083859
000080 65 38 79 3f cf cb f9 3f 66 9a 83 bf 2e a1 85 3f
       0.97351676 1.9515322 -1.0281494 1.0439813
000090 03 a0 08 40 eb 1e bc 3f d0 5c 7a be e4 e8 b5 bf
       2.1347663 1.4696935 -0.24449468 -1.4211698
0000a0 cc c4 c3 3f 3e 60 e4 3f ce b5 dc 3f 54 91 37 be
       1.5294433 1.7841871 1.7242982 -0.17926532
0000b0 10 a5 d1 bf dd 7c 85 bf f8 a3 15 40 9b 0e 33 bf
       -1.6378498 -1.042873 2.3381329 -0.6994416
0000c0 92 11 89 3f 91 d7 a2 3f c0 44 4c 40 94 fb 9b bf
       1.0708487 1.2722036 3.1916962 -1.218615
0000d0 10 78 b7 3e dd 5e 10 40 f8 2c 05 c0 a3 c8 ac 3f
       0.35833788 2.25579 -2.0808697 1.349873
0000e0 e8 ba 3c 40 fc 87 34 bf a9 6d 6b bf 5e c8 f1 3f
       2.9489079 -0.70519996 -0.91964203 1.8889272
0000f0 4f fc db 3f 25 ef 98 be 26 dd 77 3e ba 93 f7 3f
       1.7186373 -0.29869953 0.24205455 1.9341958

l2.bias f4 [8]
000000 28 4b 74 3e 6c eb 70 3e 82 c0 c5 3f ab b4 94 3f
       0.23856795 0.23527306 1.5449374 1.1617635
000010 e3 7e 8a 3f f7 05 d2 3e e2 f7 b3 3f 0c 21 02 bf
       1.0819973 0.41020176 1.4060023 -0.50831676

l3.weight f4 [35, 8]
000000 fe 8b 21 c0 9d de 85 3e 24 0d 78 3e 96 9c 71 bf
       -2.5241694 0.26146403 0.24223763 -0.94379556
000010 74 80 0f 3f c2 35 cf be d8 26 b8 bf 47 9f d7 3e
       0.5605538 -0.404707 -1.4386854 0.42113706
000020 c0 8d d8 3c 2b ed 41 3e 9f 78 d9 bf c7 a5 44 bf
       0.02643478 0.18938129 -1.6989936 -0.76815456
000030 c2 2b 58 3e a1 79 01 3e 6e a9 32 3d 6c 27 1b bc
       0.21110442 0.12644054 0.043618612 -0.009469848
000040 6c 50 19 be b2 e3 0d 3f d7 30 4e c0 bf 2b 65 bf
       -0.14972085 0.5542556 -3.221731 -0.89519876
000050 85 af 3d 3c 3e d6 2f 3f f6 ac 05 3e e4 fb af bf
       0.011577492 0.6868628 0.1305426 -1.3748746
000060 ea 41 02 bf 17 aa e4 3e ae 13 ad bf ff a4 27 3c
       -0.50881827 0.44661018 -1.3521631 0.010232209
000070 a6 6b e2 3e 61 e7 81 3e dd 00 d1 bf ab 15 e2 bc
       0.44222754 0.2537184 -1.6328388 -0.027598223
000080 f1 64 2e bf 2b cb 49 bf 51 3e 65 3f 33 9f 96 3e
       -0.68122774 -0.78825635 0.8954821 0.29418334
000090 07 4d 8b 3e 36 40 15 bf ef 01 44 bf 8a 83 40 be
       0.27207205 -0.58301103 -0.7656545 -0.18800178
0000a0 fd 8e ef 3e cb 7f 2e bf 10 fa a6 3d fc ae bd be
       0.4678878 -0.68163747 0.081531644 -0.37047565
0000b0 7b f2 b6 bf ac d3 00 bf c7 01 2f 3f e2 ca 0f bf
       -1.4292749 -0.50322986 0.68362087 -0.5616895
0000c0 a4 c3 5a 3f a6 a0 46 bf a5 24 14 bf e3 e6 7a 3f
       0.85454774 -0.7758888 -0.57868415 0.98008555
0000d0 9e 16 35 3f 50 a8 85 bf 92 a6 29 bf 0a 30 1a bf
       0.70737636 -1.044199 -0.6626979 -0.6022955
0000e0 d0 6b 0a 3f ff 35 bd bf aa 9d e4 3e e6 56 7c 3f
       0.5407076 -1.4782103 0.44651538 0.98570096
0000f0 77 a0 87 bf 22 4e 9b bf 12 77 23 c0 22 6f 01 3f
       -1.0595845 -1.2133219 -2.5541425 0.505602
000100 d3 4c d6 3e be 40 cc be 7d f9 8f be 28 6c 2e c0
       0.41855487 -0.39893144 -0.28120032 -2.7253513
000110 fd 57 19 bf 13 fb fc 3e 71 5c 10 3f 91 6e 69 be
       -0.59899884 0.49410304 0.56391054 -0.22796084
000120 17 a4 6a 3f 1d ee 83 bf 36 1d 32 bf e0 a6 fb be
       0.9165663 -1.0307041 -0.6957582 -0.49150753
000130 6a 74 62 3e 8e 73 84 3e 99 46 c1 be 06 92 b5 3e
       0.22114721 0.2586941 -0.37749174 0.3546297
000140 66 f8 d0 bd c7 f4 e0 3e c7 df 1b c0 37 8f 30 3f
       -0.10203628 0.4393675 -2.4355333 0.6896853
000150 9f 98 11 3f 71 a6 69 bd 86 ca c8 be f3 9c 2e c0
       0.56873506 -0.057043497 -0.39217013 -2.7283294
000160 3f ca d2 bf 06 b7 87 3e b9 2f db 3e 54 af ba 3e
       -1.6467971 0.26506823 0.42809847 0.3646189
000170 0b fd 9e be b5 eb 3e bf 54 df 4b c0 b6 a0 db 3e
       -0.3105243 -0.7457841 -3.1855059 0.4289605
000180 18 6b 2a 3e cd 86 6b 3e 0c b7 d5 be bb 1c 00 3f
       0.16642416 0.23000641 -0.41741216 0.5004384
000190 a7 89 6b 3e e1 d3 19 3e e8 10 55 bf 0c ec a4 bf
       0.23001729 0.15022232 -0.8322892 -1.2884536
0001a0 4c b4 a1 3e 40 17 d0 3e 6b 78 b9 be 49 8b 24 3f
       0.31582868 0.40642738 -0.36224684 0.6427503
0001b0 12 33 b5 3a 76 e2 27 3f a1 9b 40 c0 ee f0 d5 bf
       0.0013824424 0.65579927 -3.0094988 -1.6714151
0001c0 48 5c 49 bf f7 92 fa 3e 81 73 06 c0 ec 4d 58 bf
       -0.78656435 0.4894025 -2.1007998 -0.844939
0001d0 1e aa b8 3e 4a a0 1b bf 76 74 58 3f da ff a9 bf
       0.3606729 -0.60791457 0.84552705 -1.3281205
0001e0 42 e6 13 c0 4b 7e 5a bf c2 b3 85 3d 43 d8 d4 be
       -2.3109288 -0.8534896 0.06528427 -0.41571245
0001f0 86 07 f2 3e 27 88 fd bf 0a de 50 bf 63 e3 80 3f
       0.47271365 -1.9807175 -0.81588805 1.0069393
000200 e9 d8 66 bf eb 13 ea bd e9 d7 00 c0 57 11 d4 be
       -0.9017473 -0.1142958 -2.013178 -0.4141948
000210 67 61 e6 3e 0e b6 c0 bf ab aa 46 3f fe 2c c4 3e
       0.44996187 -1.5055559 0.7760417 0.38315576
000220 67 9f db bf c5 39 d1 3e 46 e8 92 bf d7 b6 cc 3e
       -1.7158021 0.40864387 -1.1477134 0.39983246
000230 b2 17 39 3f ac 2c 5d bf 7f fe 0f bf 4b 29 26 3d
       0.7230178 -0.8639629 -0.56247705 0.040566724
000240 ff 62 38 bf 0c de 15 bf cc ef 93 bb 98 dc c9 bf
       -0.72026056 -0.5854194 -0.00451467 -1.5770445
000250 6b 4b 50 be 92 b2 4c be b7 c3 8b 3e 7a 0b 2b 3f
       -0.2034127 -0.19989994 0.27297756 0.66814387
000260 b5 b5 a1 bf a4 12 88 3e 80 c6 26 bf 2b f8 55 c0
       -1.2633578 0.26576722 -0.65146637 -3.343272
000270 e8 7d 84 3d 77 a9 25 bd 5f 47 47 3f 99 8b e3 bd
       0.06469327 -0.040444817 0.7784328 -0.111106105
000280 46 37 a0 3e 79 b5 23 be 3d 1e 04 bf a1 de 33 3f
       0.3129217 -0.15987195 -0.5160864 0.7026158
000290 32 26 53 be c6 ac 6a c0 b8 02 65 3f 65 a0 7f bf
       -0.20620039 -3.6667953 0.89457273 -0.9985412
0002a0 ff a5 58 3f fb de e8 3d 1d ff ab be 97 ad 2d bf
       0.8462829 0.11370655 -0.33593073 -0.67843
0002b0 46 6d 3f be 78 90 4c 3f e2 ba 73 3e ef ed 62 c0
       -0.18694028 0.7990794 0.23801759 -3.5457723
0002c0 7b 53 d2 3d fd 0f fe 3e 59 dc 15 bf 26 56 5b bf
       0.10269829 0.49621573 -0.5853935 -0.8567833
0002d0 77 43 92 bf 8c 7b d1 3e 41 2d 1c 3d c3 b8 da be
       -1.1426839 0.4091457 0.038129095 -0.42719087
0002e0 fe ae 0b 3f 8e 12 a4 3d 72 1a a5 3e 06 28 f0 3d
       0.5456389 0.080113515 0.3224674 0.11726384
0002f0 d0 81 de bf 77 86 bb 3e 7d 37 e9 be 8f 07 a0 bf
       -1.7383366 0.36626026 -0.45550147 -1.2502307
000300 6c 32 30 bf 63 31 04 be 2d 14 89 3d 83 be 2b be
       -0.6882694 -0.12909465 0.06693301 -0.16771893
000310 dd 08 7e 3e 11 10 8a be 38 1b 21 3f 75 e2 6c bf
       0.24808069 -0.26965383 0.6293216 -0.92533046
000320 f4 92 a3 3e 26 f2 f6 be ad 8c e9 3e 01 43 a6 bf
       0.31948054 -0.4823162 0.4561514 -1.2989198
000330 99 d7 ac bf 9f 00 53 3f ba f4 86 bf 22 b1 fd 3e
       -1.3503295 0.8242282 -1.0543435 0.49549204
000340 3a 1b dd 3e 40 2b 1e bf 3d 98 28 3f 00 9d 9d 3e
       0.43184835 -0.61784744 0.658573 0.30783844
000350 34 91 f0 bf a4 d3 24 3f 81 6e f3 bf ba dc 64 be
       -1.8794312 0.6438544 -1.9018098 -0.22349826
000360 74 14 25 bf 92 e0 09 c0 48 c7 2b 3f 7a af 90 bf
       -0.64484334 -2.1543317 0.67100954 -1.1303551
000370 48 53 3d bf fe 42 ae bf 4d 69 09 3f a0 03 26 3f
       -0.739552 -1.3614194 0.536763 0.6484928
000380 9f ad 2b 3e 9d de 40 c0 f2 23 a1 3e 52 ab 78 3f
       0.1676545 -3.0135872 0.31472737 0.97136414
000390 d7 5a 37 bf 1f dc 71 bf 85 9c 2c 3e f6 34 6f bd
       -0.71622986 -0.94476503 0.16856582 -0.058400117
0003a0 46 81 bc bd 5e 1f 97 bf dc 68 02 3f fc e8 13 c0
       -0.092043445 -1.1806448 0.5094125 -2.3110952
0003b0 ba 02 10 c0 5a f5 06 3f cd 01 55 3f fd 8a 9f bf
       -2.2501664 0.52718127 0.8320587 -1.2464291
0003c0 43 b7 8b bf 76 4d 1d 3f 95 4c 06 3f 44 a2 2f c0
       -1.0915302 0.6144632 0.52460605 -2.744279
0003d0 3f 8a bc be 77 b6 97 3e 5e 04 b5 3e 4b 6e 02 c0
       -0.36824223 0.29631397 0.35354894 -2.0379817
0003e0 6f a9 30 bf 2a c7 37 3d 70 dc 5c be bb 5f a6 be
       -0.69008535 0.044867672 -0.21568465 -0.32494912
0003f0 c0 27 53 bd 79 da 81 3e 83 66 31 bf c7 30 8a 3e
       -0.05155158 0.25361994 -0.69297045 0.2699034

l3.bias f4 [35]
000000 f3 be 80 be e9 6f 22 bf 97 df 5e be 70 40 f7 bd
       -0.25145683 -0.6345201 -0.2176498 -0.12072837
000010 9a 45 a3 3e 00 ef 02 bf 84 36 00 3c 68 ed 61 3e
       0.3188904 -0.51145935 0.007825498 0.2206322
000020 2c 7f a6 be d4 80 c2 be b2 83 5a be 3e 73 02 3e
       -0.325189 -0.37988913 -0.213393 0.12739274
000030 0c 4b 36 bf b3 3e 71 3d f5 5a b3 3d b6 9b 3a be
       -0.7120826 0.058897685 0.08757583 -0.18223462
000040 c3 a4 43 3d 85 20 59 3e 17 a7 fa be 67 6b 91 be
       0.04776455 0.21203811 -0.48955604 -0.28402254
000050 9b 69 9b 3c 75 51 05 3f 1f 35 36 bf 5d 4b 16 be
       0.018971255 0.5207742 -0.71174806 -0.14677186
000060 fd 14 20 3f 7b 16 fd be 75 44 be bd 54 5c 36 3e
       0.62532026 -0.49431214 -0.09290401 0.17808658
000070 24 39 e6 3e b7 69 fa 3d 24 39 96 3e 0a d5 43 bf
       0.4496547 0.12227195 0.2934047 -0.76496947
000080 de 11 dd be 82 e8 5b bd 45 ec 11 3e
       -0.43177694 -0.053688534 0.14250286
