src/data.pth (torch, 10079 bytes, 6 tensors)

l1.weight f4 [8, 120]
000000 c2 0e ad bd 47 48 1e 3e 57 99 b0 3e 2f 53 af 3f
       -0.084500805 0.15457259 0.3449199 1.3697261
000010 8d 7f 45 3f b4 2d 9f be dc e2 94 3f ee 13 6d 3f
       0.7714775 -0.31089556 1.1631732 0.92608535
000020 95 36 4b 3f c6 ee 12 bf 04 b9 11 3e d3 1c f2 3e
       0.7938016 -0.5739559 0.14230734 0.47287616
000030 83 5b df 3f 25 86 a9 3f dd da ba 3f d5 a4 62 3f
       1.7449802 1.3244063 1.4598042 0.88532764
000040 78 9a 17 be 0d 67 78 bf 03 00 58 bd 1d 71 11 bf
       -0.14805019 -0.97032243 -0.052734386 -0.5681322
000050 82 dd 78 bf 90 c1 c8 3e ab 6e c1 3f 47 94 2c bf
       -0.97212994 0.39210176 1.5111898 -0.67413753
000060 b0 1e 06 3f 2b 3e f2 3f 59 94 46 3f 49 12 46 3f
       0.52390575 1.8925222 0.7757011 0.7737165
000070 ba 7a 4a 3f 07 ea 8a bf 01 7e 7c be 9f d4 2e 3f
       0.79093516 -1.085267 -0.24657442 0.68293184
000080 c4 ae 85 3f 94 ac 64 3f 18 4e 61 be 74 04 4c be
       1.0443959 0.89325833 -0.22002447 -0.19923574
000090 97 0a 8f 3f 47 cc a6 3f dd 4e 5d be 63 08 8b bf
       1.1175107 1.303109 -0.21612115 -1.0861934
0000a0 3a 32 65 3e bb 46 c4 3f 4a 0d 05 bf cf 8a c0 3f
       0.22382441 1.5334085 -0.519734 1.5042361
0000b0 60 d0 5e 3f e1 32 45 bf 38 fd db 3f c2 68 8c bf
       0.87036705 -0.7703076 1.7186651 -1.096947
0000c0 c3 09 cd 3f 33 04 d8 3f a8 60 dc 3f 29 2e 4d bf
       1.6018604 1.6876281 1.7216997 -0.8014856
0000d0 42 cb 44 3f 32 b3 f3 3e aa d8 d8 3f ef fc 5e 3f
       0.76872647 0.47597653 1.6941121 0.87104696
0000e0 ce 82 0c bc 57 12 24 bf 1e 3e 63 3e 37 f9 2e 40
       -0.008576108 -0.64090484 0.22191665 2.7339609
0000f0 57 a0 2c be ce b6 5e 3f 50 2c 45 3f 45 7d cd 3f
       -0.1685804 0.8699769 0.7702074 1.6053854
000100 1a f4 e1 3d fe 82 fb 3f 55 01 bb 3f d4 d1 b8 3f
       0.11032887 1.9649351 1.4609782 1.4439034
000110 ef 69 79 3f 91 fc c4 bf 6e aa 32 3f 92 5f 91 3e
       0.97427267 -1.5389577 0.69791305 0.28393227
000120 a5 dd d6 3c 14 56 18 3f 8b 4f 6c bf 74 4e 3a be
       0.026228735 0.59506345 -0.9230887 -0.1819399
000130 9b 6e f7 3f 0c bc b0 3e 15 0a 7d 3f 50 0d 4f 3f
       1.9330629 0.34518468 0.9884351 0.8087969
000140 89 e6 d1 3e 50 b9 7d be d6 ea 3d 3f 9b 79 5c 3f
       0.40996197 -0.24777722 0.74186456 0.86123055
000150 29 80 53 3f 20 51 b5 3f 48 d6 91 3d d9 e9 d6 3d
       0.8261743 1.4165382 0.07120949 0.10493822
000160 95 e7 d0 be e2 72 56 3f 90 85 23 bf f3 47 6a 3e
       -0.40801683 0.8376905 -0.63875675 0.22879009
000170 04 9f cb bf 1f a1 ce bd bc 75 9f 3f 74 25 a4 3f
       -1.5907903 -0.10089325 1.2457805 1.282393
000180 69 39 2e 3f 88 3b 8d 3f 8e a5 f5 bf 62 92 ac bd
       0.6805635 1.1033792 -1.9191148 -0.08426358
000190 1d 15 23 be ef fe f0 3e ca 8b 09 bf 4f cc 07 3e
       -0.15926023 0.470695 -0.53728926 0.13261531
0001a0 16 a7 d9 3e 0c e0 ff 3e b0 31 5d 3e ff 12 bc be
       0.4251029 0.49975622 0.21600986 -0.36733243
0001b0 f6 fb 4b 3d 2e 95 4f be f6 a0 21 40 f6 04 0a be
       0.049800836 -0.20271751 2.5254493 -0.13478455
0001c0 fc 33 69 bf 0a d3 c2 be ad c5 a0 3e 06 0a 7f 3f
       -0.91094947 -0.38051635 0.31400815 0.9962467
0001d0 2d 55 a4 be d9 d6 83 be c6 a6 9b 3e 55 00 75 3f
       -0.32096234 -0.25749853 0.30400676 0.9570363
0001e0 fb 91 5c 3f 43 61 b5 3f df 0c 40 3f f1 1a 54 bd
       0.8616025 1.4170307 0.7501964 -0.051783506
0001f0 bb 81 1f 3f 77 1e c1 be 87 1b 86 3f 73 5e dd 3e
       0.6230733 -0.37718555 1.0477151 0.43236122
000200 38 77 0f 3d 71 35 97 3e b1 f4 29 3f 8f ae 99 be
       0.035025805 0.2953296 0.66388994 -0.3001599
000210 9f 1d 0c 3f d4 e8 3d bf 2b 7b 68 bf 7e d3 36 bf
       0.547327 -0.7418339 -0.9081294 -0.7141646
000220 21 1c f6 3e d6 c7 51 3e 05 3e 64 3f 74 71 86 3f
       0.48068336 0.20486388 0.89157134 1.0503373
000230 5a e7 4c 3e 03 04 4d 3f e1 29 a3 bf 03 ca fb 3e
       0.20010129 0.80084246 -1.2747155 0.4917756
000240 2c c0 5b 3e 8f e5 2d bf 16 0b b8 3e 8f e8 19 3f
       0.21460027 -0.67928404 0.35945958 0.6012048
000250 0f fb 4b 3f bd 46 44 3f 57 17 eb 3e 9d 78 09 3f
       0.7967996 0.7667044 0.45916244 0.53699666
000260 e5 e7 2f 3f c5 52 33 3d 2b 3d 17 3f 1e be 82 3e
       0.6871322 0.043780107 0.5907771 0.25535673
000270 a9 15 14 bf aa c2 1a 3f 17 bd 16 bf 4c 1f 3d 3f
       -0.5784555 0.60453284 -0.5888228 0.7387588
000280 ae 4e 33 3f 75 a7 14 bf d7 39 7d 3f b4 00 f5 be
       0.7004193 -0.5806802 0.9891638 -0.478521
000290 46 07 18 3d 5c 37 15 bf 09 26 02 bf 10 f8 05 40
       0.03711631 -0.58287597 -0.5083929 2.0932655
0002a0 8e b7 28 bf ad 59 0e bf b6 e7 a3 3f 59 d2 f2 be
       -0.6590508 -0.55605584 1.2805088 -0.47426108
0002b0 00 ff 1d 3f 9d 5f 70 be 4e 81 2b 3f 58 2a 56 bf
       0.61717224 -0.23473974 0.6699418 -0.8365836
0002c0 7a 33 41 3f da b4 88 3f 00 4b 69 3f e7 7e 9c 3f
       0.7546917 1.0680192 0.91130066 1.2226228
0002d0 99 82 05 40 6e df 5a be f6 eb e8 3f 9f a5 9f 3f
       2.086096 -0.21374294 1.819701 1.2472419
0002e0 ba ab db 3e 98 42 1d bf 9d f4 a5 3f e5 ec 82 bc
       0.42904454 -0.6142974 1.2965275 -0.0159821
0002f0 ae ed 58 bf 6f 43 87 3f ba 63 9f 3c 4a a6 8d 3e
       -0.8473767 1.0567454 0.019456733 0.2766593
000300 2b db c5 be 1e 22 0a 3f fa 03 7e 3e 0c ba 1f 3e
       -0.38643774 0.5395831 0.24806204 0.15598315
000310 00 f8 97 bf f8 ab dc 3f 63 e0 ce 3e 62 a4 e3 3f
       -1.1872559 1.7239981 0.40405568 1.7784541
000320 3c d0 52 3f c5 0a 23 3f 7a 61 6d be 5e 8e 1d be
       0.8234899 0.6368831 -0.23181716 -0.1538634
000330 af 47 6e 3e 1f 23 67 3f 45 29 36 3f 61 be 3b 3f
       0.23269533 0.90287966 0.7115672 0.7333737
000340 f2 b3 b3 be 82 5d 4d 3d 5f a3 80 3f 07 f0 66 3f
       -0.35098225 0.050138004 1.0049857 0.9021
000350 50 09 14 3f c4 9a 3b 3e c2 dd 84 bf 81 7e 0c bf
       0.5782671 0.18320757 -1.0380175 -0.5488053
000360 51 40 e9 3e a2 e5 35 3e b1 ec 0a 40 0f c7 30 3f
       0.45556882 0.17763379 2.1706965 0.6905374
000370 eb d6 6c 3f 24 eb a8 be 05 1a 02 3f bb b5 a5 3e
       0.9251544 -0.32991898 0.5082095 0.32365212
000380 74 4a 23 40 28 98 4e 3f 5a 32 d6 3f 0b b5 5f be
       2.5514193 0.8070092 1.6734116 -0.21846406
000390 dc c8 a7 be 97 ca 1f 3e 0e 55 ea 3e 8c 89 32 3f
       -0.3277043 0.15604626 0.45768017 0.6974113
0003a0 a1 e2 c8 3f 53 a2 a4 be 4c cb 3c be b2 29 13 3f
       1.5694162 -0.32155094 -0.18436927 0.57485497
0003b0 5d fd 17 bf 65 d7 24 bf 4d a3 5f 3f c0 6c 24 bf
       -0.59370977 -0.64391166 0.8735855 -0.6422844
0003c0 cb 92 0c be da 2f 03 3f 1d e0 5e 3e ab e2 4a 3e
       -0.13727872 0.5124489 0.2176518 0.1981303
0003d0 cb 73 4b 3f a0 8c 96 3e f4 f8 37 3f 21 b5 ca 3e
       0.7947356 0.29404163 0.7186425 0.39591315
0003e0 a3 2c b1 3e 7d a5 bc 3e 50 4a 2b 3e a1 30 5f 3e
       0.34604368 0.36845008 0.16727567 0.21795894
0003f0 6b f4 c5 3e 67 55 8b be fb 2a c0 3f b9 de 87 3f
       0.3866304 -0.27213594 1.5013117 1.0614845

l1.bias f4 [8]
000000 bf 71 d3 3f 28 13 da 3f 89 9c 22 40 f2 5f 05 40
       1.6519088 1.7037096 2.5408041 2.083981
000010 ef 3a d8 3f 08 5f 01 40 8e 2f cb 3f 5d e9 b8 3f
       1.6892985 2.0214252 1.5873888 1.4446217

l2.weight f4 [8, 8]
000000 16 5e bf be 4c b2 dd 3f 0a e5 99 bb 42 66 8f 3f
       -0.3737647 1.7320037 -0.004696493 1.1203082
000010 dd ce 6d bf e4 6c d9 3d ff d3 82 40 17 69 70 40
       -0.92893773 0.10616472 4.0883784 3.7564142
000020 e6 44 21 40 a9 b8 25 40 7c b3 ae 3f 38 5a fe bf
       2.5198302 2.5893958 1.3648524 -1.9871283
000030 86 4f 70 40 11 6e 65 be 87 28 35 40 67 32 1b 40
       3.7548537 -0.22405268 2.8305986 2.4249513
000040 99 b2 d9 bf 52 0d 61 3f 63 a1 e5 3f 05 81 8b 3f
       -1.7007629 0.8791095 1.7939876 1.0898749
000050 39 59 30 40 06 7e 84 3f 40 0c a3 3f 16 8e 69 3f
       2.7554457 1.0350959 1.2738113 0.9123243
000060 16 b8 62 be 33 9c b2 bb 3f db dd bd 64 87 cf bd
       -0.22140536 -0.0054507493 -0.108328335 -0.101332456
000070 5c 75 dd be 12 b0 78 be a5 4d 2a 3e 30 30 70 3e
       -0.432536 -0.24285915 0.16631182 0.23455882
000080 f4 bb 16 40 d1 12 9f bf c4 8d 24 40 33 0a 06 40
       2.3552217 -1.2427617 2.5711527 2.0943725
000090 d3 b3 08 40 a2 71 eb bf e8 7f 24 bd ca 3e 2f 40
       2.1359756 -1.8394053 -0.040161043 2.7382073
0000a0 1f 89 ad bf ec 1d 31 40 39 53 17 3f 7b ac 3f 40
       -1.3557471 2.7674513 0.5911136 2.9949024
0000b0 b7 bd 20 40 84 c3 fc bd bc 08 50 3f bb 85 12 3f
       2.5115793 -0.12341979 0.8126333 0.57235307
0000c0 33 e2 19 40 bf 8a 45 40 b4 76 47 bf 97 c3 43 40
       2.404431 3.0865934 -0.779155 3.0588129
0000d0 5b d5 7a bd a4 07 15 3f e3 cf e6 3e 89 80 9a 3f
       -0.061238628 0.58214784 0.4508048 1.2070476
0000e0 da 53 b7 3f 89 6d 8e 3f 71 37 7b 40 9f a9 04 40
       1.4322464 1.1127177 3.9252589 2.0728528
0000f0 64 a1 02 bf 70 3c 9d 40 59 46 3a 3f 65 a8 17 bf
       -0.5102751 4.9136276 0.7276359 -0.59241325

l2.bias f4 [8]
000000 5f 16 38 3f 1c b8 57 3f f3 1c 1f 3f 62 1d cd be
       0.71909136 0.84265304 0.6215355 -0.4006148
000010 e5 67 38 3f 2f e6 f4 be fd 4c a2 3f 49 ca 0c 40
       0.7203353 -0.47831866 1.2679745 2.1998465

l3.weight f4 [39, 8]
000000 67 e9 00 3e 00 06 ec be c5 1a b3 3e a2 d6 84 be
       0.12589036 -0.46098328 0.3498136 -0.25945002
000010 a2 bf 5b bf ea 65 65 3f 3f 1c 1c c0 c4 36 c4 bf
       -0.85839283 0.89608634 -2.439224 -1.5329213
000020 42 cd 97 bc 74 10 2e 3d fb df 38 3e 87 08 28 3e
       -0.018530492 0.04249616 0.18054192 0.16409503
000030 95 40 b9 bf dc d6 14 3f 89 81 26 bf c9 9a 31 c0
       -1.4472834 0.5814035 -0.65041405 -2.7750723
000040 c3 b3 df 3e a2 a9 28 3f 7c 4e 1d c0 2b ab 82 3c
       0.43691835 0.6588384 -2.4579153 0.01595076
000050 4e fa 79 bf 69 a2 be be 18 1c 2f be 0b 1e 3c c0
       -0.9764756 -0.37233284 -0.1710056 -2.9393337
000060 49 2f 26 bf f9 8a 46 3e c3 09 6a bf 32 c3 a2 be
       -0.649159 0.19388951 -0.91421145 -0.31789547
000070 29 a9 7f bf 8f ae 08 c0 4f 9c 35 bf 1f e8 d7 bd
       -0.9986749 -2.1356542 -0.70941633 -0.105423205
000080 d7 26 07 bf 56 81 ce be 0b ae 12 c0 49 52 cf be
       -0.5279364 -0.4033305 -2.2918727 -0.40492466
000090 d3 0c cb 3e f0 c6 85 be a3 5c ac 3c cb 2e 07 c0
       0.39658222 -0.2612834 0.021040266 -2.112231
0000a0 59 38 50 3f 42 ae 23 3e d9 da ff bf ba 6e 9b be
       0.8133598 0.15984443 -1.9988662 -0.30357915
0000b0 87 ec 79 bf 71 40 09 c0 ab d4 0c bf ae cf 8f bf
       -0.9762654 -2.1445582 -0.55012006 -1.1235254
0000c0 3a f6 77 bf 0e 10 4c bf 7f 82 02 bf 0a 81 67 3e
       -0.96860087 -0.79712 -0.5098037 0.22607818
0000d0 41 66 30 3f 26 c0 a3 bf f9 2a 59 bf bc 86 50 bf
       0.6890603 -1.2793014 -0.84831196 -0.8145559
0000e0 e8 c7 b2 bf 09 12 19 c0 53 09 03 be 51 d4 c8 be
       -1.3967257 -2.3917258 -0.12796526 -0.39224485
0000f0 12 27 8d bf e7 c0 f1 3d 86 a2 1a be a8 a8 b7 3e
       -1.1027548 0.11804371 -0.1510106 0.35870862
000100 25 2a bf 3d 64 0b b1 3e 3c 2c 44 bf 29 61 3d 3e
       0.0933421 0.34579003 -0.76629996 0.18494095
000110 4e 0f 59 3e ea e8 57 c0 4f 25 dd bf c2 9f 31 bf
       0.21197245 -3.373591 -1.7277011 -0.69384396
000120 32 51 71 3d b2 58 e4 3b a4 8b 03 bf f1 17 42 3e
       0.058915325 0.006968581 -0.5138495 0.18954445
000130 dd 13 32 bf c0 ed 98 be b6 84 bb bf de 24 a7 bf
       -0.6956156 -0.2986889 -1.4649875 -1.3058126
000140 6e 00 e7 bf 66 52 d9 bf 34 a8 79 3f 18 ce 74 3e
       -1.8047006 -1.6978271 0.9752228 0.23906744
000150 5a 2a 02 c0 e6 0a 91 3e ba 8b bd bf c2 e4 41 3f
       -2.033835 0.28328627 -1.4808266 0.7573968
000160 5c bd 3e 3f db 23 de bf 2f 61 17 3d 3f 6c 97 be
       0.7450769 -1.7354692 0.036957916 -0.29574773
000170 a8 f3 25 c0 55 5d a2 bd 39 be 85 bf c3 7d 5a 3e
       -2.5929966 -0.07927958 -1.0448676 0.21337037
000180 74 6f 59 bf 41 a7 0d bf 03 13 ad bf 32 8d 00 be
       -0.8493569 -0.55333334 -1.3521427 -0.12553862
000190 1e ab 8d bf 00 79 41 3e f5 5f 91 3d e4 68 80 bf
       -1.1067846 0.18893814 0.070983805 -1.003201
0001a0 e2 2f 8e 3e 09 de b6 3d 64 9d d2 bf c1 30 db be
       0.27770907 0.089290686 -1.6454282 -0.42810634
0001b0 16 3e 3e c0 99 48 aa 3e 8a 14 ca 3e 05 83 de bf
       -2.9725394 0.33258513 0.39468795 -1.7383734
0001c0 db 3b 97 bf 1d 17 4e 3e 12 60 04 bf 70 f0 c7 be
       -1.1815141 0.20126005 -0.5170909 -0.39050627
0001d0 21 69 73 c0 6c ad df 3d 39 93 02 bf fc 30 7b 3e
       -3.8032916 0.109217495 -0.51005894 0.24530405
0001e0 b7 09 b9 3e 51 12 9d bd 6b 05 36 bf b2 e2 b5 be
       0.36140224 -0.07669509 -0.7110202 -0.35524517
0001f0 98 3e 2c c0 1c ba bf be 32 31 3a bf ab 95 17 bf
       -2.6913204 -0.37446678 -0.72731316 -0.5921275
000200 15 60 de be 24 4e ef bf 84 1d 37 c0 46 e1 11 3d
       -0.4343268 -1.8695722 -2.8611765 0.035615228
000210 0e 0a 0e c0 25 8f 44 bd 11 a4 76 3f 3b 8f d4 3e
       -2.2193637 -0.047988076 0.96344095 0.41515526
000220 82 5c 1b 3e 23 16 3d 3d 09 98 41 c0 ee 26 a7 bb
       0.15172008 0.04616369 -3.0249045 -0.0051010763
000230 32 f6 7a c0 a6 20 dd be 2b 0a 20 3f fa 09 90 be
       -3.9212766 -0.4318897 0.62515515 -0.28132612
000240 80 3f 8d bf db ad 0f bf 32 aa d1 bd 0f c1 a7 be
       -1.1035004 -0.5612466 -0.1023754 -0.3276448
000250 c1 d9 4e c0 a9 d1 28 c0 7c 30 f7 be 1d 26 9a 3f
       -3.2320406 -2.6377966 -0.48279178 1.2042881
000260 3b 02 14 3f 56 7f 21 be 8a ea 36 bf 86 2d 73 3e
       0.57815903 -0.15771231 -0.7145163 0.23747835
000270 ed 16 48 c0 da 76 48 c0 1c 90 b0 be 24 42 a0 3e
       -3.1263993 -3.1322541 -0.34484947 0.3130046
000280 5a 60 21 3f 1d bd 29 3e b2 f8 10 3e c7 68 b5 3d
       0.63037646 0.16576047 0.1415737 0.08857875
000290 b0 13 8b 3e 75 c2 3b bf 44 8d 18 c0 2a 98 37 c0
       0.27163458 -0.7334359 -2.3836222 -2.8686624
0002a0 af b5 1c c0 03 78 6a bd 80 c7 47 c0 dd 83 69 be
       -2.448589 -0.05724336 -3.1215515 -0.22804208
0002b0 c4 26 92 bf 78 8b 0f c0 35 03 43 3f e9 69 bc 3e
       -1.141808 -2.2428875 0.7617677 0.36799553
0002c0 75 ec 92 3e 16 f5 6c bf 02 ff 45 c0 71 ca 63 be
       0.28696027 -0.9256147 -3.0936894 -0.22245194
0002d0 dc 6f 6f bf b5 87 0d bf 07 75 9b 3d fb 17 d4 be
       -0.9353006 -0.552852 0.075906806 -0.41424546
0002e0 55 7c 21 c0 3f cb 32 c0 74 5c a3 3e 2b a6 c6 be
       -2.5232136 -2.7936552 0.31906474 -0.3879865
0002f0 68 f1 25 bf b6 f3 02 c0 27 80 bd 3e 32 5d 6c 3f
       -0.6482148 -2.046125 0.37011835 0.92329705
000300 17 07 f5 3e 8e a2 57 c0 fc 9a 55 be 12 df e1 3d
       0.47856972 -3.3692966 -0.20859903 0.110288754
000310 c0 07 96 c0 31 1e 20 3d 3d c3 1e 3f e4 ce 26 3f
       -4.688446 0.039091293 0.6201666 0.6515944
000320 58 0a 0e bf 2b d6 01 c0 6d 7a aa bf b7 95 57 be
       -0.55484533 -2.0286968 -1.3318611 -0.21053205
000330 e2 d5 54 3d 3e 7d ba bf 6b 13 8b bd 8b 3a 88 3e
       0.051961787 -1.4569471 -0.06790813 0.26607165
000340 ad 6a 36 c0 4b cf 09 3e 40 b0 f1 bf 5e 82 74 3e
       -2.850261 0.13457982 -1.8881912 0.23877856
000350 39 44 43 3f 5d 75 2b c0 95 2f b8 3e c9 12 2c bf
       0.76275975 -2.6790383 0.35973802 -0.67216164
000360 67 23 5c bf 6b 8d 38 bf ca 6a 04 3f 78 70 2a 3e
       -0.8599152 -0.72090787 0.5172545 0.16644466
000370 5e b0 87 bf 4e ff 23 bf 0b bf 9d bf e7 06 ec bc
       -1.0600698 -0.6406144 -1.2323927 -0.028811885
000380 a7 35 85 bf 11 6f dd 3e 78 72 fa be c7 b6 90 be
       -1.0406998 0.432488 -0.48915458 -0.28264448
000390 fe 56 18 3f 78 bd 34 bf 06 57 b7 bf 6c 98 16 c0
       0.5950774 -0.70601606 -1.4323432 -2.353053
0003a0 12 35 fc bf 20 f9 01 3f 11 2e ee 3d b1 6b ca be
       -1.9703696 0.5077076 0.1162988 -0.39535287
0003b0 64 29 45 be b5 66 3f bd fb 98 23 c0 54 8c 32 bf
       -0.1925407 -0.04672881 -2.5562122 -0.69745374
0003c0 3e d4 79 c0 2a f4 9d bc e9 12 9a bd 35 a2 b6 3c
       -3.9035792 -0.019281466 -0.07523138 0.022294143
0003d0 24 8f f6 3c 4b 44 16 bf 88 eb 07 c0 40 37 3b 3f
       0.030097552 -0.58697957 -2.1237507 0.7313118
0003e0 3a 29 e9 be 19 4f a7 bf ec 78 cb 3e fc 29 a0 3d
       -0.45539266 -1.3071014 0.39740694 0.07820508
0003f0 d8 95 e1 bf b3 e3 34 3f a9 69 85 be 66 09 90 bf
       -1.7623854 0.7065994 -0.26057175 -1.1252868

l3.bias f4 [39]
000000 a0 bd f0 be ed 8e 90 3d d8 bb e2 bd e1 c2 5e be
       -0.47019672 0.07058511 -0.110709846 -0.21754028
000010 66 d0 b3 3e a8 bf 7d 3e da ed 1c 3e cd 6a 73 bf
       0.35119933 0.24780142 0.15325108 -0.9508484
000020 2b 0c c0 bd 26 67 13 bf 25 7d 5b be 5c 4f 6d bf
       -0.09377321 -0.5757927 -0.21434458 -0.9269922
000030 f6 44 10 bf be 32 78 be bb 7d 13 3e 1b 85 a5 bd
       -0.56355226 -0.24238107 0.14403431 -0.080820285
000040 3a db 77 be 59 6c aa 3e 29 db c7 bd 37 fe f8 3e
       -0.24204722 0.33285788 -0.09758598 0.4863145
000050 d3 53 42 3e cb f3 2a 3f 6e 04 35 3e aa 6d aa 3e
       0.18977289 0.6677825 0.17677471 0.33286792
000060 97 99 d0 3e 81 a2 ae 3e 15 bc cd be 96 8c 28 3f
       0.4074218 0.34108356 -0.40182558 0.6583952
000070 37 a1 02 bf e1 fb 86 be 6f d4 05 3e af 96 85 be
       -0.51027244 -0.26364043 0.13069318 -0.26091525
000080 e5 c6 96 be e5 0e af be 71 da eb 3e fd 19 20 bd
       -0.2944862 -0.3419105 0.46065095 -0.039087284
000090 ac 5f 87 be 17 00 80 3e 9c 50 2a 3e
       -0.2644018 0.2500007 0.16632313
