src/data.pth (torch, 5023 bytes, 6 tensors)

l1.weight f4 [8, 49]
0	0xbe88a55f	-0.26688668
1	0x3da59452	0.080849305
2	0x3e760d88	0.240286
3	0x3ee5bdb3	0.44871292
4	0xbef728b2	-0.48273236
5	0xbf0d2fed	-0.55151254
6	0x3da1ef49	0.07906968
7	0xbf314de7	-0.69259495
8	0xbe1620e4	-0.14660984
9	0x3dbca267	0.09210663
10	0xbead7252	-0.33876282
11	0x3e5b9503	0.21443562
12	0x3ec3d1fb	0.3824614
13	0x3db6c374	0.089239985
14	0x3f0c3fbb	0.54784745
15	0x3e995e3a	0.29954702
16	0xbeb5368d	-0.3539318
17	0xbf2a5ed5	-0.6655095
18	0xbf31588f	-0.69275755
19	0xbe9775a1	-0.2958193
20	0xbf3152db	-0.6926705
21	0xbf31aa4b	-0.6940047
22	0xbe99c52c	-0.30033243
23	0x3ef2d4c4	0.47427952
24	0x3e116955	0.14200337
25	0x3e689220	0.22711992
26	0x3c18d91f	0.009329109
27	0x3e8cca3b	0.2749804
28	0xbe09f99e	-0.13474128
29	0x3ee13373	0.43984565
30	0x3e884892	0.26617867
31	0xbe4eadfe	-0.2018356
32	0xbe1ec160	-0.15503454
33	0x3e8c52c8	0.27406907
34	0x3d9f3a86	0.07774834
35	0x3ee424e4	0.44559395
36	0x3f005f2d	0.50145227
37	0xbe68c76f	-0.22732328
38	0x3f003dd5	0.5009435
39	0xbf314edb	-0.6926095
40	0xbe055bad	-0.13023253
41	0xbebc7a05	-0.36811844
42	0x3e93d4e2	0.28873354
43	0x3ee52cd1	0.44760755
44	0x3f0a7518	0.5408492
45	0x3ec56e2d	0.3856062
46	0xbee31a40	-0.44355965
47	0xbe61840e	-0.22023031
48	0xbef33284	-0.47499478
49	0xbc8a5578	-0.016886458
50	0xba74b700	-0.00093351305
51	0x3ce3f130	0.027824968
52	0x3d980a80	0.07423878
53	0x3bcdac60	0.006276652
54	0x3d20a8d4	0.039223507
55	0xbd360f92	-0.044448443
56	0x3d711888	0.058861285
57	0x3d45d5ba	0.04829953
58	0x3d97524e	0.07388745
59	0x3dc1b0c8	0.094575465
60	0xbd0c322a	-0.034227528
61	0xbc3140d0	-0.010818675
62	0x3ca5d6b0	0.020243973
63	0xbdcaeacc	-0.09908065
64	0xbd95c6ca	-0.07313307
65	0xbdfb739e	-0.122779116
66	0x3d99a24e	0.0750166
67	0xbc93d154	-0.018044151
68	0x3d49d6fd	0.049277294
69	0xbbaec860	-0.005333945
70	0x3ab94980	0.0014136285
71	0x3ddc2d1a	0.1075079
72	0xb9b7a5d9	-0.00035028046
73	0xbdffd788	-0.12492281
74	0xbdee7b68	-0.116446316
75	0xbdd363fc	-0.10321805
76	0xba4a6800	-0.00077211857
77	0xbd52513c	-0.051347002
78	0x3d327b38	0.04357454
79	0xbd343f58	-0.04400572
80	0x3d9b8167	0.07593041
81	0x3c92dff1	0.01792905
82	0x3df1b1d2	0.11801495
83	0x3da93dbc	0.08263728
84	0xbdde5dda	-0.108577445
85	0xbdeed565	-0.116617955
86	0x3da77cf0	0.08178127
87	0x3da08bae	0.07839142
88	0x3dd51800	0.10404968
89	0x3d69e5b9	0.057103846
90	0x3e100051	0.1406262
91	0xbe02c91e	-0.12772033
92	0xbc55ec00	-0.013056755
93	0xbe05c31c	-0.1306271
94	0xbd97773e	-0.073957905
95	0x3de6a5d2	0.112620965
96	0xbd077a75	-0.03307577
97	0xbd7882aa	-0.060671486
98	0x3d9f60ea	0.07782157
99	0xbddcc6d5	-0.10780112
100	0x3eab831b	0.33498463
101	0xbdf0e727	-0.11762839
102	0xbf1e35a0	-0.61800575
103	0x3f30b764	0.6902983
104	0x3eedc9f1	0.46443132
105	0xbeed525a	-0.46351892
106	0xbe105014	-0.14093047
107	0xbea40a98	-0.32039332
108	0x3ed67a27	0.4189007
109	0x3f054b47	0.5206799
110	0x3ee2008f	0.4414105
111	0xbd17538e	-0.03694492
112	0xbe409960	-0.18808508
113	0x3ed34e6d	0.41270772
114	0x3ef79b91	0.48360875
115	0xbeed4efe	-0.4634933
116	0x3f2c3ad6	0.67277277
117	0xbcf78739	-0.030215846
118	0x3f2ce249	0.67532784
119	0x3f4e8ffd	0.8068846
120	0x3ee6d7b3	0.4508644
121	0x3cf82186	0.030289423
122	0x3ee60477	0.4492528
123	0xbdb3c75c	-0.08778259
124	0xbeadb3ed	-0.33926335
125	0xbe87d22d	-0.2652754
126	0xbde3ef89	-0.11129672
127	0x3efd8ded	0.49522343
128	0xbeef9279	-0.46791437
129	0xbbf51df7	-0.0074803787
130	0xbc27a273	-0.010231602
131	0x3f266d85	0.65010864
132	0xbdd35899	-0.10319633
133	0x3ddbf212	0.107395306
134	0xbc857ff3	-0.016296363
135	0xbe8edb1a	-0.27901536
136	0x3d6b2f59	0.0574182
137	0x3c46bc5c	0.012129869
138	0xbdfc3299	-0.12314338
139	0x3f162c80	0.5866165
140	0x3e89d4b9	0.26920107
141	0xbe58ffe3	-0.21191363
142	0x3e34d001	0.17657472
143	0x3ee4398b	0.44575152
144	0xbddfd1bf	-0.10928678
145	0xbe586f17	-0.21136127
146	0x3e1fe16a	0.15613332
147	0xbe91fb2d	-0.28511944
148	0xbd5afddb	-0.05346475
149	0xbd229503	-0.03969289
150	0x3ee5ba7f	0.44868848
151	0xbe8dfaaf	-0.2773032
152	0x3eb590e4	0.35462105
153	0xbf09c401	-0.53814703
154	0xbf14b2de	-0.5808543
155	0xbed76680	-0.4207039
156	0xbe184992	-0.14871815
157	0x3ed3bfe7	0.41357347
158	0xbdd86167	-0.10565453
159	0xbe0e2623	-0.13881736
160	0xbea8ba2b	-0.32954535
161	0x3f00ce6e	0.50314987
162	0xbe895b23	-0.26827344
163	0x3ef82884	0.4846841
164	0xbf177cf6	-0.5917505
165	0x3ed68240	0.41896248
166	0xbe365bbf	-0.17808436
167	0x3f081919	0.53163296
168	0x3eb29895	0.34882036
169	0x3f0c09bb	0.5470235
170	0x3ed23706	0.41057605
171	0xbee1a675	-0.4407231
172	0x3f4642df	0.7744579
173	0xbdbfa640	-0.093578815
174	0x3ec75269	0.3893006
175	0xbd22e023	-0.039764535
176	0xbd33a0f7	-0.04385468
177	0xbd8ffeac	-0.07030997
178	0xbe9f61ef	-0.31129405
179	0xbe6ebc6b	-0.23314063
180	0xbe0b2b98	-0.13590848
181	0x3e1705b0	0.14748263
182	0x3e45a6a3	0.19301848
183	0x3e900daa	0.28135425
184	0xbe3d088a	-0.18460289
185	0x3efad795	0.489926
186	0xbf41a0b7	-0.75635856
187	0xbed28b26	-0.41121787
188	0x3e76a578	0.24086559
189	0xbe0e4793	-0.13894491
190	0x3f0195a3	0.5061895
191	0x3e84f3a0	0.2596712
192	0xbe96bef0	-0.2944255
193	0xbe29967a	-0.16561309
194	0xbe998919	-0.2998741
195	0xbe049de7	-0.1295086
196	0x3f1ca057	0.6118216
197	0x3e6e55fd	0.2327499
198	0x3eba436e	0.3637957
199	0x3e476d68	0.19475329
200	0x3f2ae6b0	0.6675825
201	0xbdf8b811	-0.12144483
202	0x3e8ace76	0.27110642
203	0xbf4330e2	-0.76246464
204	0x3eb1660f	0.34648177
205	0x3f2a82ad	0.66605645
206	0xbea9cdac	-0.33164728
207	0x3e52088e	0.20511076
208	0x3e884e01	0.26622012
209	0x3f2d0235	0.6758149
210	0x3eaca3e4	0.3371879
211	0x3e7619e5	0.24033315
212	0xbedc9191	-0.43079808
213	0xbf432de8	-0.7624192
214	0xbf4339b7	-0.7625994
215	0x3effcde1	0.4996176
216	0xbf4326f4	-0.7623131
217	0xbf4170dc	-0.75562835
218	0xbf3ebf7b	-0.74510926
219	0x3f283292	0.65702164
220	0x3f1de6cb	0.6168029
221	0xbf377822	-0.71667683
222	0xbee4b34f	-0.44668052
223	0x3dfd3247	0.12363105
224	0x3edfba34	0.4369675
225	0x3e9a6d04	0.30161297
226	0x3f3e6af0	0.74381924
227	0x3eb7d81f	0.35907075
228	0x3ec4402b	0.38330206
229	0x3ec59a42	0.38594252
230	0x3db56797	0.08857649
231	0xbe177719	-0.14791526
232	0x3e940160	0.289073
233	0xbf008a19	-0.5021072
234	0x3e9e5be0	0.3092947
235	0x3f536e14	0.8258984
236	0x3edd8443	0.4326497
237	0xbcebc540	-0.02878058
238	0x3eb61e1e	0.35569853
239	0x3e9f8c08	0.31161523
240	0x3e03d764	0.12875134
241	0x3ed10d04	0.40830243
242	0x3f05189a	0.51990664
243	0x3f0d7255	0.5525258
244	0x3e3df9da	0.18552342
245	0xbe93ab01	-0.28841403
246	0x3d0227a6	0.031776093
247	0xbef6a7fe	-0.48175043
248	0x3eb43ac0	0.35201073
249	0x3f2c2f75	0.67259914
250	0x3f043567	0.51643986
251	0x3ed6dc71	0.41965058
252	0x3f3adbe6	0.7299179
253	0x3e074016	0.1320804
254	0x3eb590cc	0.35462034
255	0x3eb6aa0c	0.3567661

l1.bias f4 [8]
0	0x3f314bfb	0.6925656
1	0xbe04d453	-0.1297162
2	0x3eed5bad	0.46359006
3	0x3f629ba7	0.88518757
4	0x3f4330e5	0.7624648
5	0x3f7c25ee	0.98495376
6	0x3f503e73	0.8134529
7	0x3f077501	0.5291291

l2.weight f4 [8, 8]
0	0xbea4bff7	-0.32177708
1	0x3e34c59a	0.17653504
2	0x3d8e2fc2	0.06942703
3	0x3e9ee320	0.31032658
4	0x3d7e7b56	0.06212934
5	0xbece5407	-0.40298483
6	0xbeabea9a	-0.33577424
7	0x3c639e99	0.013892793
8	0x3f8130aa	1.0092976
9	0x3e9257cd	0.28582612
10	0x3f75e629	0.9605432
11	0x3f07f76a	0.531119
12	0x3ea5229f	0.32252976
13	0xbf214a7f	-0.63004297
14	0xbf3f9c8f	-0.74848264
15	0x3f327c1f	0.69720644
16	0x3f87d409	1.0611583
17	0xbc98eb5c	-0.018666916
18	0xbf5b2dfb	-0.85617036
19	0x3f3a244e	0.72711647
20	0x3e92e334	0.28688967
21	0x3f15b2f9	0.58476216
22	0xbea520db	-0.3225163
23	0x3f7f83d6	0.9981054
24	0x3e167f10	0.14696908
25	0x3e427ef7	0.18993746
26	0x3f16a216	0.58841074
27	0xbe05cec1	-0.13067152
28	0x3fb93b85	1.4471289
29	0xbe0edc33	-0.13951187
30	0x3f981ac5	1.188317
31	0xbeebc28e	-0.4604687
32	0x3f563304	0.83671594
33	0xbe8cee7c	-0.275257
34	0x3f4a968a	0.79135954
35	0x3e2a8e6a	0.16655889
36	0x3f09fa9e	0.53898036
37	0x3f2a0e1d	0.66427785
38	0xbec3b39f	-0.38222978
39	0xbf554d49	-0.8332105
40	0xbf5416be	-0.828472
41	0x3ea35bd6	0.31906003
42	0x3f822824	1.01685
43	0x3f8c8ac4	1.0979848
44	0xbf474308	-0.77836657
45	0x3f335378	0.7004924
46	0x3f849751	1.0358678
47	0xbdf84f9d	-0.1212456
48	0xbeb85757	-0.36004135
49	0x3cf12c6e	0.029440131
50	0xbf58ad3c	-0.84639335
51	0xbef9cab1	-0.48787454
52	0x3f1c6548	0.6109204
53	0x3fa0b7ae	1.2556055
54	0xbf2ca0df	-0.6743297
55	0x3fa7a4f5	1.3097216
56	0xbe6853db	-0.22688238
57	0x3de3463a	0.11097379
58	0x3f26903d	0.6506384
59	0x3f5942ce	0.8486756
60	0xbf86f9dc	-1.0545001
61	0x3fd49ee7	1.6610993
62	0x3ed54501	0.41654208
63	0xbf56bf31	-0.83885485

l2.bias f4 [8]
0	0xbe63fff6	-0.2226561
1	0x3ea1a175	0.31568494
2	0x3e881685	0.2657968
3	0x3f1b3ceb	0.6063983
4	0xbe3231c7	-0.17401801
5	0x3f3124bf	0.69196695
6	0x3f10b449	0.56525093
7	0x3f2119c4	0.6292994

l3.weight f4 [7, 8]
0	0xbcbfa9d4	-0.02339641
1	0x3f5c626c	0.8608768
2	0x3f292aef	0.66081136
3	0xbfaef750	-1.3669224
4	0xbf88ca1c	-1.0686679
5	0x3b2c1ccf	0.0026262288
6	0xbf3d2d3e	-0.7389716
7	0xbf1a8f8c	-0.60375285
8	0xbdcb5c50	-0.099297166
9	0xbf36728f	-0.7126855
10	0x3d246642	0.040136583
11	0x3e3ec55b	0.18629973
12	0xbc66008e	-0.014038218
13	0xbfb60626	-1.4220626
14	0x3f6f8712	0.93565476
15	0xbf51f6f5	-0.8201745
16	0x3dfa5650	0.12223494
17	0xbfb647a7	-1.4240617
18	0x3d436a0d	0.04770856
19	0xbfa1a905	-1.2629706
20	0xbfcb0a80	-1.5862579
21	0x3e07306a	0.13202062
22	0x3f84af23	1.0365947
23	0x3ed5581e	0.4166879
24	0xbe3c0f07	-0.18365107
25	0xbf7a6110	-0.97804356
26	0xbf97f691	-1.1872121
27	0xbeb16d1d	-0.3465356
28	0xbe905f0a	-0.2819751
29	0x3f757fd8	0.958982
30	0xbfb3b7a5	-1.4040419
31	0x3f3cbac2	0.7372247
32	0x3cc843bf	0.024446366
33	0x3f5276c0	0.8221245
34	0xbf0ea325	-0.5571769
35	0x3d95f344	0.0732179
36	0x3f2da5bb	0.6783101
37	0xbf6ff9ca	-0.9374052
38	0xbfa9d426	-1.3267868
39	0xbf0ac507	-0.5420689
40	0x3e83674f	0.25664756
41	0xbeb6ea62	-0.35725695
42	0x3f201c12	0.6254283
43	0x3da46a56	0.080280945
44	0x3e7e2fd2	0.2482293
45	0xbb62582e	-0.0034537422
46	0xbf1e4535	-0.6182435
47	0x3e5018e7	0.20322
48	0x3e03ea4d	0.12882347
49	0xbf7f9f99	-0.998529
50	0xbfb24170	-1.392622
51	0x3f842cb1	1.0326139
52	0xbfa3ac9c	-1.2787051
53	0x3ea0f55c	0.31437194
54	0xbf565f0d	-0.83738786
55	0xbf5e5c5b	-0.86859673

l3.bias f4 [7]
0	0xbe02e727	-0.1278349
1	0x3dd91ff6	0.10601799
2	0x3dcda077	0.10040372
3	0xbcf99ca5	-0.030470202
4	0xbe26f401	-0.16304018
5	0xbe6cc7f8	-0.23123157
6	0x3e2d7f42	0.16943076
