src/data.pth (torch, 10079 bytes, 6 tensors)

l1.weight f4 [8, 120]
00000000: b4ae 4b3f 3b08 a53f 4f59 f33e 2e69 603f
00000010: 51f9 843e 2659 39be 39e8 043f 453c f73e
00000020: cad1 653f 4f01 25bf 0a66 aa3e 721c 673f
00000030: eb85 793f 3147 9c3f 791c 0ebf 7553 2fbe
00000040: 275c 44bf 4e82 bf3e e65b 283f 00e1 21bf
00000050: 1057 d63e d2c5 92bd ec30 f73e bd1e bebc
00000060: d9c8 d9be 2723 9fbe 070a 463f 9eb0 203f
00000070: 6c7a 8d3e d225 293f 5151 27bf 0371 913e
00000080: b69c 0bbf ac43 2b3e 00d8 bb3f fed7 1ebe
00000090: 4fef 103f 9d9a 2d3f 3288 20be 514d 473f
000000a0: 4c04 3fbf 7c78 d53f 44ec 1dbf b6d2 ac3d
000000b0: f7d8 6a3f 0402 e03d 47a1 ba3f 33b3 5ebf
000000c0: c76f d23f be91 bc3f 450f bb3f 8cff 093e
000000d0: 0cfb 2e3f 673b d23e 5bb3 453f db0c 33be
000000e0: fbf8 343f 6199 38bf d64a 7cbf c9e9 fb3f
000000f0: a326 c53f b03b e8be af28 8a3f 2f92 493f
00000100: 3d4d bbbe 6603 7c3f dfc4 68bf c448 023f
00000110: 62cc 6ebe 936c 773f 1b9e 3b3e 671e 9e3f
00000120: a8fe 8c3e 2e91 91bc e067 dc3e 7217 73bc
00000130: b622 e9bc 0051 b7be bc9c b43f f16e e5bf
00000140: 1c7e f13e e379 ca3f f3f2 9d3f cf0e 00bf
00000150: 487c 81bf a79a a3be e36e 933f 5925 423f
00000160: db20 81bd 0a0b 433f b81b 17bf d222 2b3f
00000170: b371 0b3c 12b1 44be 4a1f f2be 4707 703f
00000180: 0dd4 88bd 52ac a13e e8c8 293f 10f3 a63f
00000190: 25da b6bd b43a 703f 6cdc 103f 6d5a 7e3e
000001a0: ed8c 9abf dd01 283f 68a4 aebe 1e79 bdbd
000001b0: 0fd2 943e c743 0b3e dbcf 3fbd 7b72 f23e
000001c0: 534f 08bd 88e8 d6bd 3512 85bd 10ed e03e
000001d0: 2d1c 42be db63 fbbd 5a76 b63e bf60 8f3f
000001e0: 288e 2e3f 4a35 a13f 798e b83d 05ba 8c3f
000001f0: aa62 273f 66c0 48be 4bb7 5d3f 22ff 773f
00000200: 1367 503f f48b 8d3f ae9a 9e3f 9e18 5d3f
00000210: 00a3 ce3f 657b 83bc 7d96 e23e f340 d5bc
00000220: 9952 a2bf 9770 3b3f db88 4dbe b3d1 18bf
00000230: 4a63 413f 6640 f33e 7e50 793e e0ae 1dbf
00000240: 49b5 013e ad57 9e3e bca0 3c3f 3f8a 2e3c
00000250: 8cf1 2d3f 32aa 663f 64fd 803f 5740 623e
00000260: b211 d13d f5d8 91be eefc 873f 3af1 7cbe
00000270: dc68 dd3e 5683 54be 047e 71bd f379 8d3f
00000280: 0ea4 35bf 0e13 173f 31c8 08bf 4d2a 743e
00000290: 1400 4c3f f863 a5be 7035 8e3f 7a32 fcbe
000002a0: afa0 873f 0bfa 953f 89de 063f aa0a 98be
000002b0: 6ca3 cc3e 0c6e 763f 1374 6d3f 786e 8a3d
000002c0: a6e1 3dbe 9820 47bf 8cac 80be 3eb5 f93f
000002d0: de13 b43f ac37 65be 5093 b33f 9c66 633f
000002e0: d3be 833e e2fd 0d3f a661 aebd b401 933f
000002f0: 940d 053e eeac b13f 4114 e53e 3a65 633f
00000300: 40d4 7e3e 2ec2 2ebe 7cd6 333f dece be3f
00000310: 446a 003f d8c4 58bf 022e b53f e09c 95bf
00000320: 6b23 ec3d b900 6a3f 4ac5 9a3e fa55 42be
00000330: 9d68 75bf 8ea6 983c b4e1 9e3e 4c50 5b3f
00000340: 2c16 65be fb12 283f 60ae 4fbf 8a85 3f3f
00000350: 456c c13f cee6 87be 4dc1 093e b396 513f
00000360: a159 e1bd d469 5e3f 7641 803f 73e3 893f
00000370: 8ba5 5c3f 143b 3d3f 4bbb 633f 205d 1bbf
00000380: 0d29 c1bf 0c22 cf3e 081e 77bf eba6 80bd
00000390: 8c43 9c3e 3835 883e f887 6e3f 8e73 d83e
000003a0: b71d 28bf 73dd 7c3f dc9c 37be 0759 353f
000003b0: 6e61 543a 9383 aabd eca1 3abc 771a ae3f
000003c0: 07ba 943f 9f26 e03e 24c3 013f 25e8 2a3f
000003d0: bdc4 7a3f b4e6 c3be 2d4e af3e 21dc c53e
000003e0: a1df 7c3d 3e34 0dbe 949f 693e 1208 e8bd
000003f0: a415 833e 0de1 113e 1d3b 7e3d 5e70 66be
0.7956345 1.2893137 0.47529075 0.8766049 0.25971463 -0.18100414 0.51916844 0.4828817
0.8977324 -0.6445512 0.33280975 0.9027778 0.9746997 1.2209226 -0.55512196 -0.1712168
-0.76703113 0.37404102 0.65765226 -0.6323395 0.41863298 -0.071666375 0.48279512 -0.023208017
-0.42536047 -0.31081507 0.7735905 0.62769496 0.27632463 0.66073334 -0.65358454 0.28406534
-0.54535997 0.16725034 1.4675293 -0.15512082 0.56615156 0.67814046 -0.15676954 0.7785235
-0.7461593 1.6677394 -0.6168864 0.084386274 0.9173731 0.109378844 1.4580468 -0.86992186
1.6440362 1.4731977 1.4614035 0.1347639 0.6835182 0.41060945 0.772268 -0.17485373
0.70692414 -0.7210904 -0.9855169 1.968072 1.5402416 -0.45358038 1.0793666 0.78738683
-0.36582366 0.98442686 -0.909254 0.5089228 -0.23320153 0.96650046 0.18322031 1.2353028
0.27538037 -0.017769422 0.43048 -0.014837133 -0.028458934 -0.35803986 1.4110332 -1.7924482
0.47166526 1.5818447 1.2339767 -0.50022596 -1.0116053 -0.31953928 1.1518215 0.7583824
-0.06305095 0.7618872 -0.5902667 0.66850007 0.008510995 -0.19208172 -0.47289497 0.93761104
-0.066810705 0.31576782 0.66322184 1.3042927 -0.089283265 0.93839574 0.5658634 0.24839182
-1.2074257 0.65627843 -0.34109807 -0.09251617 0.29066512 0.13600074 -0.046829086 0.47352967
-0.033278774 -0.104935706 -0.06497613 0.43930864 -0.1895606 -0.12274905 0.3563717 1.12014
0.68185663 1.2594388 0.090115495 1.0994269 0.65384924 -0.19604644 0.8660781 0.96873677
0.8140728 1.1058335 1.2390954 0.8636569 1.6143494 -0.01605005 0.44255438 -0.026031947
-1.2681457 0.73218673 -0.20071737 -0.59694976 0.7554213 0.4751007 0.24347112 -0.61594963
0.12666811 0.30926266 0.7368276 0.010653078 0.67946696 0.9010345 1.0077329 0.22094856
0.10208453 -0.28485838 1.0624063 -0.24701396 0.43244064 -0.20753226 -0.05895807 1.1052841
-0.7095345 0.5901345 -0.5343047 0.23844261 0.7968762 -0.32302833 1.1110058 -0.4925726
1.0595912 1.1716932 0.5268331 -0.29695636 0.3996843 0.9626167 0.9275524 0.067593515
-0.1854311 -0.7778411 -0.25131643 1.9508436 1.4068563 -0.22384518 1.4029331 0.88828444
0.25731525 0.5546552 -0.08514719 1.1484895 0.12993461 1.3880899 0.44742015 0.88826334
0.24885654 -0.17066261 0.7024915 1.4906881 0.5016215 -0.8467536 1.4154665 -1.16885
0.11530193 0.9140735 0.30228645 -0.1897811 -0.9586275 0.018634107 0.31031573 0.856694
-0.22371739 0.6565396 -0.8112545 0.7481314 1.5111166 -0.26543278 0.13452645 0.81870574
-0.110034235 0.8688023 1.0019977 1.0772537 0.861901 0.7391827 0.8895766 -0.6068897
-1.5090653 0.40455663 -0.965302 -0.06281837 0.30520284 0.26603103 0.9317622 0.4227566
-0.6567034 0.98775405 -0.17930931 0.7083897 0.00081016764 -0.08325877 -0.011391144 1.3601826
1.1619271 0.43779466 0.50688386 0.66760474 0.9795645 -0.3826195 0.3423933 0.38644508
0.061736707 -0.1378946 0.2281478 -0.11329664 0.25602448 0.14246006 0.062068094 -0.22503802

l1.bias f4 [8]
00000000: eafc 5f3f 1178 0b40 b790 883f dba4 2040
00000010: e0c0 cc3f c40f cb3f 262c 923f 1176 bc3f
0.8749529 2.1792033 1.0669163 2.510062 1.5996361 1.5864186 1.1419723 1.4723531

l2.weight f4 [8, 8]
00000000: 52cf 6f40 4eaa 5b40 9e28 123f efc9 3f3e
00000010: 4cba 723e f5ad a1bf b615 0f3f b82b fb3e
00000020: 018d 8c3d fcb8 cb3e 1fac d7bf 0bbf 773f
00000030: 60f0 e13f 0b7c 6f3f 35d6 ce3f d156 1440
00000040: 6e6e 2e3f 473d d13f cf8b 0b40 c43f 6f40
00000050: c35e 92bf 356d 0840 303f 92bf 0807 7b3f
00000060: ecc1 2540 49dd 943e 1459 4b40 f282 a3bc
00000070: a7d0 3e3f 3eb9 503d f988 f93f 1050 1540
00000080: df9e 5d3f 6ac4 cb3e aad9 1a40 6d20 ac3e
00000090: 25b0 5c3e 61e6 6a40 c626 4440 8f7a 59bf
000000a0: 2229 123f 1d3b 0240 0e16 063f f234 ea3f
000000b0: 6d60 3140 1bbc aa3f a7b9 133f 826d e2bf
000000c0: c41b 223f 5123 8d3c fe49 0740 97fc 1340
000000d0: b969 5140 fed2 a6bf 7d49 41be 3efb e43e
000000e0: e3b6 a8bf a05d 8f3f 9d39 893f 9ed1 4abe
000000f0: f3de 3bbe e65f e33f e535 a73f 6a00 3c40
3.7470288 3.4322696 0.57093227 0.18729375 0.23703879 -1.2631212 0.55892503 0.49056792
0.06862832 0.3978957 -1.6849402 0.96775883 1.7651482 0.9354865 1.6159121 2.3177989
0.6813725 1.6346825 2.1804082 3.738267 -1.1435169 2.1316655 -1.1425533 0.98057604
2.589961 0.29075077 3.177312 -0.0199599 0.7453713 0.05095791 1.9494926 2.3330116
0.86570543 0.3979829 2.4195352 0.3361849 0.21551569 3.6703112 3.0648665 -0.84952635
0.57094014 2.034858 0.523774 1.8297408 2.7715104 1.3338655 0.5770516 -1.7689669
0.63323617 0.017228754 2.1138911 2.3122919 3.2720778 -1.303314 -0.1887569 0.44722933
-1.3180813 1.1200447 1.0720707 -0.19806525 -0.18346767 1.7763641 1.3063322 2.9375253

l2.bias f4 [8]
00000000: 24f8 493f babe fa3f ea04 613f 440a 94bf
00000010: f475 fc3e c973 7c3f 98d6 b83e 5274 6a3f
0.7889426 1.9589455 0.87898123 -1.1565633 0.4930874 0.98614174 0.36101222 0.9158374

l3.weight f4 [39, 8]
00000000: 3bed a83e 26b6 1fc0 40ac 913e 3848 073e
00000010: 01bd 13c0 33ba f9bf 15cd d53e 97c9 723e
00000020: 93cf 83bf cd99 21bf 888e e1be c3c7 c33d
00000030: c48c b33d caf2 2ec0 e370 8bbf 0b8c 473f
00000040: f722 373f de5e 67c0 7f8c 86be a99e 8d3e
00000050: 5c38 d1be a52c 9abf cdc4 9bbf 4d68 dbbe
00000060: f7b9 a03e 4778 9cbe a6f4 3cc0 659f eb3e
00000070: 9ed7 febe 0c61 16bf c3ce 4c3d ce9d dfbf
00000080: d4fd 21be 96fd 17bf ddfd f1bf 0fa1 813e
00000090: e65a fbbf 05dc 843e abee 5d3f 5fe3 02c0
000000a0: a54e 083f a762 27c0 2b0b 91bf e63a c13e
000000b0: fb47 11bf 37b8 09be 0d16 fb3d 0422 4dc0
000000c0: 2cdf 4cbf eaf3 6abf cb5b d93e 4fb1 6ec0
000000d0: c10e 96be 5ba9 c03e 3236 b23d c981 97bf
000000e0: ceaa 073f 4ca9 8ebf 0262 debe 2614 a73e
000000f0: cef0 a4be 0c63 74c0 e338 1fbf 641f 503e
00000100: 7599 3c3f bc53 9c3d e3b1 62bf 06a5 95be
00000110: 3aa5 98c0 864d 393f a9d0 003f 0f0d d6bf
00000120: b153 cbbf 68f9 3a3f dc86 92be 8391 a5bf
00000130: 94c6 3dc0 784b 1d3f e476 943f 4bad 1dc0
00000140: 4718 253e f26b 303e a6bf 38c0 ed89 ad3e
00000150: f8f8 67bf 407c efbf c602 003e bf0e b23e
00000160: e339 ff3e d023 02c0 b99b b2bf e00e d33e
00000170: befc b5bf 7d24 82bf 93ba ef3e 34bc c5be
00000180: 75d1 14c0 6f24 23bf c623 72bf 76e4 0abf
00000190: e505 b6be f449 683e 8bfd 3a3f 76de f5bf
000001a0: 95c2 b5bf 525f 21c0 e995 a23e 8cae e13d
000001b0: e3fa 2c3e 9ae1 98bf 8397 abbf 24dd 48be
000001c0: cb19 1fc0 7997 5fbf 94b9 03c0 1c7d b43d
000001d0: 9a79 cf3e ae8a d8be 3281 90be 5e20 843e
000001e0: d74c c5bf 92c1 31c0 54f6 56bf ee9a 1fbd
000001f0: 69e0 3d3e 998b 02be 6b71 3f3e 1403 79bf
00000200: bdbc bcbf ec5f 7bbd 3e5c 53c0 2850 bc3e
00000210: c2a2 36bf 5071 0a3e 530d 0f3f 57b1 dbbe
00000220: 56a2 8bbd 2481 19c0 5090 e9be fdac ed3e
00000230: ac27 b13e e3cf d4bf 941b 38c0 959d 1c3e
00000240: e082 aebe 7110 03bf b91c 64c0 93f5 723e
00000250: e5f8 d83e c1b3 dcbe 318a 88bf 98fb 1cbe
00000260: 8686 113e 53bc 34c0 5e52 09c0 485c 933e
00000270: 3d22 c43e 4407 06bf b3ba cfbe b126 4ebf
00000280: cb73 aabf 9ded c0bf 1a44 323f 1907 9ebe
00000290: 393e 49bf 1416 12c0 4638 8fbd dce1 033f
000002a0: 4103 eebf bfa1 0f3f c3ad afbf ca5a 17c0
000002b0: 8682 333d 97e1 823e 13c1 1d3e 339a 43bf
000002c0: f78e 5bbf 1688 983e 4d83 e0bf e244 1abf
000002d0: 0b51 1bbf 515c 31bc 6e72 a8bf dba7 7d3e
000002e0: 553c 1e3f 7446 963d 73c1 44c0 82ee b5bf
000002f0: 2032 03bf e71f 7bbd 168a 43be a6f2 7cbe
00000300: e1ba 35c0 a46f 093f 867d 493f 1b5a 1fc0
00000310: 1e34 56bf db76 1abf 591d 87bf 7742 283f
00000320: ac48 833f 01b4 9bbe fb03 533e 8d7e a5bf
00000330: 78e8 c6bf a78a 03be fe23 26bf 0bfd 47c0
00000340: fdec c83e c937 19c0 5ec9 b53d ed71 38bf
00000350: bea9 dcbd aae3 12bd 2d81 40c0 0921 65bf
00000360: db76 17bf ac7c 913e 8223 40be db91 8dbf
00000370: 25c1 c2bf ec1a 88bf 3bd2 b03e 7419 f33d
00000380: 9340 8b3e d8ab 21c0 9cd2 113d bb07 863d
00000390: bedd 16c0 b4c4 cfbc 4d8f 073f 3e80 f7bf
000003a0: a902 10c0 4d69 f7bf 626a 223f 1dcc 49bf
000003b0: 5867 17bf d43e dbbe d052 003e 9135 04bf
000003c0: 7b18 04bf 6aac 03c0 e586 463e de01 3fbd
000003d0: 6b54 63bf c465 88bf 3938 143e c9b7 64bf
000003e0: 4249 c33e d365 b63e a46b dcbd f832 8abe
000003f0: c521 98bf 1e4d c7bf 2bb4 79c0 be77 163f
0.32993492 -2.4954925 0.2845173 0.13211143 -2.308411 -1.9509948 0.41758028 0.23709713
-1.0297722 -0.63125306 -0.44054055 0.09559586 0.08767083 -2.7335687 -1.0893825 0.77948064
0.7153773 -3.6151652 -0.26279065 0.2766011 -0.4086331 -1.2044874 -1.2169434 -0.42853013
0.3139188 -0.30560514 -2.9524322 0.46020046 -0.49773878 -0.5874183 0.05000187 -1.7470033
-0.15819484 -0.59371316 -1.8905598 0.2531819 -1.9637115 0.25949112 0.86692303 -2.0451276
0.53245 -2.6153963 -1.1331533 0.37740248 -0.5675046 -0.13449179 0.12260065 -3.2052011
-0.80028033 -0.91778433 0.42452845 -3.729572 -0.2930813 0.37629208 0.08701743 -1.1836482
0.52995 -1.1145415 -0.4343415 0.3263256 -0.3221497 -3.8185453 -0.6219618 0.20324475
0.73671657 0.076331586 -0.88552684 -0.29227465 -4.7701693 0.72383916 0.5031839 -1.6722735
-1.5884916 0.73036814 -0.28618515 -1.2935032 -2.9652452 0.6144328 1.1598783 -2.463702
0.16122542 0.17228678 -2.8866973 0.33894292 -0.9061427 -1.8709793 0.12501058 0.34776875
0.49848852 -2.0334358 -1.3953773 0.41222286 -1.4217756 -1.0167385 0.46822032 -0.3862015
-2.3252842 -0.6372747 -0.94585836 -0.54254854 -0.35551372 0.22684461 0.73043126 -1.9208515
-1.4200007 -2.521443 0.31754997 0.1101962 0.1689258 -1.1943848 -1.3405613 -0.19615608
-2.4859493 -0.87340504 -2.0582018 0.08812925 0.40522462 -0.42293304 -0.28223568 0.25805944
-1.5414075 -2.7774396 -0.83969617 -0.03896611 0.18542637 -0.12748565 0.1869561 -0.9727032
-1.4745098 -0.061370775 -3.302505 0.36779904 -0.713421 0.13519788 0.55879706 -0.42908737
-0.068180725 -2.398507 -0.45617914 0.46421042 0.3460058 -1.6625942 -2.8766832 0.15294488
-0.34084225 -0.5119696 -3.564253 0.23726492 0.4237739 -0.4310589 -1.0667173 -0.1533035
0.14211473 -2.8239944 -2.1456523 0.28781343 0.38307372 -0.52354836 -0.40572128 -0.8052779
-1.3316587 -1.5072514 0.69635165 -0.3086479 -0.7861057 -2.2825975 -0.06993155 0.5151651
-1.8594743 0.5610618 -1.3724903 -2.3649163 0.04382565 0.25562736 0.15405683 -0.76407164
-0.8576502 0.29791325 -1.754007 -0.60261357 -0.60670537 -0.010825233 -1.3159921 0.24771063
0.6181081 0.073376566 -3.0743072 -1.4213412 -0.5124836 -0.06130972 -0.19095644 -0.24701938
-2.8395312 0.53685975 0.7870716 -2.4898746 -0.83673275 -0.6033761 -1.0555831 0.6572642
1.0256553 -0.3041077 0.20606987 -1.2929245 -1.5539694 -0.1284586 -0.6489867 -3.1248195
0.39243308 -2.3940299 0.08876298 -0.72048837 -0.10774563 -0.03586165 -3.0078843 -0.8950353
-0.59165734 0.2841543 -0.18763545 -1.1060137 -1.5215193 -1.0633216 0.34535393 0.11870089
0.27197704 -2.5261135 0.035601243 0.06544443 -2.357284 -0.02536235 0.52953035 -1.9336011
-2.2501624 -1.932901 0.6344358 -0.7882708 -0.59142065 -0.42821372 0.1253159 -0.51644236
-0.51599854 -2.0573983 0.19387396 -0.04663264 -0.88800687 -1.0656056 0.14474572 -0.89342934
0.3814183 0.3562456 -0.10762718 -0.2699201 -1.1885306 -1.5570409 -3.9016216 0.5877646

l3.bias f4 [39]
00000000: 4941 97be c606 3bbc 1334 f4be 8659 a1be
00000010: 1390 e4bc 40a6 8bbe 6fcf 413e 9344 c4bd
00000020: bbc7 c43e c1bc 1f3e d351 293e eb92 d2be
00000030: 4ee0 ce3d 4880 62be 9136 61be 6131 22bd
00000040: 2e7f 943e e5f1 ccbe 6b8a 19bd 2e11 9cbe
00000050: 52eb 0bbf 10b2 693d 87c5 733e fef4 1e3e
00000060: 3a4e 0b3f 85e8 d03e a08e a0bd 2a44 933e
00000070: 3c04 ddbe 0e8e c2be 9536 ccbe 5c37 183f
00000080: dce1 7dbe c384 ec3e ecb8 9dbe 123d c33e
00000090: db2e a4be 6f49 2b3d f643 2a3f
-0.29541996 -0.011415189 -0.4769598 -0.31513613 -0.027900731 -0.27275276 0.18926786 -0.09583392
0.38433632 0.15599348 0.1653512 -0.41127715 0.101013765 -0.22119248 -0.21993472 -0.039597873
0.2900328 -0.400283 -0.03748552 -0.30481857 -0.54655945 0.05705458 0.2380582 0.15523145
0.5441624 0.40802398 -0.078397036 0.28762943 -0.43167293 -0.37999004 -0.39885393 0.5945947
-0.2479319 0.4619504 -0.30805147 0.3813253 -0.32066998 0.04181808 0.6650995
