src/data.pth (torch, 10091 bytes, 6 tensors)

l1.weight f4 [8, 120]
000000 43 cb c0 40 e2 1f 4e 40 8e 96 ad 3f e1 d0 a8 3f
       6.024812 3.220696 1.3561571 1.3188745
000010 39 a3 80 40 44 62 61 be d7 b0 9e 3f 98 3c bf 3f
       4.0199246 -0.22010142 1.2397717 1.4940367
000020 1b a8 08 40 36 fc 27 40 b9 1e 97 40 24 e9 60 40
       2.1352603 2.6247687 4.7225003 3.5142298
000030 41 17 73 3f 3a 44 03 40 cd 91 e6 40 e5 c0 0d 40
       0.9495736 2.0510392 7.205298 2.2148983
000040 1a c6 25 40 59 16 28 40 d0 1e 6c 40 dc 49 e5 40
       2.5902162 2.626364 3.6893806 7.165266
000050 fd 46 28 40 93 49 db 3f 33 e1 53 40 2c 71 2d 40
       2.6293328 1.7131828 3.31062 2.7100325
000060 14 52 3d 40 98 eb 9a 40 70 58 11 40 a0 c0 77 40
       2.9581347 4.841259 2.2710228 3.871132
000070 60 0f 12 40 29 c0 2a 40 96 14 28 40 c8 4d d4 3e
       2.2821884 2.6679785 2.6262565 0.41465592
000080 9c fc 76 40 ad 3e 8f 40 48 66 e2 40 e2 2c c8 be
       3.859168 4.476401 7.0749855 -0.39096743
000090 d9 57 05 40 3b d8 85 40 9c b8 2c 40 74 a1 27 40
       2.0834868 4.1826453 2.6987677 2.6192293
0000a0 b5 af 53 40 ac 41 3f 40 ee 98 01 41 ac 10 95 40
       3.3075993 2.9883833 8.099836 4.658285
0000b0 e0 36 02 40 2b f0 d3 3e 5b 30 86 40 74 fa 68 3f
       2.0345993 0.4139417 4.193403 0.9100716
0000c0 b5 8c ed 40 4b 77 d8 40 33 d7 7e 3f 6b 15 87 3f
       7.423426 6.764562 0.9954712 1.0553411
0000d0 13 e5 4c 40 fc c7 7b 3f 30 06 c8 3f ba 7d 0d 40
       3.2014816 0.98352027 1.5626888 2.2107987
0000e0 08 3d 49 40 ff a1 63 40 1d 01 71 40 d9 80 f1 be
       3.14435 3.5567625 3.765693 -0.47168615
0000f0 d6 9e bf 40 bc 48 e5 3f 5e ff 9e 40 0a ad 2d 40
       5.988139 1.7912822 4.9686728 2.7136865
000100 52 6d e4 3f 76 56 02 41 f6 5c ad 40 3e e9 0a 40
       1.7845862 8.146109 5.417598 2.170486
000110 26 0e 06 40 f8 5d 90 40 ce 02 37 40 bd 0e a3 40
       2.0946136 4.511471 2.8595462 5.095549
000120 78 7c 1e bf 30 b0 63 be 23 65 2a 40 bc 71 0c 40
       -0.61908674 -0.22235179 2.662423 2.1944418
000130 10 98 03 41 68 5a 25 40 68 f7 82 40 2a ca 2d 40
       8.224625 2.583643 4.092701 2.715464
000140 26 88 aa 3f 5b 6a f8 40 b3 8f 63 40 4c d8 f6 3f
       1.3322799 7.762983 3.5556457 1.9284759
000150 80 9c bf 40 d4 13 b5 40 63 a0 86 40 c9 0c 77 40
       5.987854 5.6586704 4.2070785 3.8601553
000160 aa 14 5f be 7d 1e 08 40 d7 74 5e 40 c1 68 88 40
       -0.21785226 2.1268609 3.4758813 4.2627873
000170 05 81 91 3f b4 c8 bf be 2b 2a 82 40 b5 09 77 40
       1.1367499 -0.37457812 4.0676475 3.8599675
000180 4c fa 20 be d0 f3 49 40 94 1c dc 40 55 c7 78 40
       -0.1572048 3.1555061 6.8784885 3.8871663
000190 8e 73 02 40 ee 4a 5a 40 dd f6 86 40 19 4c 03 40
       2.038303 3.4108233 4.2176347 2.0515196
0001a0 65 9f 24 40 80 e6 f0 3f 68 bd 21 40 8f 50 1b be
       2.5722287 1.8820343 2.5271854 -0.1516745
0001b0 5a b6 28 bf 7e f7 a3 3e 4e 20 00 3f 11 8a 2a 3f
       -0.65903246 0.3202476 0.50049293 0.6661692
0001c0 c8 90 77 40 fb 94 86 3f 22 43 b5 3e da 2d 19 40
       3.8682117 1.0514215 0.3540278 2.3934236
0001d0 48 96 2a 40 7e 70 27 40 80 dd b4 3f 95 6d fd 3f
       2.6654224 2.616241 1.4130096 1.9799067
0001e0 d5 65 ae 40 dc 59 73 40 ea da 96 3f b0 e8 85 3e
       5.4499307 3.8023596 1.1785557 0.2615409
0001f0 ad b6 77 40 4e 14 b6 be 47 0a ec 3f 36 82 99 3f
       3.8705246 -0.35562366 1.8440636 1.1992862
000200 ea 68 34 40 a9 d4 b7 3f 47 e2 9c 40 dd 6c 94 40
       2.8189034 1.4361774 4.9026217 4.638289
000210 bb dc 2a 3f 73 ff 10 40 d6 d2 34 41 b0 97 11 40
       0.6674306 2.2655914 11.301474 2.2748833
000220 96 91 33 40 10 a2 4d 40 6f be ab 40 9a 43 1d 41
       2.8057609 3.2130165 5.3669963 9.829004
000230 70 3e 48 40 8d 4f aa 3f 17 02 60 40 b1 3d 3f 40
       3.128811 1.3305527 3.5001276 2.9881403
000240 b6 47 fc 3f e0 ef 04 41 16 c9 4a 40 d8 73 49 40
       1.9709384 8.308563 3.1685233 3.1476955
000250 b9 1f 2b 40 63 7a df 3f 85 17 36 40 a5 69 a5 3f
       2.6738112 1.7459224 2.8451855 1.2922865
000260 2a 17 1c 40 d8 ae 81 40 90 c8 c4 40 ba 7d a6 be
       2.4389138 4.052593 6.1494827 -0.32517797
000270 b0 26 1d 40 ee 39 5c 40 c4 ac 0e 40 f2 e9 f5 3f
       2.4554863 3.4410357 2.2292948 1.921202
000280 95 fe 31 40 a9 7b 84 40 f0 0c 29 41 cf de c3 40
       2.7811635 4.140095 10.565659 6.1209483
000290 d7 2d 37 40 2c f6 4e 3f 55 6d ae 40 6c f3 09 3f
       2.8621728 0.8084438 5.450846 0.5388706
0002a0 a8 19 21 41 fe 6e 0a 41 f3 b4 8c be 0f 4e ea 3f
       10.068764 8.652098 -0.27481803 1.8305072
0002b0 a7 59 7a 40 c6 9a 89 3f 2c da ee 3f 38 98 12 40
       3.911722 1.0750358 1.8660331 2.2905407
0002c0 d8 4c 91 40 83 81 a2 40 db b4 39 40 7b e1 b1 3f
       4.5406303 5.0783095 2.9016635 1.3896936
0002d0 24 b3 97 40 57 aa f2 3f db 46 7d 40 40 4b ff 3f
       4.7406178 1.8958234 3.9574497 1.994484
0002e0 84 d2 01 40 b4 88 3b 41 84 dc 4f 40 75 57 5b 40
       2.0284739 11.720875 3.2478342 3.427213
0002f0 8a 9a 11 40 63 0e 43 40 23 12 31 40 a8 25 8f 40
       2.2750573 3.047753 2.766732 4.4733467
000300 c5 4c 13 bf 66 5c 8c 3d bc 66 4e 40 88 6f 2c 40
       -0.57539016 0.06853561 3.2250204 2.6943073
000310 61 b3 2f 41 7e ff 82 40 9f 59 8a 40 9c 11 8f bd
       10.981294 4.093688 4.32344 -0.069857806
000320 72 e0 8c 3f c9 1e c6 40 cf 41 13 40 d5 70 e7 3f
       1.1005995 6.191258 2.3008916 1.8081309
000330 ec ea b4 40 6c 39 83 40 91 a3 56 40 0f ce 36 40
       5.653677 4.1007595 3.3537333 2.8563268
000340 8c 50 ab be 95 61 33 40 68 b7 a1 40 25 48 8f 40
       -0.3345989 2.802831 5.0536385 4.4775567
000350 8d 7f 7b 3f 0a 0d ae be e0 5c 73 40 26 bf a4 40
       0.982415 -0.33994323 3.8025436 5.1483335
000360 83 87 ec 3d bb a3 79 40 ef de b8 40 63 1d 7f 40
       0.11549284 3.9006183 5.7772136 3.9861686
000370 3f d4 d9 3f 3e 08 92 40 5a 99 95 40 b5 b1 0c 40
       1.7017897 4.563506 4.6749697 2.1983464
000380 f6 0b d6 40 49 75 1b 3e 64 ea 80 40 76 c2 a2 be
       6.68896 0.1518146 4.028612 -0.31788987
000390 05 7d 0a bf 59 6f c9 3e f5 00 53 3f 00 17 15 3f
       -0.54097015 0.39342764 0.82423335 0.5823822
0003a0 4f 73 8a 40 e2 3d cf 3f be be b4 3e eb 50 15 40
       4.3265758 1.619076 0.35301775 2.3330638
0003b0 b8 a7 0b 40 f4 f7 0c 40 9a 52 a1 3f b5 b7 2c 40
       2.1821117 2.2026339 1.2603333 2.6987126
0003c0 d9 2b f8 3f 5e b9 99 3f af ae 81 3f 45 45 b5 3f
       1.9388381 1.2009695 1.0131434 1.4161764
0003d0 b7 6d d1 3f 0f d0 96 3e 92 ae 91 3f 4e 3c 74 3f
       1.6361607 0.2945561 1.13814 0.9540452
0003e0 fc a2 eb 3f 49 19 dc 3f 0f d2 25 40 78 94 60 40
       1.8409114 1.7195216 2.590946 3.5090618
0003f0 7f 60 93 3f 38 17 c8 3f 08 b5 bb 40 07 1b 01 40
       1.1513823 1.5632086 5.8658485 2.0172746

l1.bias f4 [8]
000000 25 d5 b4 3f 33 ca e8 3f b7 56 e8 3f fd cf ba 3f
       1.4127547 1.8186706 1.8151463 1.4594723
000010 37 73 01 40 90 fe 3d 3f 20 20 e0 3f b8 a7 ad 3f
       2.0226572 0.74216557 1.7509804 1.3566809

l2.weight f4 [8, 8]
000000 21 6c 00 3f 27 ad 7e 3f 09 2d 1c 40 38 74 89 3f
       0.5016499 0.9948296 2.4402487 1.0738592
000010 cc d7 00 40 0a 0f 59 40 e6 2e 2d bf a4 f4 45 40
       2.0131712 3.391543 -0.67649686 3.0930567
000020 7b 8f fd 3f f1 c9 22 40 93 30 03 c0 0a 1a 0b 3f
       1.9809412 2.5435755 -2.0498397 0.5433661
000030 91 c8 48 40 ec 6f 03 40 29 61 e8 3e 94 5f 7e bf
       3.1372416 2.0537062 0.45386627 -0.9936459
000040 8e 2b fe 3f 9a 3b e6 3b e4 1c 85 3e d6 86 2a 40
       1.9857042 0.007026148 0.25998604 2.6644797
000050 0e 15 7c bf 37 1a d4 3f 48 be 2f 40 ca 6e 8c bf
       -0.98469627 1.65705 2.7459888 -1.097131
000060 f9 12 2c 40 07 12 48 40 88 12 12 40 7e 02 0f 3f
       2.688658 3.1261003 2.282381 0.5586318
000070 90 2d a4 bf 7f dd 9a 3f d6 c7 ae bf 7a 5e 6b 3f
       -1.2826405 1.2098845 -1.3654735 0.91941035
000080 6a 38 f8 bd 1e 94 dc bd 92 37 86 3f ab 8d 93 3f
       -0.12120135 -0.107704386 1.0485709 1.1527609
000090 8b ba 34 40 c4 63 f5 3c 27 b5 10 40 0c dd fe 3e
       2.8238857 0.029954799 2.2610567 0.4977802
0000a0 35 99 5c 40 e6 8d 0f 40 55 3e b7 3f 49 d3 92 bf
       3.446851 2.2430358 1.4315897 -1.1470729
0000b0 de 77 ed 3c 0b 12 a4 bf ff 2b 51 40 29 fd 32 bd
       0.028987821 -1.2818006 3.2683103 -0.043698464
0000c0 da d3 29 3f 48 d1 e4 3e 82 91 c5 bf 63 c7 36 40
       0.66338885 0.4469092 -1.543503 2.8559196
0000d0 62 7e 73 bf ea cc 91 3f d8 16 04 3f 4f cf 2a 40
       -0.9511472 1.139066 0.51597357 2.668903
0000e0 3f 80 91 3e d5 08 df 3f 49 b7 fb 3f 96 a0 55 40
       0.28418157 1.742457 1.9665309 3.3379264
0000f0 c8 cc 99 3e c3 8c 8a bf 2c be c1 3e 17 a1 dd bf
       0.30039048 -1.0824207 0.37840402 -1.7314786

l2.bias f4 [8]
000000 fa f5 4c 3f 23 7f 97 3e 59 d2 fc be 5f 00 4f bf
       0.8006283 0.29589185 -0.49379233 -0.8085994
000010 ec 14 fa 3f 78 25 ab 3f 2e 7e 11 3f 30 14 89 3f
       1.9537635 1.337081 0.5683316 1.0709286

l3.weight f4 [39, 8]
000000 77 4c 59 c0 5d 52 37 bf 29 79 fe 3e a5 31 9e bf
       -3.395292 -0.7161005 0.49701813 -1.23589
000010 51 7e 7c bf 0d 85 fd be 7b 58 1c 3f 51 d8 5b 3f
       -0.98630244 -0.49515572 0.6107251 0.8587695
000020 fc 4b 8f bf 07 41 33 c0 1f e4 47 3e 85 be 13 be
       -1.1195064 -2.800844 0.19520615 -0.14428146
000030 32 a5 b7 bf d3 f6 91 bf d0 f6 41 3f aa 12 3b be
       -1.4347289 -1.140345 0.7576723 -0.18268839
000040 00 2b b9 bf f2 28 34 c0 ec 34 55 bd c1 a8 01 bd
       -1.4466248 -2.814999 -0.052052423 -0.031655077
000050 88 54 2d bf f9 17 1c bf 21 61 d7 bf 79 05 6c 3f
       -0.6770711 -0.6097408 -1.6826516 0.9219585
000060 91 84 11 bf 38 8c 21 3f de 45 1f bf e5 3d 61 c0
       -0.56842905 0.6310458 -0.62215984 -3.5194027
000070 66 00 7e 3f 45 66 41 c0 fa b1 1e bf a9 6a 22 3f
       0.9921936 -3.021867 -0.6199032 0.63444
000080 80 54 80 bf 1f 54 e8 be e9 c3 03 3f 2b cd 09 c0
       -1.0025787 -0.4537668 0.5147081 -2.1531475
000090 a9 01 32 3e 67 12 1c c0 48 2f e8 3d 0c ad 00 bf
       0.17383446 -2.4386232 0.11337143 -0.5026405
0000a0 4d 2a 05 c0 0e ec 06 bf 9e d0 09 3f 03 83 71 c0
       -2.0807068 -0.5270394 0.5383395 -3.7736213
0000b0 42 09 91 3e 3e 48 ac 3e ca 52 2e c0 77 f4 99 3f
       0.28327376 0.33648866 -2.723803 1.202773
0000c0 a9 3b 6d be 5e 38 a9 3e 6f b5 be c0 b5 53 89 be
       -0.2316729 0.33050817 -5.9596477 -0.26821676
0000d0 16 e6 93 be 9d f4 81 be fb ca 36 c0 27 b4 ac 3e
       -0.2888648 -0.25381938 -2.856139 0.33731195
0000e0 a0 f2 9b bf 7f f6 5e 3e e5 42 92 bf c6 27 6b bf
       -1.2183418 0.21773718 -1.1426665 -0.91857564
0000f0 92 f2 5d bf 4f 30 af be 8d 96 0a c0 05 d2 9a bf
       -0.8669826 -0.34216544 -2.165439 -1.2095343
000100 cf bf 23 bf 6c b1 01 3f 94 7a 80 c0 eb f5 82 be
       -0.6396455 0.5066135 -4.014963 -0.25578246
000110 1d 0e 58 bf 3a 67 9d be 27 cd 94 3c 89 e9 2d c0
       -0.84396535 -0.30742818 0.01816423 -2.7173789
000120 68 91 d0 be 08 8a 89 3f 6e 55 58 c0 4b 3a c2 bd
       -0.40735936 1.0745249 -3.3802142 -0.09483775
000130 ad c1 23 bf e7 1e 36 c0 48 72 20 bf bf 85 27 bf
       -0.639674 -2.8456361 -0.6267438 -0.65438455
000140 98 ca fc bf 59 8a 78 3f 7d a4 42 bf c6 c9 31 c0
       -1.9749327 0.970861 -0.7603224 -2.7779403
000150 9d 1e 08 bf b2 b8 5f bf 93 8a 3f 3e 9e 1f 32 3e
       -0.5317171 -0.873912 0.18705206 0.17394873
000160 e4 7d 61 c0 a9 f7 28 3e 37 43 86 bf 10 36 43 bf
       -3.5233088 0.16500725 -1.0489262 -0.7625437
000170 de ad 1a bf e2 87 53 3e 51 9d cc be 30 c8 d7 3d
       -0.6042155 0.20657304 -0.39963773 0.105362296
000180 b0 c9 e6 be 2e c8 5a bf c9 43 0c 3f 90 52 46 c0
       -0.4507575 -0.854617 0.5479093 -3.0987892
000190 68 29 83 be 28 16 74 bf e5 c0 40 3f 74 75 2f c0
       -0.25617528 -0.9534631 0.75294334 -2.7415438
0001a0 fe d6 13 c0 8d 07 2d c0 9f e5 88 bd 9c b9 b1 be
       -2.309997 -2.7035859 -0.06684422 -0.3471192
0001b0 65 ce f2 be 55 cd d8 3e 32 aa 80 3e 05 28 0e bf
       -0.47423092 0.42344156 0.2512985 -0.55529815
0001c0 38 19 71 bf 29 b1 4a 3e eb fd cd ba 2b 10 83 c0
       -0.94179106 0.19794144 -0.0015715932 -4.0957236
0001d0 4e 3f 49 3f fa 9c b1 be c8 01 c0 be 07 6b 0e c0
       0.7861222 -0.34690076 -0.3750136 -2.2252824
0001e0 7c b2 47 c0 5e 0b de bd 3d d6 65 3e 40 41 42 c0
       -3.1202688 -0.10842012 0.22445007 -3.0352325
0001f0 96 54 7e 3d 79 e8 49 3f 94 6a 40 3f b7 43 a5 bf
       0.062092386 0.7887035 0.75162625 -1.291129
000200 57 43 95 bf 6a 99 d2 3b 23 c1 1f be 32 1b c6 bf
       -1.1661175 0.00642698 -0.1560102 -1.5477049
000210 45 b2 36 bf 5e 98 cb be 4f 97 b7 be da 9b 3f c0
       -0.7136577 -0.39764684 -0.35857627 -2.9938874
000220 6a dc 13 c0 0c 91 04 c0 3c 0c a7 be de 75 89 3c
       -2.310328 -2.071353 -0.32626522 0.016779836
000230 aa 7b 28 bf 98 99 39 3f ff 37 16 c0 40 48 81 bd
       -0.65813696 0.7249999 -2.3471677 -0.06312609
000240 7b 42 9f bf 3d b9 5d 3f ad 4a 25 be e2 43 69 c0
       -1.2442163 0.86610776 -0.16141768 -3.6447682
000250 da e6 2d 3f ae 5f 0a 3c c7 cb 3e c0 10 0a cf bf
       0.67930377 0.008445663 -2.9811876 -1.6174946
000260 8b 83 7d c0 fb a1 eb bc ca a7 bc 3e 8a 32 0b c0
       -3.9611537 -0.028763762 0.36846763 -2.1749597
000270 a6 1a 05 3f 69 87 8c 3f 89 1a 1b c0 0d 1c 6c be
       0.5199379 1.0978824 -2.4234946 -0.23057576
000280 fd 07 4f bf be 75 86 be 60 36 41 be fa 64 bc be
       -0.80871564 -0.26261705 -0.18868399 -0.3679579
000290 11 6e 9b bf 49 3f 4f c0 1a a3 25 3f 7d 19 72 bf
       -1.2142965 -3.2382376 0.64702 -0.9457014
0002a0 4b e7 db 3e 4d 7b 45 c0 e0 10 77 c0 3d f7 70 be
       0.429499 -3.0856507 -3.860405 -0.23531814
0002b0 c4 e6 e0 3e 7e a7 97 3e 10 52 93 bf a3 25 78 bf
       0.4392606 0.29619974 -1.1509418 -0.9693243
0002c0 be f9 9a be ca 15 84 bf a6 8e 9f be d7 52 03 bf
       -0.30268663 -1.031915 -0.3116352 -0.5129828
0002d0 f8 26 91 bf 27 b2 9f bf 53 27 e2 bf 4b f0 a5 bf
       -1.1340017 -1.2476243 -1.7668251 -1.2963957
0002e0 5d 04 ef 3e ed b9 4a c0 e2 4d 02 c0 bf 49 db be
       0.46683016 -3.167598 -2.0360036 -0.428297
0002f0 f7 cb 3f 3f f0 7d d1 bf b6 02 8a 3e 41 99 a5 bf
       0.749206 -1.6366558 0.26955193 -1.2937394
000300 d8 a0 50 be 04 12 ae be b0 3e 5e c0 0b 34 65 c0
       -0.20373857 -0.3399812 -3.4725761 -3.5813015
000310 3d d6 93 3f ad a7 8a 3f 45 e7 8d c0 15 c3 2f 3f
       1.1549755 1.083242 -4.434481 0.68657047
000320 9f 1b 5b 3f 90 3e 84 3f eb 62 42 c0 21 10 79 c0
       0.8558902 1.0331593 -3.0372875 -3.8916094
000330 da 48 0f 3f ee 70 34 bf 8b cd 90 bf 05 20 03 c0
       0.5597054 -0.7048482 -1.1312727 -2.0488293
000340 62 5d 9b 3e e7 17 5d bf 20 6b 3d c0 7b da 0b 3f
       0.30344683 -0.863646 -2.9596634 0.5463025
000350 3b 03 ae be 96 7f f6 bf 8c 62 b4 bf f3 0d cd bf
       -0.3398684 -1.9257686 -1.4092574 -1.6019882
000360 30 e6 ca bf 6b e4 23 c0 01 32 f8 bf e3 f5 48 c0
       -1.5851498 -2.5608165 -1.939026 -3.1400077
000370 ec 37 dc 3f 5f c6 04 be f5 b0 f5 3f 1a 27 ac 3f
       1.7204566 -0.12966298 1.9194628 1.3449433
000380 11 3c 3f bf 1e 87 a6 bf dc da 02 c0 f5 65 63 3d
       -0.7470103 -1.3009984 -2.044608 0.055517156
000390 8a 17 92 bf ee b4 ac bf eb bb ac be e9 c1 f4 3e
       -1.1413434 -1.3492715 -0.3373712 0.47804192
0003a0 85 c9 3d bf 3a e8 9b bf 9e 3d 9e bf 55 eb 8e be
       -0.7413562 -1.2180245 -1.2362554 -0.2791392
0003b0 4b d8 a3 bf e0 d9 6a be 13 e0 ca 3e 23 e8 30 c0
       -1.2800382 -0.22934675 0.3962408 -2.7641685
0003c0 8e 23 63 bf 48 24 54 bf 62 1a 20 c0 09 d8 b5 3e
       -0.8872613 -0.8286786 -2.5016103 0.35516384
0003d0 fa a2 f8 bf 28 8c 97 3b 9c a0 86 bf 34 b3 6b bf
       -1.9424736 0.004624862 -1.0517764 -0.9207032
0003e0 b0 1f 00 3d db f4 e0 be 16 9b c5 bf b0 1d ac bf
       0.03128022 -0.4393681 -1.5437953 -1.344656
0003f0 4b 9b 0a bf 9d 2c 12 c0 5d 2c b1 3f b4 f4 fb bf
       -0.5414321 -2.283973 1.3841664 -1.9684052

l3.bias f4 [39]
000000 9a 0d 71 bf e9 70 2c bf ff f1 16 bf 08 49 ca be
       -0.9416138 -0.6735979 -0.58963007 -0.39508843
000010 46 70 0f bf 33 ee d2 bf 8b 60 09 3f 66 5e 82 bf
       -0.5603069 -1.6478943 0.5366294 -1.0185058
000020 9b ee a5 be 1c 0f 39 bf d8 02 18 bf 0d f9 50 bf
       -0.32408604 -0.7228868 -0.5937934 -0.8163002
000030 94 b6 87 be f6 8d 8b be 13 73 ff 3d 57 a6 96 3d
       -0.26506484 -0.27256745 0.124731205 0.073559456
000040 9c 31 2c bf d6 eb 4a bf 6f b2 b6 bd d3 74 38 be
       -0.672632 -0.7926611 -0.08920752 -0.18013315
000050 ef 9a 92 bf 9f 89 f0 3e 94 fc e0 be 3f 2e 89 3c
       -1.1453532 0.46979997 -0.43942702 0.016745685
000060 32 9f c0 bf b4 66 2f 3f 8d 63 1c bf a9 ef e2 40
       -1.5048583 0.6851609 -0.610894 7.0917554
000070 53 2e 8b bf e6 38 38 bf 09 bc 09 bf 9a 5c 25 3f
       -1.0873512 -0.7196182 -0.53802544 0.64594424
000080 39 e1 de be 73 98 d4 be 88 92 63 be 15 fd f2 be
       -0.43531206 -0.4152256 -0.22223866 -0.4745871
000090 b4 b3 60 3c 58 ad ef bd b1 fc 63 bf
       0.01371472 -0.117029846 -0.8905745
