src/data.pth (torch, 27691 bytes, 6 tensors)

l1.weight f4 [8, 462]
1.6489408 2.5015895 0.32360104 0.8811639 0.023365729 -0.21297307 -0.2297034 -0.22337906
-0.14885534 1.5418583 3.5374086 0.21390127 0.8762263 0.1531751 -0.08977102 -0.65027314
-0.00915691 0.62521785 0.87219095 0.13334313 0.006125763 -0.23632656 0.49477503 1.0458794
1.7359525 0.643746 1.2267962 0.09172204 0.2739182 -0.02393254 -0.60708976 0.021152116
0.5360117 -0.03563698 -0.2970005 -0.22001445 -0.17909625 -0.22187334 1.4216223 -0.6914844
-0.4784891 0.18425414 -0.28025505 1.9617012 -0.5169941 0.10095829 0.17932536 0.17675243
-0.7883728 0.42809343 -0.44396308 -0.42529532 0.40926346 0.61451805 -0.5929181 -0.66168165
-0.69382435 -0.6068872 -0.7133528 -0.6988005 -0.6032634 -0.20417652 1.2006818 -0.4447563
0.16087392 1.0454546 -0.03973755 -0.21097924 -0.48332864 0.39339283 1.9189258 0.3928969
2.796996 0.02731457 0.4364604 0.42165658 -0.018648654 -0.8844377 2.385615 1.5071648
-0.5905596 1.1006072 0.05446676 0.07869388 0.140426 0.079289086 0.06395139 0.072876886
1.2022035 0.08089215 -0.65224934 0.07617232 0.18040575 0.1516057 0.060253732 0.072806776
0.00319524 0.15722452 0.9469151 -0.105292104 -0.06687781 -0.13871399 -0.23733117 0.09056927
0.80668944 -0.25261638 0.44082677 -0.66089916 -0.20557174 -0.37651667 2.163804 0.13990039
0.122134306 0.76079094 0.29536906 -0.66415524 0.6344661 0.55634457 -0.9018938 0.13659988
-0.36963725 -0.403421 -0.39339793 -0.38504797 0.58828473 0.68548864 -0.40323585 1.2740309
1.183064 0.41753653 -0.4149728 -0.42451176 -0.44269443 1.8276129 0.694778 0.07162457
0.28848067 0.12224612 -0.31182465 0.2370343 1.2375342 0.6625154 0.0415569 0.22011176
-0.06811853 0.15736683 -0.5860199 0.30186832 -0.50029576 0.172035 0.24562183 1.0092906
0.027204143 0.82096076 0.46338436 0.038821552 0.02381911 0.102012426 0.12237559 0.07789148
0.09718104 0.59249747 -0.5955434 0.68360305 0.44001597 0.10192466 0.11569568 -0.78659946
0.7088149 -0.70186955 0.15674008 -0.778643 -0.72895074 1.2846127 0.252294 0.06349378
1.114538 0.22944833 0.17579421 -0.41886538 -0.009287043 0.36511096 0.20286697 -0.4016292
-0.41125125 -0.42592552 -0.7420319 -0.32017434 0.042365458 0.76334864 -0.73065656 -0.44576883
-0.1901289 -0.7402829 -0.62783647 -0.7295697 -0.84396625 -0.6855305 -0.101387896 -0.75740236
0.3641366 -0.5089656 -0.9052281 2.176543 1.9889832 1.7300782 1.8420527 0.09962423
0.06842695 0.17240176 0.18217812 0.17021704 -0.50012505 1.8571749 -0.09099525 0.56791794
-0.45076787 0.69934416 -0.613384 0.5184844 0.8072767 0.068148546 0.13470879 0.15906481
-0.2895289 0.59642994 -0.7642929 2.2531514 1.2716563 0.17633942 -0.20646687 -0.6360566
-0.7195436 -0.670859 -0.41589752 0.06662565 0.00914932 0.10646244 0.07007228 0.1312661
-0.7710003 -0.73433656 1.135974 -2.132189 1.191534 -0.6650424 0.6421051 0.07423982
1.8650858 3.4357522 0.22857894 3.0591323 0.056116007 2.632591 0.35666603 0.9241785
00000000: 7e10 d33f 0b1a 2040 09af a53e f593 613f
00000010: 7c69 bf3c 9d15 5abe 5e37 6bbe 7bbd 64be
00000020: 896d 18be 9d5b c53f e764 6240 ef08 5b3e
00000030: 5e50 603f efd9 1c3e ded9 b7bd 4d78 26bf
00000040: dd06 16bc 470e 203f e847 5f3f 1a8b 083e
00000050: a0ba c83b 97ff 71be 2753 fd3e 60df 853f
00000060: b133 de3f 8acc 243f a807 9d3f c4d8 bb3d
00000070: 023f 8c3e 2d0e c4bc 3c6a 1bbf 3447 ad3c
00000080: 1038 093f 15f8 11bd 7310 98be 784b 61be
00000090: 0265 37be c432 63be b8f7 b53f 1f05 31bf
000000a0: 86fc f4be 1ead 3c3e 977d 8fbe 0619 fb3f
000000b0: ba59 04bf 38c3 ce3d 11a1 373e 97fe 343e
000000c0: cdd2 49bf 102f db3e 214f e3be 4fc0 d9be
000000d0: fb8a d13e 0e51 1d3f 7bc9 17bf f863 29bf
000000e0: 799e 31bf f65c 1bbf 4a9e 36bf 97e4 32bf
000000f0: 786f 1abf a613 51be f1af 993f 19b7 e3be
00000100: 22bc 243e 75d1 853f d7c3 22bd f10a 58be
00000110: da76 f7be c96a c93e 5c9f f53f c829 c93e
00000120: fc01 3340 cec2 df3c bd77 df3e 5fe3 d73e
00000130: 10c5 98bc 826a 62bf ebad 1840 c7ea c03f
00000140: ea2e 17bf b2e0 8c3f 8a18 5f3d 422a a13d
00000150: d5cb 0f3e 5162 a23d f2f8 823d 7a40 953d
00000160: cee1 993f c9aa a53d d0f9 26bf 3c00 9c3d
00000170: 49bc 383e 863e 1b3e 9ecc 763d b81b 953d
00000180: 3b67 513b 77ff 203e 0769 723f 63a3 d7bd
00000190: 3cf7 88bd 0a0b 0ebe f106 73be 627c b93d
000001a0: 3383 4e3f ef56 81be 0cb4 e13e b030 29bf
000001b0: 6681 52be cbc6 c0be c47b 0a40 0c42 0f3e
000001c0: 8d21 fa3d 32c3 423f 9d3a 973e 1406 2abf
000001d0: 5f6c 223f 996c 0e3f 83e2 66bf d7e0 0b3e
000001e0: 1841 bdbe 338d cebe 746b c9be 0225 c5be
000001f0: d499 163f 2f7c 2f3f ee74 cebe 7213 a33f
00000200: a46e 973f 59c7 d53e 5177 d4be 9b59 d9be
00000210: d8a8 e2be 38ef e93f f9dc 313f e7af 923d
00000220: bdb3 933e 2c5c fa3d 7ba7 9fbe 1fb9 723e
00000230: 8567 9e3f 9c9a 293f 9137 2a3d fa64 613e
00000240: ba81 8bbd c524 213e 6605 16bf 7c8e 9a3e
00000250: 6213 00bf f129 303e 4a84 7b3e 6f30 813f
00000260: 39db de3c 7c2a 523f b740 ed3e 5903 1f3d
00000270: 4b20 c33c e4eb d03d 0ea0 fa3d 9185 9f3d
00000280: da06 c73d eaad 173f 8875 18bf 9c00 2f3f
00000290: c649 e13e e0bd d03d dbf1 ec3d 955e 49bf
000002a0: e574 353f b9ad 33bf 7980 203e 2655 47bf
000002b0: 849c 3abf 306e a43f ae2c 813e 0709 823d
000002c0: 2ea9 8e3f 81f4 6a3e 6603 343e 8675 d6be
000002d0: ae28 18bc d3ef ba3e 5cbc 4f3e 58a2 cdbe
000002e0: 868f d2be e912 dabe cdf5 3dbf e4ed a3be
000002f0: 6787 2d3d d16a 433f 4f0c 3bbf d03b e4be
00000300: 26b1 42be 2e83 3dbf e4b9 20bf 14c5 3abf
00000310: 2c0e 58bf ed7e 2fbf 75a4 cfbd 1fe5 41bf
00000320: 1d70 ba3e 924b 02bf 07bd 67bf 7b4c 0b40
00000330: 0097 fe3f 3473 dd3f 62c8 eb3f ca07 cc3d
00000340: 6e23 8c3d 168a 303e e78c 3a3e 604d 2e3e
00000350: 3208 00bf e8b7 ed3f b85b babd 1263 113f
00000360: 0ccb e6be 3808 333f bc06 1dbf 65bb 043f
00000370: b0a9 4e3f 7791 8b3d 1af1 093e e3e1 223e
00000380: 223d 94be a2af 183f b3a8 43bf a233 1040
00000390: a2c5 a23f 5292 343e 0d6c 53be 9bd4 22bf
000003a0: 0234 38bf 6abd 2bbf 85f0 d4be 0773 883d
000003b0: 08e7 153c fb08 da3d 0e82 8f3d 9f6a 063e
000003c0: 4760 45bf 7bfd 3bbf 9967 913f c975 08c0
000003d0: 3084 983f 3840 2abf 0061 243f 0c0b 983d
000003e0: 22bb ee3f 5de3 5b40 9910 6a3e d3c8 4340
000003f0: e6d9 653d 5f7c 2840 ee9c b63e f696 6c3f

l1.bias f4 [8]
1.9649203 0.9515012 1.7556372 1.8303652 1.3070852 1.5059017 0.8341039 1.70204
00000000: 8282 fb3f 9595 733f b8b8 e03f 6849 ea3f
00000010: 914e a73f 63c1 c03f d587 553f 72dc d93f

l2.weight f4 [8, 8]
-1.5949365 1.0613859 2.3987489 0.7492338 1.675737 -0.7078341 0.8347498 1.9284021
-1.1926659 -0.83220863 0.64538217 2.8989465 1.9247715 4.8675914 2.3378518 -0.10628531
-2.3279188 0.6959664 1.4829967 2.5470645 0.106087625 -1.5481156 -0.39554372 0.8066743
-0.13722678 1.9644507 -1.6651373 -0.95561725 -1.3271677 0.361369 4.4145155 2.5327005
2.1043513 2.3602617 -1.3702149 2.005011 -0.6631245 2.5913234 -2.829985 1.6189802
2.9778683 0.8279492 2.4331791 -1.4053116 2.8587239 -0.61869574 0.5484094 -0.48672235
2.430816 -1.9866499 2.9287689 1.3741463 -0.44938973 0.49428746 1.2726947 3.9804857
1.6807841 4.0878654 -0.6891061 1.6581736 1.60404 -1.094308 1.4133649 -1.3831811
00000000: e126 ccbf 7edb 873f 1a85 1940 c9cd 3f3f
00000010: 8d7e d63f 9e34 35bf 2ab2 553f e1d5 f63f
00000020: 47a9 98bf a00b 55bf c437 253f 5788 3940
00000030: ea5e f63f 4fc3 9b40 5d9f 1540 1dac d9bd
00000040: 9ffc 14c0 db2a 323f d6d2 bd3f 1b03 2340
00000050: 7844 d93d a728 c6bf b584 cabe 3582 4e3f
00000060: 2d85 0cbe 1f73 fb3f 3823 d5bf 55a3 74bf
00000070: a2e0 a9bf 5c05 b93e b643 8d40 c417 2240
00000080: b1ad 0640 870e 1740 3463 afbf 1a52 0040
00000090: 87c2 29bf 3ed8 2540 791e 35c0 be3a cf3f
000000a0: 6595 3e40 7bf4 533f 35b9 1b40 40e1 b3bf
000000b0: 55f5 3640 d862 1ebf 8f64 0c3f ac33 f9be
000000c0: 7d92 1b40 8b4a febf f370 3b40 07e4 af3f
000000d0: 6916 e6be 3f13 fd3e a9e7 a23f 47c0 7e40
000000e0: ef23 d73f cbcf 8240 4269 30bf 083f d43f
000000f0: 2f51 cd3f 4912 8cbf 24e9 b43f 140c b1bf

l2.bias f4 [8]
-0.042580225 0.82934564 0.071474016 0.29571158 2.5896008 1.0546908 1.6491369 0.546859
00000000: 9a68 2ebd ff4f 543f f860 923d 8267 973e
00000010: 05bc 2540 1c00 873f eb16 d33f f4fe 0b3f

l3.weight f4 [55, 8]
-0.52894074 -3.0776014 -3.652227 -0.64959115 -1.3265105 0.062712915 -0.82470095 -0.17087044
-3.7325358 -1.6345109 -2.649196 -0.439975 0.27943444 -0.5271949 -0.76708543 -0.31192446
-1.0032526 -1.3243657 -2.793253 -0.63974756 -1.0791619 -0.42831793 -1.5589657 -0.51570606
-1.4657971 -1.3272825 -3.6490362 -2.8286393 0.06941104 -1.071714 -0.75811136 -0.031745832
-0.9666032 -0.62396747 -4.341866 -3.673966 -0.74561393 -0.4666518 -0.34595463 -1.3888159
-0.69701517 -1.1728173 -4.1571126 -1.4852941 -2.131443 -0.31782278 -0.514982 -1.0069242
-1.9106805 -4.0025196 -3.935648 -0.37956315 0.42085487 -0.26028568 0.13101403 -0.35029432
-0.3974715 -3.0365143 -2.7319658 -2.6981695 -0.10792483 -0.23869874 -0.61243165 -0.6653307
-2.4917166 -1.8449329 -2.6043456 0.7191763 -1.5055226 -0.88969487 -0.93226004 0.054588135
-1.5013502 -2.387149 -2.0038743 -1.1349832 -0.10669137 0.5071967 -2.5852969 0.521736
-0.8235 -1.3294748 -1.3919674 -2.969501 -2.1019495 -0.36256266 -0.2759735 -1.7984831
-0.115360394 -0.08937929 -0.15616883 -0.94268525 -3.3912086 -1.9444209 -0.9790567 -3.6375053
0.12890229 -0.118622445 -0.66721946 -0.7779379 -1.5404313 -2.693072 -2.9239855 -1.2115302
-0.6536554 -0.26576445 -1.3982348 -1.0205535 -3.6179705 -0.94624776 -1.445122 -1.487715
-2.0640664 -0.14200155 -2.8302577 -2.8350973 0.52260506 -2.1266096 -0.39002436 -1.9256054
-1.0754046 -1.1169628 -0.4307523 -2.3158514 -2.445269 -0.92436194 -1.3990093 -0.4576281
-0.51414657 1.016657 -1.0907465 -1.9278448 -0.20299691 -3.9670515 -1.5822209 -3.8499498
-1.4964999 -0.13610892 -3.1170096 -0.2434755 0.69202197 -4.184495 0.047543727 -4.467404
-0.24632308 -1.3994102 0.3361522 -0.11701448 -3.1691089 -2.319174 -1.4434433 -1.2535056
-0.4924549 -1.298748 -0.8439519 -0.23574486 -1.8906177 -0.44106328 -2.960613 -0.1852379
-2.7362103 -2.1003015 -3.5515065 -3.5319202 -0.16902815 0.7853417 -0.42307654 -0.115385965
-0.44760585 0.18174762 -2.9919336 -0.31660277 -0.8752286 -4.497669 -1.8249339 -0.57099515
-2.3483493 -1.557942 -3.9650345 -0.18200485 -1.4077455 -0.5238917 0.13007988 -1.0449027
-0.42692804 0.20077652 -3.9251504 -0.1603904 -2.0607347 -3.148288 -0.4967535 -2.4865758
-1.0527011 -0.1164602 -4.3104486 -0.46532992 -1.695632 -1.3138113 -1.1556838 -0.97191304
-0.82632047 -4.0184183 -1.4830514 -0.16684417 0.17051618 -1.0208446 -0.4778407 -1.0793532
0.08969237 -0.6098276 -2.0610049 0.4923985 -1.4754685 -2.236434 -2.811228 -0.71352136
-0.6314384 -2.9991925 -3.4841826 -0.055797968 -2.585176 -0.5503987 0.09316458 -0.7331078
-0.2915894 -0.913983 -1.9674621 0.06543863 -3.8042958 -1.593749 -0.55426353 -2.1817498
-0.19234647 -1.119077 -3.4913716 -0.092998065 -3.1106834 -0.8802829 -1.4796108 -0.508242
0.010419335 -2.4387698 -3.697537 -3.881782 -1.6756895 0.22323935 0.073313676 -1.5574869
-1.5202148 -3.0231676 -3.012041 -1.6863291 -0.40045533 -0.2100303 0.92561597 -2.2995648
00000000: a968 07bf 6cf7 44c0 16be 69c0 9b4b 26bf
00000010: 19cb a9bf a16f 803d 9a1f 53bf a9f8 2ebe
00000020: dee1 6ec0 a737 d1bf 6d8c 29c0 6744 e1be
00000030: 0812 8f3e 3ff6 06bf b65f 44bf 90b4 9fbe
00000040: 956a 80bf d184 a9bf a8c4 32c0 7fc6 23bf
00000050: fa21 8abf 7d4c dbbe 308c c7bf 5005 04bf
00000060: 3d9f bbbf 65e4 a9bf cf89 69c0 6d08 35c0
00000070: 6027 8e3d ed2d 89bf 9613 42bf eb07 02bd
00000080: 4f73 77bf 55bc 1fbf 91f0 8ac0 4222 6bc0
00000090: 8ee0 3ebf fcec eebe f720 b1be b8c4 b1bf
000000a0: 966f 32bf e11e 96bf 1107 85c0 1e1e bebf
000000b0: 9069 08c0 abb9 a2be dcd5 03bf e4e2 80bf
000000c0: 2e91 f4bf a414 80c0 a8e1 7bc0 1a56 c2be
000000d0: 4a7a d73e 2a44 85be 8b28 063e c759 b3be
000000e0: 6281 cbbe 4056 42c0 87d8 2ec0 cfae 2cc0
000000f0: b107 ddbd 716d 74be 52c8 1cbf 1d53 2abf
00000100: 4978 1fc0 c326 ecbf 99ad 26c0 f01b 383f
00000110: f7b4 c0bf 0bc3 63bf 98a8 6ebf cf97 5f3d
00000120: 3e2c c0bf 0dc7 18c0 7a3f 00c0 2147 91bf
00000130: 0181 dabd a5d7 013f 8175 25c0 7e90 053f
00000140: e5d0 52bf 3b2c aabf fd2b b2bf 4e0c 3ec0
00000150: 5786 06c0 d0a1 b9be 664c 8dbe b234 e6bf
00000160: 1242 ecbd 7d0c b7bd b9ea 1fbe d253 71bf
00000170: 9009 59c0 c9e2 f8bf 76a3 7abf e3cc 68c0
00000180: f6fe 033e 53f0 f2bd e5ce 2abf f026 47bf
00000190: da2c c5bf 4b5b 2cc0 9422 3bc0 6c13 9bbf
000001a0: f655 27bf 4712 88be 5cf9 b2bf 7fa1 82bf
000001b0: d48c 67c0 4b3d 72bf c2f9 b8bf 726d bebf
000001c0: aa19 04c0 db68 11be f122 35c0 3c72 35c0
000001d0: 72c9 053f 5f1a 08c0 46b1 c7be 3d7a f6bf
000001e0: dca6 89bf a3f8 8ebf 918b dcbe e936 14c0
000001f0: 4a7f 1cc0 fca2 6cbf bd12 b3bf 3b4e eabe
00000200: 1c9f 03bf d121 823f 959d 8bbf 9ec3 f6bf
00000210: 6cde 4fbe 2ce4 7dc0 3786 cabf 9465 76c0
00000220: 4f8d bfbf 2360 0bbe 167d 47c0 a451 79be
00000230: 5a28 313f 62e7 85c0 36bd 423d f9f4 8ec0
00000240: 1e3c 7cbe e01f b3bf 241c ac3e 4aa5 efbd
00000250: aed2 4ac0 596d 14c0 c0c2 b8bf df72 a0bf
00000260: 0c23 fcbe 603d a6bf 3b0d 58bf 1a67 71be
00000270: c3ff f1bf 0cd3 e1be af7a 3dc0 01af 3dbe
00000280: 121e 2fc0 576b 06c0 e24b 63c0 fb0a 62c0
00000290: b715 2dbe 270c 493f 7d9d d8be 7a4f ecbd
000002a0: 982c e5be 0c1c 3a3e d77b 3fc0 c219 a2be
000002b0: fb0e 60bf e8ec 8fc0 6f97 e9bf bd2c 12bf
000002c0: 5b4b 16c0 a56a c7bf 20c3 7dc0 7b5f 3abe
000002d0: 0131 b4bf c41d 06bf a933 053e 5fbf 85bf
000002e0: 5096 dabe 5c98 4d3e aa35 7bc0 623d 24be
000002f0: 14e3 03c0 8d7d 49c0 7a56 febe 0f24 1fc0
00000300: e9be 86bf af82 eebd 32ef 89c0 b93f eebe
00000310: 780a d9bf f82a a8bf 72ed 93bf 4bcf 78bf
00000320: bd89 53bf e296 80c0 a1d4 bdbf 33d9 2abe
00000330: cb9b 2e3e 09ab 82bf 89a7 f4be 3f28 8abf
00000340: a2b0 b73d a91d 1cbf 81e7 03c0 a81b fc3e
00000350: 27dc bcbf bc21 0fc0 29eb 33c0 56a9 36bf
00000360: f2a5 21bf c5f2 3fc0 d9fc 5ec0 698c 64bd
00000370: 8673 25c0 eee6 0cbf 12cd be3d f4ac 3bbf
00000380: 354b 95be cafa 69bf ccd5 fbbf b004 863d
00000390: 9579 73c0 f8ff cbbf 37e4 0dbf caa1 0bc0
000003a0: 79f6 44be ea3d 8fbf a272 5fc0 c575 bebd
000003b0: 7015 47c0 385a 61bf e363 bdbf 261c 02bf
000003c0: dcb5 2a3c ce14 1cc0 72a4 6cc0 1e6f 78c0
000003d0: fe7c d6bf db98 643e 7b25 963d bb5b c7bf
000003e0: 6696 c2bf 947b 41c0 48c5 40c0 a2d9 d7bf
000003f0: 7b08 cdbe 2f12 57be 2bf5 6c3f 122c 13c0

l3.bias f4 [55]
-0.31954744 0.26755628 -0.55346894 -0.8136533 -0.1901244 -0.5877716 0.1563428 0.065262236
-0.19349639 -0.61473054 -0.67719436 -0.8103433 -0.84955645 -0.30862132 0.44023782 -0.60458136
0.13072385 -0.37656927 -1.3010923 -0.94849557 -0.02952331 -0.915896 -0.8665267 -0.83405936
-0.8849999 -0.22240572 -0.9808832 -0.70436263 -0.376945 -0.2656893 -0.42473185 0.19411191
-0.18368523 -1.1866394 -0.34174022 -0.2677986 -0.65837127 -0.18609568 0.954071 -0.24599218
-0.3748017 -0.3507746 -0.3292679 -0.050568745 0.1136684 0.3887712 0.14016171 0.04242621
-0.15694173 -0.23598263 -0.5468572 -0.30623844 -0.10335685 -0.386903 -0.3816346
00000000: b99b a3be 23fd 883e 24b0 0dbf 954b 50bf
00000010: f9af 42be 3378 16bf 5418 203e 35a8 853d
00000020: eb23 46be fb5e 1dbf 9c5c 2dbf a972 4fbf
00000030: 887c 59bf 9d03 9ebe da66 e13e d8c5 1abf
00000040: 79dc 053e b0cd c0be 318a a6bf 9bd0 72bf
00000050: deda f1bc 2978 6abf b2d4 5dbf ea84 55bf
00000060: 5a8f 62bf 53be 63be 291b 7bbf 1c51 34bf
00000070: effe c0be 6e08 88be 7476 d9be 46c5 463e
00000080: fb17 3cbe cde3 97bf 93f8 aebe e61c 89be
00000090: 058b 28bf de8f 3ebe ff3d 743f 60e5 7bbe
000000a0: 02e6 bfbe ba98 b3be cd95 a8be 2c21 4fbd
000000b0: faca e83d 050d c73e 8d86 0f3e 1bc7 2d3d
000000c0: 55b5 20be 6ea5 71be d5fe 0bbf 49cb 9cbe
000000d0: c2ac d3bd 2618 c6be 9c65 c3be
