src/data.pth (torch, 5023 bytes, 6 tensors)

l1.weight f4 [8, 49]
000000 ac dc 8a be 83 36 df bd 8f 2f a3 3e 9d 88 ac 3e
       -0.27121484 -0.10899069 0.31872222 0.33697978
000010 33 f0 05 bf 0e d4 79 3e 4b e4 0b 3e ff 5c 11 bf
       -0.5231964 0.24397299 0.13661306 -0.56782526
000020 9f 43 c2 be d5 8f ef be e1 27 77 3e 00 4d 63 3e
       -0.37942216 -0.46789423 0.24136306 0.22197342
000030 69 5f be 3e 32 57 5d be 9b b6 cf 3e 67 b0 d5 3e
       0.37182167 -0.21615294 0.40569004 0.41736147
000040 b5 0b 80 3e 67 b6 18 bf bf 91 05 3f 96 cc 19 be
       0.25008932 -0.59653324 0.52175516 -0.1501945
000050 59 65 d5 3e 68 d6 e3 3e 9e 1c ba 3e b5 dc e7 3e
       0.41678885 0.44499516 0.36349958 0.45285574
000060 d7 4e a9 3d c0 41 e2 3e 69 78 9f be 7e 74 28 3d
       0.08266991 0.44190788 -0.31146553 0.04112672
000070 4c 3b fe bd 47 b1 bf 3e c4 05 69 be 32 0f 39 be
       -0.12413654 0.3743994 -0.22756106 -0.18072203
000080 c9 31 f0 bd e3 67 bf 3e 8a 01 11 3c fd b5 d5 3e
       -0.11728246 0.37383947 0.008850465 0.4174041
000090 77 2e e6 3e 27 4a 7d be 27 a0 00 3f 4d 38 0f bf
       0.44957325 -0.24735318 0.50244373 -0.55945283
0000a0 74 13 33 be f4 7b 85 3e 7e dc 81 3e 45 02 9e 3e
       -0.1748789 0.2607113 0.25363535 0.30861107
0000b0 a2 49 cc 3b 2d e7 d5 3e d5 03 b2 be f2 ca 65 be
       0.0062343637 0.41777936 -0.3476855 -0.22440699
0000c0 dd d9 17 bd 5b 89 90 3e 2c e9 a3 3e be ea 18 3f
       -0.037073005 0.28229794 0.32013834 0.5973319
0000d0 ba b5 91 3e bb 25 35 bf 16 a9 3a 3d e4 71 57 3d
       0.2845896 -0.707607 0.04557141 0.05259885
0000e0 3f 64 2e bf c8 93 98 be dc e9 ba be f6 7e 8a 3e
       -0.68121713 -0.29800248 -0.36506546 0.27049989
0000f0 5e f8 dc 3e 2c 02 cc 3e 05 38 86 be 0b 94 7c 3e
       0.4315824 0.39845407 -0.26214615 0.24665849
000100 a4 f5 05 3f fa de e9 3e e0 b9 2e bf a5 f8 3b 3d
       0.5232794 0.4567793 -0.6825237 0.045891423
000110 95 b1 80 3e 07 91 c4 3b 8c 35 41 3d 6c 8e 85 3e
       0.25135484 0.005998734 0.047170207 0.26085222
000120 8b 63 40 3e 31 ae 8f 3e c1 4c 22 3f c4 fa a5 be
       0.18787973 0.28062585 0.6339837 -0.3241788
000130 68 52 a6 3e 53 b3 e8 3d ba 6f db 3e f2 d9 b3 be
       0.32484746 0.113623284 0.42858678 -0.35127217
000140 33 8f 85 bd 59 f9 35 be 35 d8 2d 3f 87 91 04 3f
       -0.06521454 -0.177709 0.6790803 0.5178456
000150 fb 6a 3c 3f 69 4a 2e 3e 9a 71 af be df 04 21 3e
       0.7360074 0.17020573 -0.3426636 0.15724514
000160 a8 c4 81 3e 8c 13 be 3e ae 50 12 3e 49 d6 ba 3e
       0.2534535 0.37124288 0.1428859 0.36491612
000170 bd ca 5c 3e c1 b6 2a 3f 7c b7 a8 3e 7a c9 fa be
       0.21561714 0.6668511 0.32952487 -0.4898184
000180 2a f1 a7 be d1 45 6f bc bc 87 c0 bd 3e cf 92 bd
       -0.3280118 -0.014604048 -0.09400889 -0.071684346
000190 83 22 c7 be b7 be c7 3e f1 59 24 3f b9 e5 05 3f
       -0.38893518 0.3901269 0.6419974 0.52303654
0001a0 2b ac fa 3e 4b 18 07 bf cb 7f 04 3f 66 2a 0b 3f
       0.4895948 -0.52771443 0.51757497 0.5436157
0001b0 65 e1 07 3f 05 c3 35 be cf 64 60 be 98 27 8e 3e
       0.530783 -0.17750175 -0.21913455 0.27764583
0001c0 3b b1 0a 3e 44 85 0b be 03 00 10 3f df 24 07 bf
       0.1354417 -0.13625056 0.5625002 -0.52790636
0001d0 a2 38 1a 3f 22 d8 bc bd 4a 73 05 3f 56 21 31 3f
       0.60242665 -0.092209116 0.5212904 0.6919149
0001e0 52 8c c5 3e 87 92 aa 3e bf 66 53 3d bb 81 5e be
       0.38583618 0.33314916 0.05161166 -0.21729176
0001f0 bf f4 c2 be 7f 45 a6 3e 90 2c b5 3d aa a8 a4 bd
       -0.3807735 0.32474896 0.0884639 -0.080399826
000200 13 f2 fd 3e 74 e7 fa 3e 44 1a dd 3e d2 f6 06 bf
       0.4959875 0.4900471 0.43184102 -0.5272037
000210 89 dc 88 3e c7 23 ef be 7b 41 6a 3e 02 eb b0 be
       0.26730755 -0.46706983 0.22876541 -0.34554297
000220 08 69 bb 3e c1 f7 ec be b9 74 1b be 3d 4c 9d 3e
       0.3660357 -0.4628277 -0.15181245 0.30722228
000230 4e 27 9a be 37 40 a0 3e 04 30 9e bd 30 06 7c be
       -0.30108112 0.31298992 -0.07724002 -0.24611735
000240 61 0f e7 3e d0 09 83 3e 04 35 4c 3e 19 74 08 3f
       0.4512892 0.25593424 0.19942099 0.5330215
000250 fe e0 85 3e 45 20 c6 3e fd 92 87 3e 02 89 03 bf
       0.26148218 0.38696495 0.2647933 -0.5138093
000260 34 7b 38 be a5 ac 52 be 83 b4 03 3f 1a e6 fb 3c
       -0.18015748 -0.20573671 0.51447314 0.03074937
000270 74 5c 0e be fe d3 15 be 7f b0 ba 3e c7 dc 99 3e
       -0.13902456 -0.1463165 0.3646278 0.30051252
000280 ae b0 62 3e b6 7d 28 3e d3 b9 9b 3e 30 4a b5 be
       0.2213771 0.16454205 0.3041521 -0.35408163
000290 ed bb 96 3e 53 0e 00 bf d8 ec c8 3e fe dc ff be
       0.2944025 -0.5002186 0.39243197 -0.4997329
0002a0 c4 47 00 bf 2c 85 fe be 1e 32 b9 3e 1f 19 2b 3f
       -0.50109506 -0.49710977 0.3617105 0.66835207
0002b0 cc af 83 be 5f 56 4f 3e 32 54 90 3b 80 7e de 3e
       -0.2572006 0.20247792 0.004404568 0.43455887
0002c0 d6 e7 88 3e 04 8f a0 3d ef 70 68 bd 28 fc 4a be
       0.26739377 0.07839778 -0.056748327 -0.19822752
0002d0 2e 30 24 3f d2 09 06 3e ce ff 3e be 64 ca b3 3c
       0.64136016 0.13089684 -0.18652269 0.021947093
0002e0 e0 c7 a6 3e 1e e7 cd 3d f7 04 4e 3f 18 47 75 3e
       0.32574368 0.10053848 0.80476326 0.23952901
0002f0 63 f9 81 bd 85 c3 d5 3e 50 1d 57 3e 27 c0 18 3e
       -0.06346395 0.41750732 0.21007276 0.1491705
000300 1d ce 9c 3e 31 98 d2 be 73 8c 8f 3c 59 94 82 3e
       0.30626002 -0.41131738 0.017523026 0.25503805
000310 f2 44 62 3e 9e 2d 57 3e 57 7e d6 be 77 60 c8 3e
       0.22096613 0.21013495 -0.41893265 0.39136097
000320 20 c8 08 3f 94 aa 74 3e ae dc 2b 3f cb b0 04 bf
       0.53430367 0.23893195 0.67133605 -0.51832265
000330 17 2b f6 3e 25 54 d3 3e a6 73 e3 3e a3 f0 5b be
       0.4807975 0.41275135 0.4442417 -0.21478514
000340 11 f9 a2 be 2a 1b 6a 3e f3 4c d9 3e 9e 2c 96 be
       -0.31830648 0.22861925 0.4244152 -0.29330915
000350 ec 9e fd 3e 16 25 e2 be b0 1a 2d 3f e5 c2 65 3e
       0.4953531 -0.4416892 0.67618847 0.22437628
000360 43 14 1a 3f e6 c0 ee 3e 6f 16 df 3e 05 c2 1e 3f
       0.60187167 0.46631545 0.43571803 0.620148
000370 b0 9d f8 bd 28 06 76 be c0 a6 a3 be 3d bf 3f bd
       -0.121394515 -0.24025786 -0.31963158 -0.04681324
000380 6f 3b aa 3e 1d 79 60 be 7c 0a 15 3f 78 f3 a2 3e
       0.3324847 -0.21921201 0.5821912 0.31826377
000390 76 52 8f 3e 6d 28 16 bf 3a da 58 bd 2d fb ef be
       0.279926 -0.58655435 -0.052942492 -0.4687132
0003a0 f7 8d d8 3e 08 93 97 be 6b 72 a4 3e bb 0f 9b bc
       0.4229581 -0.29604363 0.32118544 -0.0189284
0003b0 a8 2e b0 3d 14 d0 a0 3e b0 40 cc be 68 01 6e 3e
       0.08602649 0.3140875 -0.39893103 0.23242724
0003c0 ae c6 0d bd 6e d5 eb bd 53 be 91 3e 2a d2 c0 3e
       -0.034613304 -0.11515318 0.28465518 0.37660342
0003d0 06 01 c3 3e 82 d7 ff 3e e2 ee bb 3e 69 09 3f ba
       0.38086718 0.49969107 0.3670569 -0.0007287474
0003e0 5f a1 46 3c 03 c3 fc 3e e7 f4 ef bd 62 97 e2 bc
       0.012123435 0.49367532 -0.11716633 -0.027660076
0003f0 54 99 2d 3f 6b 83 61 3e 05 57 44 3e 60 94 47 be
       0.67812085 0.22022788 0.1917382 -0.19490194

l1.bias f4 [8]
000000 3c ce 18 3f 1d bc 2e 3f c7 11 07 3f 34 08 00 3f
       0.5968969 0.6825579 0.527615 0.50012517
000010 e8 4c 0a 3f f3 c5 19 3f 90 3a 50 3f 3f e9 26 3f
       0.540236 0.6006767 0.8133936 0.65199655

l2.weight f4 [8, 8]
000000 a5 1c 25 bf c1 22 bf 3d 29 a6 66 bf eb 51 b2 3f
       -0.64496833 0.09332801 -0.9009729 1.3931249
000010 42 ac 7b be db a9 a3 3f 49 21 9a 3f 75 c2 77 3e
       -0.2457743 1.2786211 1.2041408 0.24195273
000020 f9 b2 4b be 18 78 b4 3e e5 66 a5 3f e0 fc 5e bd
       -0.19892491 0.35247874 1.2922026 -0.05444038
000030 06 51 8b 3f 1f af db 3e c6 c1 3e bf b7 23 28 3f
       1.0884101 0.42907044 -0.74514425 0.65679497
000040 60 00 ed 3e b2 ed 17 3f 72 5c 56 3e 29 13 9b bf
       0.4628935 0.5934707 0.20933703 -1.2115222
000050 a0 a5 55 3e 37 96 23 bf 09 eb 26 3d e9 80 33 3f
       0.20863962 -0.63901085 0.04075149 0.70118576
000060 0a b6 5e 3f eb c4 d0 3e cb c0 a9 be 98 60 4d be
       0.8699652 0.40775236 -0.33154902 -0.20056379
000070 5a e9 c7 be 2f d7 d4 be bb bc 9a 3f ba e9 b8 3f
       -0.3904522 -0.41570422 1.2088846 1.4446328
000080 3a 7f 84 be a8 c4 e9 bd 60 7e 71 bd ab b2 00 be
       -0.25878316 -0.11414462 -0.05895841 -0.12568156
000090 66 59 93 be 76 a4 f6 bd 49 b5 00 be 20 1c 6a bd
       -0.28779143 -0.12043087 -0.12569155 -0.05715573
0000a0 e7 70 10 3f 58 34 7e 3f 14 66 c1 bd aa 0b 95 3f
       0.56422275 0.9929862 -0.09443298 1.1644185
0000b0 18 54 ae be 95 e1 28 3f 83 28 e3 3d bf 19 89 bf
       -0.34048533 0.6596921 0.11091711 -1.0710982
0000c0 a2 e6 e2 3f e0 47 a6 3f 14 46 c1 bd 7c 67 d1 be
       1.7726634 1.2990685 -0.094371945 -0.40899265
0000d0 1c 8e b1 3e 85 5f 41 bf b8 ad a8 3e bb 30 8d 3e
       0.34678733 -0.75536376 0.32945037 0.2757624
0000e0 c5 57 9d 3e c3 18 04 bf 0c 68 95 3f 2e 35 3a bf
       0.30731025 -0.51600283 1.1672378 -0.72737396
0000f0 b2 3f 91 3f 7c 6f 2e 3e 00 3a 3b 3f 5e a0 ae 3f
       1.1347563 0.17034715 0.73135376 1.364269

l2.bias f4 [8]
000000 65 0c 38 3d 5f bf 47 3f 95 f4 ce be d1 fd 81 3e
       0.044933695 0.78026384 -0.40420976 0.2538896
000010 a8 91 34 be 92 eb 0a 3f 68 1e c1 3e 85 d0 c7 3e
       -0.17633688 0.542657 0.3771851 0.39026275

l3.weight f4 [7, 8]
000000 2a d9 e0 bf 9b ab 09 3f 69 82 14 3f 71 13 15 3d
       -1.7566273 0.53777474 0.5801149 0.036395494
000010 e8 80 a0 bd 73 5b 2c 3f 72 d9 e6 3e 6e 6d e3 bf
       -0.07837087 0.6732704 0.45087773 -1.776777
000020 53 95 a9 bf 07 44 5c 3f 5a 30 da be 53 d3 b5 bf
       -1.3248695 0.860413 -0.42615014 -1.4205116
000030 d0 69 a1 3c c9 43 96 bf 36 89 2e bf df 2b 58 3f
       0.019703776 -1.1739436 -0.6817812 0.8444194
000040 9a 0f 2c 3f 52 f5 c7 be 50 31 61 bf c8 87 fd 3e
       0.67211306 -0.39054352 -0.8796587 0.49517655
000050 57 bf 96 3e a5 da 82 bf 38 5b bb bf e0 32 85 3e
       0.29442856 -1.0222975 -1.4637213 0.26015377
000060 47 d1 b7 bf 5b c2 fe bb d7 ef b8 3f 75 40 df 3e
       -1.4360741 -0.007774634 1.4448193 0.43603864
000070 89 11 87 3e 89 b3 e6 bf 23 95 a4 3e 6d 28 11 3f
       0.26380566 -1.802354 0.32145032 0.5670231
000080 30 9a c3 bc 07 1e 92 bf 88 89 98 bf db cd ca 3e
       -0.023877233 -1.1415414 -1.1916971 0.3961018
000090 20 82 01 3c cb a3 d9 3e 9d 55 85 3e 2f 1f 99 bf
       0.007904559 0.42507777 0.2604188 -1.1962641
0000a0 a2 e4 26 bf c4 ed dc 3d 95 9c cd bf 98 c7 75 3e
       -0.65192616 0.10787538 -1.606341 0.2400192
0000b0 59 a4 11 be 5f d4 92 bd 82 b0 d7 3e 7d 45 d0 3e
       -0.1422285 -0.07169413 0.42126852 0.40678015
0000c0 b3 97 59 3f ed 8f c7 3e d2 b1 58 bf 42 8e a4 bf
       0.849971 0.38976994 -0.8464633 -1.2855914
0000d0 bf bb 84 3e 52 62 f1 3e 07 21 66 bf e0 bd ad bf
       0.2592449 0.47145325 -0.89894146 -1.357357

l3.bias f4 [7]
000000 99 a6 39 3d 18 3e 8f 3e 9d c6 24 be 58 48 a4 be
       0.045324896 0.2797706 -0.1609139 -0.32086444
000010 3a b5 8e be 33 ed d5 3d 8d 20 1c 3e
       -0.2787264 0.10445633 0.15246792
