src/data.pth (torch, 27691 bytes, 6 tensors)

l1.weight f4 [8, 462]
1.9916966 3.47955 -0.39637694 0.2606496 0.7965212 0.1707769 0.09297511 0.11473571
1.804532 1.4150729 3.2751153 -0.07954183 0.8054458 0.22558 1.8738408 0.6715139
1.4116392 -0.35781196 1.7449076 -0.4318571 -0.39985487 0.24710368 0.9208294 1.6348168
1.8917586 1.5488404 2.1349654 0.68842036 0.8764349 0.5119391 0.7762368 0.54254085
0.6097617 0.48925254 2.9833467 0.22703794 0.30389142 0.20642778 4.213642 0.79388744
0.90332305 0.5783063 0.26221305 2.0747836 -0.0862384 2.4239013 0.23918276 5.2328267
0.63621557 0.25791162 -0.046391197 1.6050247 0.20115334 0.56980443 0.6043143 0.78860563
0.64731956 0.6990666 0.6557447 0.6088896 0.11867819 0.21269043 1.9663407 2.955824
2.4277103 2.0311368 3.8693001 0.2108126 0.34080452 0.1413268 2.8826723 0.18639329
2.0840838 -0.46275878 0.20670621 0.20571217 0.43608445 0.88964546 1.7582595 1.8731816
0.76609075 -0.50533026 -0.41520682 -0.4569469 -0.41315636 -0.4486144 -0.45311794 -0.41059664
1.9641173 -0.11948959 0.60444105 -0.41899052 0.26116478 0.030164592 -0.38980514 -0.42875832
-0.44670743 -0.010734796 3.7322385 0.44886038 0.44545174 0.4115696 0.21449655 0.07852981
1.2162232 0.19640821 0.28764355 0.77587545 0.23722373 0.5084809 1.4377769 0.2506028
-0.013349152 -0.41408995 -0.53361404 0.73865855 -0.42946145 -0.4238742 0.8238232 0.24256878
-0.28639463 -0.19932577 -0.060564313 -0.19928062 -0.28589976 -0.306588 0.48836568 1.822267
3.576356 0.3616305 0.41081157 0.5584586 0.35671154 3.1675947 0.92475724 0.7104232
2.0336916 0.064668074 1.7092766 -0.46154088 2.5234208 2.810398 -0.10665465 0.047793247
1.9748873 0.2739186 -0.284452 -0.08701813 2.243868 0.27471623 2.8753626 1.8571991
-0.43951613 1.7177106 2.1437624 3.5985668 -0.44725218 -0.3804431 -0.009781659 -0.41826946
-0.42305267 -0.36932877 0.8098778 -0.2645798 0.15449867 -0.4432231 0.03234651 0.67201626
-0.3584483 0.9009155 0.25784782 0.7483548 0.58019257 1.3956003 -0.1313374 1.8591592
2.8831017 0.39477506 0.2698354 -0.2726032 0.007133074 -0.6116626 0.55052483 -0.181449
-0.13966604 3.3749957 0.75640166 1.8918934 1.386091 0.3330148 0.85271066 0.17742881
0.26206148 0.5909773 0.64260614 0.81631416 0.8012021 0.68005234 -0.07985274 0.8833813
-0.57630295 5.716735 0.7474578 1.2861581 1.7757046 1.4095312 1.1703615 -0.12181096
-0.062621124 0.2778162 0.23846063 -0.011870057 0.43593878 2.6800165 -0.10753818 -0.35930666
0.05261441 -0.35870826 0.84770226 0.6569116 0.60986245 -0.19552785 0.25638118 0.24804236
0.79663867 0.886329 0.775283 1.5576069 1.4050076 0.20688044 0.18308663 0.8671732
0.7960778 0.8098934 -0.075704694 3.9175706 -0.40695807 -0.14807436 -0.01815299 0.34335992
0.9772255 0.75831616 0.055139303 -0.9324666 2.1757598 0.77728224 -0.29786488 0.7122274
2.2756627 2.5329387 -0.118688814 3.850808 -0.12603578 1.2656274 0.15314451 0.7736878
00000000: eaef fe3f f2b0 5e40 ebf1 cabe dd73 853e
00000010: d0e8 4b3f 24e0 2e3e bc69 be3d 8efa ea3d
00000020: e8fa e63f 1c21 b53f 7d9b 5140 d4e6 a2bd
00000030: b231 4e3f 72fe 663e 04da ef3f 56e8 2b3f
00000040: 98b0 b43f 2133 b7be 2259 df3f 601c ddbe
00000050: c7b9 ccbe bf08 7d3e 7abb 6b3f ad41 d13f
00000060: 2525 f23f 6740 c63f 46a3 0840 513c 303f
00000070: 0a5e 603f 710e 033f 74b7 463f f5e3 0a3f
00000080: 5819 1c3f 4f7f fa3e 27ef 3e40 a27c 683e
00000090: a897 9b3e ce61 533e 28d6 8640 353c 4b3f
000000a0: 2e40 673f e20b 143f ca40 863e 41c9 0440
000000b0: c29d b0bd 3321 1b40 53ec 743e 5173 a740
000000c0: 06df 223f fe0c 843e b204 3ebd 7371 cd3f
000000d0: 24fb 4d3e b4de 113f 58b4 1a3f 0fe2 493f
000000e0: bcb6 253f 07f6 323f e2de 273f 30e0 1b3f
000000f0: 8d0d f33d 85cb 593e 0db1 fb3f 382c 3d40
00000100: 9b5f 1b40 25fe 0140 9da2 7740 42df 573e
00000110: ee7d ae3e f9b7 103e b47d 3840 e2dd 3e3e
00000120: a161 0540 b8ee ecbe cbaa 533e 36a6 523e
00000130: 7646 df3e cebf 633f a60e e13f 6ac4 ef3f
00000140: 861e 443f 535d 01bf fd95 d4be f2f4 e9be
00000150: 3b89 d3be c9b0 e5be 13ff e7be b939 d2be
00000160: 3268 fb3f f5b6 f4bd a6bc 1a3f ed85 d6be
00000170: 64b7 853e bc1b f73c 8a94 c7be 3686 dbbe
00000180: d6b6 e4be ffe0 2fbc ffdc 6e40 07d1 e53e
00000190: 4012 e43e 40b9 d23e fca4 5b3e 3dd4 a03d
000001a0: 34ad 9b3f 3c1f 493e 0446 933e c69f 463f
000001b0: c7ea 723e ce2b 023f 1309 b83f 034f 803e
000001c0: 67b6 5abc 9903 d4be ee9a 08bf ba18 3d3f
000001d0: 5fe2 dbbe 0a06 d9be 14e6 523f f363 783e
000001e0: 51a2 92be 0e1c 4cbe 4912 78bd 3810 4cbe
000001f0: 7461 92be 1af9 9cbe 110b fa3e 0c40 e93f
00000200: 04e3 6440 a227 b93e e555 d23e 25f7 0e3f
00000210: e5a2 b63e dfb9 4a40 e4bc 6c3f 4bde 353f
00000220: 0128 0240 b270 843d 93c9 da3f 164f ecbe
00000230: ba7f 2140 90dd 3340 c16d dabd dac2 433d
00000240: 1bc9 fc3f 0f3f 8c3e b1a3 91be 9036 b2bd
00000250: 899b 0f40 9ba7 8c3e f105 3840 b3b8 ed3f
00000260: 4208 e1be f1dd db3f 6733 0940 eb4e 6640
00000270: 3dfe e4be 70c9 c2be 4043 20bc 6a27 d6be
00000280: 5c9a d8be a918 bdbe 2754 4f3f 0177 87be
00000290: e634 1e3e 23ee e2be c67d 043d 4209 2c3f
000002a0: 8986 b7be 66a2 663f a104 843e 2e94 3f3f
000002b0: 8087 143f 08a3 b23f 507d 06be eef8 ed3f
000002c0: bd84 3840 f51f ca3e de27 8a3e a692 8bbe
000002d0: 90bc e93b ec95 1cbf 32ef 0c3f c4cd 39be
000002e0: 9d04 0fbe eeff 5740 8aa3 413f 9029 f23f
000002f0: 6e6b b13f ea80 aa3e 3f4b 5a3f e6af 353e
00000300: ec2c 863e 4a4a 173f d681 243f f7f9 503f
00000310: 951b 4d3f e917 2e3f d589 a3bd 4725 623f
00000320: 9788 13bf 7eef b640 6559 3f3f d4a0 a43f
00000330: 4a4a e33f 856b b43f 68ce 953f 0678 f9bd
00000340: 813f 80bd ed3d 8e3e 062f 743e a17a 42bc
00000350: 5e33 df3e 6485 2b40 fa3c dcbd 0bf7 b7be
00000360: 3582 573d 9ca8 b7be 0403 593f 5c2b 283f
00000370: f21f 1c3f 7438 48be 6544 833e d1fe 7d3e
00000380: 83f0 4b3f 75e6 623f f278 463f aa5f c73f
00000390: 4ad7 b33f 77d8 533e 107b 3b3e 10ff 5d3f
000003a0: c1cb 4b3f 2d55 4f3f 100b 9bbd 7ab9 7a40
000003b0: cf5c d0be cea0 17be 94b5 94bc dfcc af3e
000003c0: 732b 7a3f 0221 423f c0d9 613d 22b6 6ebf
000003d0: a63f 0b40 f8fb 463f bf81 98be 8954 363f
000003e0: 75a4 1140 ab1b 2240 1f13 f3bd a373 7640
000003f0: 860f 01be 1400 a23f ead1 1c3e 6710 463f

l1.bias f4 [8]
2.0655172 1.3776816 2.435668 2.7479038 1.338747 1.3781086 0.7711309 2.366353
00000000: 6f31 0440 df57 b03f fce1 1b40 a8dd 2f40
00000010: 105c ab3f dd65 b03f d668 453f 5472 1740

l2.weight f4 [8, 8]
2.8108206 0.89878607 3.0696502 -1.0417861 1.81823 -0.461475 -1.230948 0.9763609
-1.3806392 1.7956342 -0.5336453 1.0292859 4.003547 2.782282 1.3097031 -0.07924538
-1.2776239 -0.22901265 1.5361687 3.0227194 -1.0162889 4.1794887 -2.5101895 0.986877
-0.048862576 3.1100857 2.4129272 1.7992237 -0.4276994 1.365482 -0.11332753 -2.6869876
1.3234854 -2.3498895 0.7403959 0.97922504 2.167487 2.3325934 1.1433027 4.1657987
0.87042767 4.119829 -1.6408231 1.5477436 1.3035183 -0.108644396 4.2404375 1.723997
1.562659 2.459784 2.630369 2.0031157 -2.630898 -0.657143 0.34011555 3.084292
1.5460927 -1.9980255 0.3816345 2.5510368 0.6728955 0.2553724 2.783673 -2.0812297
00000000: 7ce4 3340 d816 663f 2675 4440 3f59 85bf
00000010: c3bb e83f 7446 ecbe b48f 9dbf caf2 793f
00000020: c9b8 b0bf 57d7 e53f fa9c 08bf a4bf 833f
00000030: 0f1d 8040 e910 3240 5aa4 a73f 674b a2bd
00000040: 2e89 a3bf 4b82 6abe 2da1 c43f 3c74 4140
00000050: c115 82bf 5fbe 8540 f2a6 20c0 f9a3 7c3f
00000060: 2024 48bd a50b 4740 666d 1a40 f64c e63f
00000070: 6afb dabe 1dc8 ae3f 4418 e8bd 9bf7 2bc0
00000080: f867 a93f 9764 16c0 968a 3d3f 7eae 7a3f
00000090: 1bb8 0a40 3649 1540 be57 923f 394e 8540
000000a0: 59d4 5e3f a4d5 8340 7e06 d2bf 761c c63f
000000b0: b0d9 a63f f480 debd aab1 8740 efab dc3f
000000c0: 3605 c83f 1a6d 1d40 f757 2840 0c33 0040
000000d0: a260 28c0 863a 28bf a023 ae3e 0a65 4540
000000e0: 5ee6 c53f 4dbf ffbf 9965 c33e 3044 2340
000000f0: e142 2c3f 2cc0 823e b327 3240 de32 05c0

l2.bias f4 [8]
0.79244787 0.32580686 1.1093959 1.0543469 1.587176 1.3347706 0.5988756 1.5880682
00000000: dddd 4a3f 28d0 a63e af00 8e3f d7f4 863f
00000010: 9528 cb3f c3d9 aa3f e94f 193f d245 cb3f

l3.weight f4 [55, 8]
-0.5203624 -1.7491907 -3.4895127 -0.6090381 -1.0024236 -1.0449967 -0.80050415 0.42784902
-0.92047626 -0.91832757 -0.50227416 -0.22923376 -1.1636527 -3.0267804 -1.4969299 -0.20048791
-0.2696532 -1.1661003 -1.9286475 -0.64025927 -0.47052264 -1.6331522 -2.2467244 -0.2043205
-0.2559208 -0.58467853 -0.42723018 -2.2309802 -0.3196992 -2.7757013 -1.2530451 -1.390843
-0.4429239 -0.19296284 -3.5805101 -0.6106386 -1.7035344 -0.32514957 -1.7551382 0.0024800075
-0.99040043 0.07573696 -0.73942244 -0.9366904 -0.420142 -2.0609744 -2.8819995 -0.6698508
0.21399923 -2.9961054 -1.2955353 -1.6498249 -0.27885604 -2.2208622 -0.9834271 -0.27099875
-0.18172754 -1.4559201 -1.4877013 -0.23919106 -1.5752479 -1.6117435 -0.86336476 -0.9282675
-0.8200774 -2.5333323 -0.35975078 -3.6812603 -0.54803175 -0.07078486 -0.020814722 -3.4192226
-0.62699336 -1.2533785 -2.1208467 -3.6844916 -0.07458235 -0.0064448495 -0.43946537 -3.4325998
-0.9026474 -0.14469177 -1.1336274 0.15459533 -2.0906873 -0.8104283 -2.322388 -0.12646697
-1.8038865 0.13370751 0.38099495 0.20458052 -1.6271807 -1.1655521 -2.954365 -1.5988797
-2.914269 0.35562012 -0.5216224 0.49022502 -2.7053394 0.43243566 -2.7052715 -0.6169179
-4.5955524 -0.40247604 0.20861837 0.37645617 -1.2290074 -0.50548935 -2.722866 0.23268516
-1.4894931 -1.2432958 -0.63853407 -1.2747664 -0.7732002 -1.0464975 -1.5130763 -0.38813013
-1.9433582 -0.30956447 -1.5296687 -0.9158762 -1.9755468 -0.03723193 -1.0091138 -0.39632803
-1.0548495 -0.93285227 -0.025705896 -0.58374685 -1.4627252 -0.90503645 -0.38612232 -5.287262
-2.6606085 -1.5686538 0.94163156 -0.07330658 -1.2966214 -2.4290876 -0.9472253 -0.58125746
-1.9595796 -0.9634961 -1.3687648 0.62102187 -4.152326 -0.24306698 0.37160924 -0.2996315
-4.3549004 -1.1912509 -2.261972 -0.35507804 -1.7379066 0.25699368 -0.30959436 0.8517509
0.53392565 -3.188141 -2.8275287 0.15025574 -2.477862 -1.0670681 -0.07429183 -0.4618608
-0.8699181 0.55867547 -2.628084 -1.0092303 -0.45604017 0.4264453 -3.7502034 -2.3872974
0.2749675 -0.15223528 -2.645735 -2.0638125 -0.65727526 -1.0619764 -1.6816999 -1.140129
-0.51881814 -0.05835976 -0.03022246 -1.5120478 -0.10754549 -0.9788126 -3.3537679 -3.2945862
-0.5076893 0.05768037 -0.69968706 -2.6849737 0.036047146 -0.38595602 -4.6612506 -0.922101
-0.35302365 -3.6263285 -3.1873593 -1.7940428 -0.70708674 0.010657763 -0.42626092 -0.5330989
-3.268447 0.22841187 -1.0875604 -1.2403669 -0.7316302 0.21066542 -2.7999837 -0.6323917
-1.1625457 -0.32074997 -1.689193 -2.9477851 -0.563989 -0.580502 -2.067043 0.3355962
-2.448022 -0.17219698 0.557095 -1.880642 0.07291254 -1.1673665 -3.1296334 -1.2696903
-3.5574503 -0.41730642 -0.384776 -2.4105985 -0.6066206 -0.30687386 -2.0000196 0.30336496
0.25132716 -0.8123814 -3.794933 0.037484165 -2.3930287 -0.9240701 -0.63574755 -0.44629416
-0.19547494 -3.3907065 0.34361318 -0.5645872 -0.7128017 -3.6994247 -0.4783511 -1.3334324
00000000: 7836 05bf 7be5 dfbf 2d54 5fc0 ece9 1bbf
00000010: 6b4f 80bf 74c2 85bf d7ed 4cbf 070f db3e
00000020: 55a4 6bbf 8417 6bbf 0a95 00bf 41bc 6abe
00000030: 92f2 94bf c5b6 41c0 669b bfbf b44c 4dbe
00000040: fc0f 8abe c642 95bf ecdd f6bf 08e8 23bf
00000050: 58e8 f0be 220b d1bf 55ca 0fc0 6539 51be
00000060: 0d08 83be 7ead 15bf eabd dabe 61c8 0ec0
00000070: 9daf a3be 17a5 31c0 c863 a0bf 2507 b2bf
00000080: ecc6 e2be 0d98 45be 1427 65c0 d052 1cbf
00000090: 6a0d dabf 017a a6be 5ea8 e0bf 9f87 223b
000000a0: e28a 7dbf fb1b 9b3d ca4a 3dbf f1ca 6fbf
000000b0: da1c d7be 01e7 03c0 ae72 38c0 587b 2bbf
000000c0: 9d22 5b3e 31c0 3fc0 1ad4 a5bf 762d d3bf
000000d0: 38c6 8ebe 9b22 0ec0 e1c1 7bbf 59c0 8abe
000000e0: c916 3abe 975b babf ff6c bebf 80ee 74be
000000f0: b9a1 c9bf 9c4d cebf 7905 5dbf f0a2 6dbf
00000100: 98f0 51bf 1e22 22c0 4131 b8be c599 6bc0
00000110: cf4b 0cbf a7f7 90bd a383 aabc 8bd4 5ac0
00000120: a382 20bf b56e a0bf f4bb 07c0 b6ce 6bc0
00000130: a2be 98bd 512f d3bb 9b01 e1be b7af 5bc0
00000140: e613 67bf 142a 14be b41a 91bf 3d4e 1e3e
00000150: d2cd 05c0 3b78 4fbf 01a2 14c0 8f80 01be
00000160: c1e5 e6bf 9fea 083e c511 c33e 8e7d 513e
00000170: 7547 d0bf d030 95bf 5114 3dc0 17a8 ccbf
00000180: 6283 3ac0 d713 b63e 0c89 05bf c6fe fa3e
00000190: 4824 2dc0 3568 dd3e 2b23 2dc0 55ee 1dbf
000001a0: c40e 93c0 5711 cebe 0ea0 553e ddbe c03e
000001b0: 1d50 9dbf c067 01bf 7043 2ec0 0545 6e3e
000001c0: b6a7 bebf 5124 9fbf f876 23bf 8c2b a3bf
000001d0: 73f0 45bf a1f3 85bf 7cac c1bf feb8 c6be
000001e0: f6bf f8bf 3c7f 9ebe 2fcc c3bf dd76 6abf
000001f0: b8de fcbf 8280 18bd a42a 81bf 82eb cabe
00000200: 4f05 87bf 68cf 6ebf 2c95 d2bc 6f70 15bf
00000210: 943a bbbf 78b0 67bf d3b1 c5be 4031 a9c0
00000220: 6947 2ac0 a6c9 c8bf c40e 713f c321 96bd
00000230: b1f7 a5bf 2c76 1bc0 5b7d 72bf 4acd 14bf
00000240: 81d3 fabf aea7 76bf af33 afbf 4afb 1e3f
00000250: dbdf 84c0 8de6 78be 9143 be3e 4d69 99be
00000260: 585b 8bc0 e97a 98bf 26c4 10c0 cacc b5be
00000270: b973 debf ad94 833e 2783 9ebe 590c 5a3f
00000280: 5aaf 083f 810a 4cc0 3bf6 34c0 a4dc 193e
00000290: 4a95 1ec0 b095 88bf 5126 98bd 0579 ecbe
000002a0: f4b2 5ebf 5b05 0f3f 8732 28c0 752e 81bf
000002b0: 197e e9be 0a57 da3e 5503 70c0 7bc9 18c0
000002c0: 8ac8 8c3e 91e3 1bbe b953 29c0 8115 04c0
000002d0: 3143 28bf d8ee 87bf f141 d7bf bfef 91bf
000002e0: 44d1 04bf a50a 6fbd 1895 f7bc c88a c1bf
000002f0: cf40 dcbd 7693 7abf 22a4 56c0 80da 52c0
00000300: edf7 01bf 4042 6c3d b11e 33bf 9cd6 2bc0
00000310: 2ca6 133d 079c c5be f728 95c0 d00e 6cbf
00000320: 84bf b4be c415 68c0 b2fd 4bc0 32a3 e5bf
00000330: a303 35bf e69d 2e3c df3e dabe 2b79 08bf
00000340: 3c2e 51c0 cde4 693e 2e35 8bbf 58c4 9ebf
00000350: 1e4c 3bbf adb8 573e ef32 33c0 6ce4 21bf
00000360: 4cce 94bf 5739 a4be 7a37 d8bf 83a8 3cc0
00000370: 9561 10bf c79b 14bf 6f4a 04c0 44d3 ab3e
00000380: 64ac 1cc0 6854 30be c79d 0e3f e1b8 f0bf
00000390: 2b53 953d 446c 95bf ea4b 48c0 3685 a2bf
000003a0: 44ad 63c0 30a9 d5be 5c01 c5be 3f47 1ac0
000003b0: 7d4b 1bbf 921e 9dbe 5200 00c0 a752 9b3e
000003c0: f4ad 803e 3af8 4fbf 2fe0 72c0 ff88 193d
000003d0: 6227 19c0 dc8f 6cbf 5ac0 22bf ab80 e4be
000003e0: 952a 48be 5601 59c0 11ee af3e c988 10bf
000003f0: 2c7a 36bf 60c3 6cc0 6fea f4be eaad aabf

l3.bias f4 [55]
0.0968966 -0.03961541 -0.19554599 -1.3691542 -0.32674876 -0.11664068 -0.2615491 -0.6293026
-0.91301787 -0.95473653 -0.87460226 -0.55376875 -0.61094165 0.18308239 1.4258107 -0.43325293
-1.1179322 -0.52570444 -1.147475 0.2825907 0.08663746 0.22016937 -0.45938575 -0.26222432
0.34250554 0.31466454 0.1359743 -0.6432069 -1.5617862 -0.08530892 -0.18903582 -0.8201824
0.012864186 0.1357341 -0.6348813 -0.68252236 -0.5781292 0.10929545 1.3741387 -0.20551364
-0.2382396 -0.4665349 -1.1981417 -0.48263738 -0.44982722 -0.32718796 -0.44538775 0.28895646
-0.31090492 -0.5130979 -1.0243447 -0.39770555 -0.007734743 -0.43503335 -0.13429321
00000000: ba71 c63d c543 22bd 353d 48be 7240 afbf
00000010: 9d4b a7be 4fe1 eebd c3e9 85be fa19 21bf
00000020: 8abb 69bf 9d69 74bf efe5 5fbf cac3 0dbf
00000030: ac66 1cbf f379 3b3e f780 b63f 54d3 ddbe
00000040: 6718 8fbf 9194 06bf 76e0 92bf baaf 903e
00000050: fb6e b13d 1474 613e 9c34 ebbe 4442 86be
00000060: e35c af3e b61b a13e d93c 0b3e 35a9 24bf
00000070: 9ce8 c7bf 71b6 aebd 9b92 41be 79f7 51bf
00000080: 4fc4 523c e1fd 0a3e 9587 22bf c9b9 2ebf
00000090: 4600 14bf 4bd6 df3d c7e3 af3f 2b72 52be
000000a0: 15f5 73be aadd eebe b55c 99bf 3f1c f7be
000000b0: c14f e6be 2e85 a7be dd09 e4be 1af2 933e
000000c0: ee2e 9fbe 625a 03bf ba1d 83bf 10a0 cbbe
000000d0: ba73 fdbb b1bc debe 2984 09be
