src/data.pth (torch, 8287 bytes, 6 tensors)

l1.weight f4 [8, 98]
00000000: 5694 33be 7ce7 043e 65e5 82bc 17cb d63e
00000010: 2c10 293f 3f99 c6be 7ad4 803e 3b1e a63e
00000020: 65c6 273f a27e d73e 2640 2e3f 01fd e13e
00000030: 21dd 28bf a9a6 483f 0d0e c63d 4c7f 7abe
00000040: 59d4 013f e780 c63e 3cb0 a6be 9c11 16bd
00000050: 7ee0 153f c4e0 603f c9a3 f7be 26e1 25bf
00000060: 332d 853f 5f2c a13e e39d 22be 0a6e a13e
00000070: 30f8 893f 78b9 ebbe 9cfe dfbe db0e 4e3e
00000080: 5d5d 97bd e9ee cc3e 6b6b 063f f7d4 493f
00000090: 38d9 a33f 65c8 b63e 2004 aa3f f976 ab3f
000000a0: 46cc b13f 06b9 333f b472 f8be 9d69 d93e
000000b0: 2f01 2c3e 3cfb 4abe e822 803e 4321 35be
000000c0: c4d0 6c3f f4bb 78bf d769 d2be e3c4 4abf
000000d0: 15bd 1fbf adaa c03e 20ac 623f b8c3 f93d
000000e0: e4b7 f03e 4339 f03d 3b2f ca3e b415 603f
000000f0: 4234 853e 025e 1c3f cfbe c63e e59b 44be
00000100: 7f39 43bf 6443 923e 6702 6a3d 8e56 903f
00000110: 7bab 603f a290 10bf e833 b0be 615c 473d
00000120: 13a2 423e a1b3 c83d b71d b4be 6589 9e3e
00000130: 5080 453f 72ee 733f 2124 d1be ae71 9fbd
00000140: f9db a63f 0e2c 6a3e f951 213f 7b63 e23e
00000150: 1040 1c3f f94e 01be 7223 233f 9351 773d
00000160: 4654 843e d9fd 3f3f f30d fb3d dbf3 043f
00000170: 07b3 84be f456 84bf 025e ad3e 7176 21be
00000180: eca1 e23d 0f01 223e 5fdb 93be d06b 02bd
00000190: 3360 62be ef4a ba3e c16b c93e affa a93e
000001a0: e4c3 903e ef9a 463e e356 9c3f acc3 893e
000001b0: d175 da3e da81 583f 2186 f33e f904 b83e
000001c0: 423a 6abe 6ee5 16bf 8989 87bf f3df 7c3e
000001d0: 080f 213f 074f 11bf 73ab bc3e 3200 973e
000001e0: 5629 e03e 3a12 b7be 9d73 733d 413e 9d3e
000001f0: 63db 4e3f ac96 223e 5044 80bf 335c b73e
00000200: adb9 b03d f505 5fbc ff43 14bf 57d9 0e3f
00000210: 17ba 8abf 73c7 bf3e 6d8c a83e 274e 41bd
00000220: 9aa3 ec3e e72d dc3e 1c67 acbe 9949 023f
00000230: 7f9b 763f e035 cc3d 364a c4bd 149f 16bf
00000240: fcbc 3ebf b167 14bf 8e30 603f e341 afbf
00000250: 960f 6e3e a433 a3be 3c08 c53d 2891 c63e
00000260: e227 053f f4ec 9dbe d8bc ed3e 09f5 15be
00000270: 8f81 3d3e 2313 1bbf aec8 3dbe c06d ef3e
00000280: 0059 55bf fe97 843e 6182 243f 9a15 843f
00000290: 6d23 47be f87c 7fbf 4961 efbe 98d3 883e
000002a0: a73f f73e 48cd b93e 7b54 a3bf 914a 82bf
000002b0: 7fee c03e 6c68 13bf bf3e 913e 3c77 c03e
000002c0: c631 c93e 0d2a 5ebf fe20 8a3f f22c 90bd
000002d0: b010 9e3e 0076 c2be 6d00 853e d96d c9be
000002e0: ab7c dd3e 2674 c0bd cbc8 db3d 664b 88bf
000002f0: 5aea d23d da61 4fbf 2ac2 d83e e08c 3b3f
00000300: 388a 0d3f 04cc 89be 9c77 3ebe fc0b 763e
00000310: 36fa 083f e243 6a3f 8f72 f03e 4eb0 cb3e
00000320: 2f8b 0a3f 6427 973d 20e6 363f 981c babd
00000330: 84bc 8abf 0572 1b3e 3c64 f6be 2e87 233e
00000340: 5b0b 3abe b332 883e 4db8 bfbe d4dc 453f
00000350: 06a4 4ebf 6fb9 73be 6a78 36bf 8d8b 863f
00000360: 97db 2b3e be83 d2be 22b9 8cbe bc14 d13e
00000370: f42f 26bf aace fe3d 27f0 d33d fbcb c73e
00000380: 15d8 b2be 117b 2c3e 964b dfbd 21cf 3d3f
00000390: 74ae 843f 64e2 c8be 5890 4cbf 618b 923e
000003a0: f7d6 1dbf b513 e23d ab1c 44bf 1a6f 22bf
000003b0: f42e ad3e 612b 273f 8e2b 083f 22ba 7a3e
000003c0: baa7 c2be 9bb3 453f bd8e 42be 5617 823f
000003d0: 567f cb3f c093 863f b71c d8bd 6037 fb3e
000003e0: 27ef 3b3f 6df3 853e 2d22 0d3f 4a75 b73f
000003f0: e914 d53e 89db 94be ccb4 a73e a046 67bd
-0.17537054 0.1297893 -0.015978524 0.4195182 0.660403 -0.38788792 0.25162107 0.3244494
0.655371 0.420888 0.6806663 0.4413834 -0.65962416 0.78379303 0.09670649 -0.24462622
0.5071464 0.3877022 -0.3255633 -0.036637887 0.5854567 0.87842965 -0.48367146 -0.64796674
1.0404419 0.31479165 -0.15880542 0.31529266 1.0778866 -0.4603994 -0.4374894 0.20122854
-0.073908545 0.40026024 0.52507657 0.78840584 1.2800665 0.35699764 1.3282509 1.3395683
1.3890464 0.702042 -0.48525012 0.4246339 0.16797327 -0.19822401 0.2502663 -0.1768847
0.9250605 -0.97161794 -0.41096374 -0.79206675 -0.6239789 0.37630215 0.8854389 0.121955335
0.47015297 0.11729672 0.3948916 0.87533116 0.26016432 0.61080945 0.3881745 -0.19200094
-0.7625961 0.2856704 0.057131197 1.1276414 0.8776166 -0.5647069 -0.344146 0.048672084
0.19007139 0.097998865 -0.3517892 0.309642 0.77148914 0.95285714 -0.40847877 -0.077853546
1.303588 0.22868368 0.63015705 0.44216523 0.6103525 -0.12627782 0.6372596 0.06038053
0.25845546 0.74996716 0.1225852 0.51934594 -0.25917837 -1.0339036 0.33860785 -0.15767838
0.110660404 0.15820716 -0.28878304 -0.0318411 -0.2210701 0.36385295 0.39340022 0.3319907
0.28274453 0.1939504 1.2214016 0.26907098 0.42668012 0.8457314 0.4756327 0.35941294
-0.22873786 -0.5894383 -1.0588847 0.24694805 0.6291356 -0.5676121 0.36849555 0.29492337
0.43781537 -0.35756093 0.05943643 0.30711558 0.8080351 0.1587779 -1.0020847 0.3581253
0.08629165 -0.01361226 -0.57916254 0.55800384 -1.083804 0.37456855 0.32919636 -0.047193673
0.46218568 0.4300377 -0.33672416 0.5089355 0.9633102 0.09971213 -0.09584467 -0.58836484
-0.7450712 -0.5797072 0.8757409 -1.3691982 0.23248133 -0.31875336 0.09620711 0.3878262
0.5201398 -0.30844843 0.4643314 -0.14644255 0.18506454 -0.60576075 -0.18533584 0.4676342
-0.8333893 0.2589721 0.6426144 1.0319092 -0.19447108 -0.9980006 -0.4675391 0.26723933
0.4829075 0.3628943 -1.2760156 -1.0179006 0.37681958 -0.5758121 0.28368184 0.3759097
0.39295787 -0.86782914 1.0791318 -0.07039823 0.30872107 -0.37980652 0.25976887 -0.3934162
0.43259177 -0.093971536 0.107316576 -1.064801 0.10298605 -0.81008685 0.42335635 0.73261833
0.5528903 -0.26913464 -0.18600315 0.24028009 0.5350679 0.9150983 0.469624 0.39782947
0.5411863 0.0738056 0.7144489 -0.09087485 -1.083878 0.15180214 -0.48123348 0.15969536
-0.18168394 0.2660118 -0.37445298 0.7729008 -0.8071903 -0.23801206 -0.7127749 1.0511338
0.16782986 -0.41116136 -0.27484995 0.40836132 -0.6491692 0.12441762 0.1034854 0.39022812
-0.34930483 0.16843821 -0.10903089 0.7414418 1.0365739 -0.39235222 -0.7990775 0.28621963
-0.61656135 0.11038915 -0.76606244 -0.6345078 0.33824885 0.65300566 0.5319146 0.24485067
-0.3801859 0.7722718 -0.18999763 1.0163372 1.5898235 1.051384 -0.10552352 0.49065685
0.7341179 0.26162282 0.55130273 1.4332669 0.41617516 -0.29073742 0.32755125 -0.056463838

l1.bias f4 [8]
00000000: 0fdd 733f 534a bd3f 7983 853f 512e 913f
00000010: 8121 993f bafb 7a3f cca3 193f 662e d53f
0.95259184 1.4788307 1.0430747 1.134226 1.196335 0.98040354 0.6001556 1.6654785

l2.weight f4 [8, 8]
00000000: f928 d33f 65d3 c0be 0a24 7fbf e5ea 00be
00000010: bb55 9b3f 2012 acbf 20a6 ee3f df44 78bd
00000020: 6698 a43f 52e9 cc3f d74c 76bf 3dd8 9bbf
00000030: 836d ae3f 1590 a7bf 0ddd 673f 845f 223f
00000040: 931a 303f 0c8c cabf 209f 0640 bc18 3dbf
00000050: cf55 1040 1232 ff3e 9f70 bcbc 5b69 cb3e
00000060: 1745 0140 d81a b03f 8b99 b43f 0aa1 fbbd
00000070: b62d b3bf bc84 1540 b2ba 263f 7175 bebe
00000080: 061b 6dbf 7af8 b23f 51c2 903e b754 df3f
00000090: 0fd0 453f cf71 c9be 449d 25bf 9a1d d13f
000000a0: ce74 ac3f debb 9dbe 8e79 aa3f 478c 133f
000000b0: 4c48 45bf c754 0040 1f11 d93d f991 1840
000000c0: ed80 3a3f dad5 c23f 7070 a53f a4a2 0dbf
000000d0: de2f ee3e 2bfe fcbd a261 633f 7984 e0bf
000000e0: a470 583f 3c8e 183f 3626 43bf 05e8 2640
000000f0: 6a98 db3d a4d8 223f 45cf 0740 b7e4 23bf
1.6496879 -0.3766128 -0.99664366 -0.12589605 1.2135538 -1.3443031 1.8644447 -0.060612556
1.2859008 1.6008704 -0.96211 -1.2175366 1.362717 -1.3090845 0.9057167 0.63426995
0.6879055 -1.5823989 2.1034622 -0.73865867 2.2552373 0.49842888 -0.02300292 0.39728817
2.019842 1.3758192 1.4109358 -0.12286575 -1.3998325 2.3362265 0.65128624 -0.37198976
-0.9261936 1.3982079 0.28273252 1.7447728 0.772706 -0.39344642 -0.64693093 1.6337159
1.3473146 -0.30807394 1.3318346 0.5763592 -0.7706344 2.0051744 0.10598969 2.3839095
0.72852975 1.5221512 1.2924938 -0.55326295 0.46520895 -0.12353166 0.8882085 -1.7540427
0.84546876 0.5959203 -0.7623018 2.6079113 0.1072243 0.6361182 2.1220257 -0.64020866

l2.bias f4 [8]
00000000: 1c9e 063e aca9 553f bfd4 293f f9ae d13e
00000010: c19e 9f3f 0f9a 3c3f 89b3 65ba 09f6 6ebe
0.13146251 0.83462024 0.6634025 0.40953806 1.2470323 0.73672575 -0.00087624096 -0.23336042

l3.weight f4 [25, 8]
00000000: 6b82 99be a935 8bbf 8aa6 b43e 5bb7 2a3e
00000010: f14d dcbf 13e1 f0be bc90 1c3f 9f77 1bbf
00000020: 4e2d 123f 16f7 a1bd 1d0c 423e 2e64 a7be
00000030: 42a0 09c0 bef4 57bf f0e3 b6bd 1ce0 d0bd
00000040: b798 a7bf d112 45c0 a376 92bd 4f7c 0e3f
00000050: cfcd 3ebe 6fd6 473f c498 2fc0 372b f6bf
00000060: 6069 90bc e803 83be 1394 30c0 f7c3 ec3e
00000070: 7ab4 5abf f706 f83e d36a bdbf 020b d83d
00000080: 5bc0 03c0 1044 28c0 aa6e 783e af0e 3b3f
00000090: 2166 2bc0 8732 0a3e 1fdd 893e 23a7 e1be
000000a0: e899 b9bf 9366 d1bf fd7b 543f cb57 183c
000000b0: 7d31 23bf 1d2d 363d e5e3 943c 40b8 fdbf
000000c0: 41cb 12c0 a410 d9bf 1a8e 303f 9705 e4bf
000000d0: 8513 913e 40c8 1a3f 621d a7bf 3929 babf
000000e0: 8aa9 a1be fd06 abbf bc74 133f d2b7 16bf
000000f0: cec3 eebe 744d a53e b579 17c0 7129 3ebe
00000100: 24bd 253f 71a0 ce3e 95e5 5d3e 6a77 e2be
00000110: e857 84bf ab42 8cbd fce3 b0bf 24f3 b7bf
00000120: 8e11 01be 6103 9e3e a9a6 053f f0c3 f8bf
00000130: fdfb 863e 7eb6 a1bf 3ea9 a1be 2447 1dc0
00000140: c9c4 8abc 75b5 ff3e bb9e 2ec0 4347 9cbd
00000150: cfaf d7be 8262 5dbf 957c 2bbd ef95 18be
00000160: f598 3e3f 7da5 2f3e 63d3 10bd e028 b1bf
00000170: b156 96be b6e6 20be 63d4 69c0 7b94 793e
00000180: fcdd 023f 16c8 d2bd 4294 4dbf f630 1fbe
00000190: 7dd8 66bf c786 abbe f16f 60bf c38e 203f
000001a0: e351 d7bf c2bb 83be e31d 9fbf 386b 433e
000001b0: 2a83 42bd 827e 80be 949e 413f d69c adbf
000001c0: bb70 dabe a31d 3bbd 3811 81be 3dc2 e9bf
000001d0: 3cc0 3d3e 6fbc f0bf e73a 1cbf cba7 133f
000001e0: e81c 67bf 6d58 60bf d982 56bf 48b6 3ebc
000001f0: a767 3e3f df4e a03e d250 81bf bdd5 ddbe
00000200: 1798 e1be ff8d 9bbf 396e 53bf d51f af3e
00000210: 9d05 c0bf a2d7 3bbe 6358 163f f352 9e3e
00000220: fe4d bcbf 56b3 0dc0 18f9 0ec0 8739 063f
00000230: 8bec 85be 6996 9d3d d3d4 33bf d415 2f3f
00000240: b781 cdbf 993e 36c0 2738 c3be d9d1 ce3e
00000250: b8a3 0dbf 9db6 0f3f 5d22 75bf 00f4 2939
00000260: 825c 4bc0 7b2e 92bc 98c8 ce3e 8c64 553e
00000270: 7f59 4dbd d743 ad3e 3339 0bc0 5290 23c0
00000280: 2e6b e53e c3cd 823e 3c16 c4bf 1a86 723e
00000290: 64e1 02c0 a379 96bf 1a69 313f 0beb 7b3d
000002a0: 5250 bebe d8e3 4cbe 9efa 893e 16b1 09bf
000002b0: 03dc 05bf 045e 98bf bd01 9d3e d022 bcbd
000002c0: 935c 1fbf c70a 60be b399 93bf c2ae 01c0
000002d0: d55e 513f 090e 8b3d 32ed 32c0 505f 683e
000002e0: 123d 6cbe 124c 253e 9337 ecbc 9a74 f4bf
000002f0: b85b 053f e9eb d93e aa37 27c0 6d63 e4bf
00000300: 8ad7 333f a4d0 ef3e de3b a03d d569 02c0
00000310: 43b0 b7bf 81cd e8bf 3eb2 823d b79b e9bd
-0.29982314 -1.0875751 0.3528331 0.16671507 -1.7211286 -0.47046718 0.6115835 -0.607294
0.5710038 -0.07908456 0.18949933 -0.3269362 -2.1504064 -0.8435782 -0.089301944 -0.101989955
-1.309348 -3.0792735 -0.071515344 0.5565843 -0.18633197 0.78061575 -2.743699 -1.9231938
-0.017628372 -0.25588918 -2.7590377 0.4624326 -0.85431635 0.48442814 -1.4798225 0.105489746
-2.0586154 -2.6291542 0.24260965 0.7306928 -2.6781085 0.13495837 0.26926515 -0.44072828
-1.4500093 -1.6359428 0.8300169 0.009298275 -0.6374739 0.044476617 0.018175075 -1.9821854
-2.2936556 -1.6958203 0.6896683 -1.7814206 0.28335205 0.6046181 -1.3055842 -1.454383
-0.3157466 -1.3361508 0.576 -0.5887424 -0.46633762 0.32285655 -2.3668034 -0.18570496
0.6474173 0.40356782 0.2166961 -0.4423173 -1.0339327 -0.068486534 -1.3819575 -1.4371076
-0.12604353 0.30861953 0.5220743 -1.9434795 0.26364127 -1.2633817 -0.31574434 -2.457467
-0.016939538 0.49943128 -2.7284381 -0.076307796 -0.4212632 -0.86478436 -0.041866858 -0.14900945
0.74452144 0.17152973 -0.035357844 -1.3840599 -0.29363015 -0.15713009 -3.653588 0.24373047
0.5111997 -0.102920696 -0.8030435 -0.15546021 -0.90174085 -0.33501264 -0.8767081 0.6271784
-1.6821865 -0.25729185 -1.2430996 0.1908387 -0.04748837 -0.25096518 0.75632596 -1.3563488
-0.42664132 -0.04568256 -0.2520845 -1.8262402 0.18530363 -1.8807505 -0.6102738 0.57677907
-0.9027848 -0.8763493 -0.8379341 -0.011640139 0.7437691 0.31310174 -1.0102789 -0.43327132
-0.44061348 -1.2152709 -0.8259006 0.34203973 -1.5001713 -0.18343976 0.5872862 0.3092266
-1.4711301 -2.2140708 -2.2339535 0.5243153 -0.2615703 0.07694704 -0.7024662 0.6839268
-1.6055211 -2.8475707 -0.38128778 0.40394476 -0.5532794 0.5613802 -0.9575556 0.00016207993
-3.1775212 -0.01784443 0.40387416 0.20839137 -0.05013418 0.3384082 -2.1753662 -2.5556836
0.44808334 0.2554761 -1.5319285 0.23683968 -2.0450068 -1.175587 0.69301 0.06150345
-0.37170655 -0.2000879 0.26949018 -0.53785837 -0.52288836 -1.1903691 0.3066539 -0.091863275
-0.6225063 -0.21879111 -1.153128 -2.0262914 0.8178533 0.06789786 -2.7957273 0.22692609
-0.23070171 0.161423 -0.028835094 -1.9098084 0.52093077 0.42562798 -2.6127725 -1.7842842
0.7025076 0.46838868 0.07823919 -2.0377095 -1.4350666 -1.8187715 0.06381653 -0.114066534

l3.bias f4 [25]
00000000: 7a14 89be dca0 07bf c937 1fbe c086 5abe
00000010: 2c5d fe3d ffcf 003e 603e ac3e cdef b7be
00000020: bf77 5cbe 445c f23d 347a 26be b8de 9cbc
00000030: b347 8d3c 5309 27be 9a1d a53e eed8 013f
00000040: 7ef7 b3be 3469 f23d 9adf d8be ca3c 4b3d
00000050: 3813 6ebe b647 103e a66a b93e 1b19 21be
00000060: eac6 803e
-0.26773435 -0.52979827 -0.15548624 -0.21340466 0.12420115 0.12579344 0.33641338 -0.3592514
-0.21530055 0.118340045 -0.16257554 -0.01914917 0.017246103 -0.1631215 0.32249147 0.50721633
-0.3514976 0.11836472 -0.42358094 0.04961852 -0.23249519 0.14089856 0.3621418 -0.15732233
0.2515176
