src/data.pth (torch, 9887 bytes, 6 tensors)

l1.weight f4 [8, 117]
000000 de 15 25 3e 14 b7 8b 3f 7a 14 10 3f 9b 62 50 bd
       0.16121623 1.0915246 0.56281245 -0.050875288
000010 a0 55 84 3f 4e 65 b5 bd de bc 9a 3e 7d 05 02 3f
       1.0338631 -0.08857213 0.3022222 0.50789624
000020 f0 cd 38 3f 6b 10 9b 3f 26 85 0e 3f 67 fb 70 3f
       0.72189236 1.2114385 0.5567192 0.9413361
000030 fd 61 01 3e 57 2b 80 3e 28 71 90 be f9 8d 92 3e
       0.12635036 0.25033066 -0.2821133 0.28623942
000040 8c 1b 3c 3e f3 29 88 bf 9f d9 b5 bf 40 51 5d 3e
       0.18369883 -1.0637802 -1.4207038 0.21613026
000050 e0 25 c4 3f 0d a7 80 3f 46 f0 f3 bd da 5d cc be
       1.5324059 1.005098 -0.11911063 -0.39915353
000060 49 c3 85 3f e6 63 87 3e a9 86 8c 3e 21 e2 42 3f
       1.0450221 0.26443404 0.27446488 0.76126295
000070 1f b1 b9 3f ff 09 19 3f d8 93 de 3d ac b7 28 3f
       1.4507178 0.5978088 0.10868043 0.6590526
000080 72 e7 93 3f 03 5d ea be ab 64 0e bf dc e3 17 bf
       1.1555007 -0.45774087 -0.5562236 -0.5933206
000090 b1 05 ba 3f 3c 79 39 3f 92 93 c4 bd ef 51 80 3f
       1.4532987 0.72450614 -0.09598459 1.0025004
0000a0 07 2e b8 bf 1c 52 3a 3f 1e 4a 48 3f be 7d 94 bf
       -1.4389046 0.7278154 0.78238094 -1.1600873
0000b0 b3 f8 ac 3f c7 43 9f 3f 65 f8 ba 3f 7d f6 b7 3f
       1.3513397 1.2442559 1.4607054 1.4372097
0000c0 fc 11 23 3f 69 b7 96 bf be b8 06 40 15 34 b1 be
       0.63699317 -1.1774722 2.1050258 -0.34610048
0000d0 ab f2 2d 3e 73 f9 b0 3e de 63 7a bf 33 e7 97 bf
       0.16987102 0.34565315 -0.97808635 -1.1867431
0000e0 25 f8 58 3e 8f c9 8c 3f de e5 95 be bb 49 02 bf
       0.2118841 1.0999011 -0.29276937 -0.50893754
0000f0 af 06 bb be be 33 c4 bd a2 09 0b 3f 17 b2 84 3f
       -0.36528537 -0.095801815 0.54311574 1.0366849
000100 bc f6 75 3e 5d 45 19 3f 5d 7e aa 3e 20 66 78 3f
       0.24019903 0.59871465 0.33299533 0.9703083
000110 08 e4 25 3f 99 07 09 3f 8d 6a 1c bf b6 9c c1 3e
       0.64801073 0.5352722 -0.61100084 0.37814873
000120 5e 18 87 3e b3 e1 a8 3f fa 4f 31 bf c0 77 aa 3f
       0.26385778 1.3193878 -0.6926266 1.3317795
000130 cb d8 02 3f 95 16 32 bf 3b fd 05 3f cb 6b 9b 3f
       0.5111205 -0.6956571 0.52339524 1.2142271
000140 ea 90 0d be aa eb 03 bf 11 eb 7f bf d9 e3 73 bc
       -0.13824812 -0.5153147 -0.9996806 -0.014885866
000150 40 85 93 bf d4 c2 a2 bf 0c 7a ef bd 78 bc 48 3f
       -1.152504 -1.2715707 -0.116932005 0.7841258
000160 28 44 9c bf db 2b fb 3e f5 6a b7 bd 04 35 d9 be
       -1.22083 0.49056897 -0.08955947 -0.4242326
000170 28 05 9f 3f 27 98 7b bf 31 6b 9a 3e 7a 6d ae 3f
       1.2423449 -0.9827904 0.30159906 1.362716
000180 e1 64 d8 3f d6 fd 81 3f 17 ed e5 3f 5b d2 76 3f
       1.6905786 1.015559 1.7962979 0.96414727
000190 60 2a 19 3f 9b 69 05 3f c0 6c 0b 40 f5 b4 61 3f
       0.59830284 0.52114266 2.1785126 0.88166744
0001a0 de 0f 9f 3f eb 39 02 be cf 5c 37 bf e4 62 cd 3e
       1.2426717 -0.12717406 -0.7162599 0.4011451
0001b0 7b 56 cf be fe c8 80 3f 32 fe b7 bf 1f 67 57 3e
       -0.40495667 1.0061338 -1.4374449 0.21035431
0001c0 56 76 1a be 11 08 ae 3f cd eb a8 3f 46 a9 0a 3f
       -0.15084204 1.3596212 1.3196961 0.5416454
0001d0 f7 84 71 3f bd 2b 06 bf 3a ac bf 3e ae f9 a7 be
       0.94343513 -0.5241049 0.37436086 -0.32807678
0001e0 54 dd c1 3e 8c 75 5e 3e 32 27 1b 3f 2c 4c 0a 3f
       0.37864172 0.21724528 0.6060668 0.5402248
0001f0 d5 78 af be 51 29 47 3f 95 10 42 bf e4 82 e8 3d
       -0.34271875 0.7779742 -0.7580655 0.113530904
000200 11 de 80 3f 0a c3 7e 3f fc e4 5b bf a8 d6 ca bf
       1.0067769 0.99516356 -0.8589628 -1.5846758
000210 4b e0 08 3f 5f d1 3c 3f 1e 21 16 3f e2 12 11 bf
       0.53467244 0.73756975 0.5864428 -0.5666944
000220 d3 e5 30 3f 39 42 1f 3e 65 bf 04 bf fb be e5 be
       0.69100684 0.15552606 -0.51854545 -0.4487227
000230 d8 46 a5 bf 28 98 9c 3f 28 a9 f7 be d7 67 7e be
       -1.2912245 1.2233934 -0.48371243 -0.248443
000240 d0 02 6c bf ce 17 66 3e fe 76 2a 3f 57 ef 89 bf
       -0.9219179 0.22470018 0.6658782 -1.0776166
000250 b1 48 87 3e 7d fa e4 3f 85 d5 75 3f 8d c2 cb be
       0.26422647 1.7888943 0.9602893 -0.39796868
000260 9e a5 84 bf f5 f6 eb be b2 1f 5d bf b9 0e 05 bf
       -1.0363042 -0.4608685 -0.8637649 -0.5197559
000270 46 c4 14 3e 02 e7 11 bf 26 87 0e bf f3 55 32 3f
       0.14527997 -0.56993115 -0.5567497 0.696624
000280 5c e8 58 3f 4c 39 ce 3f c4 a7 14 3f d6 3e c1 3f
       0.8472955 1.6111236 0.5806849 1.5097301
000290 0f 7a c3 3f 5b 9a d3 3f c2 bc 4f 3f 15 46 be 3e
       1.5271624 1.653148 0.81147397 0.37162843
0002a0 2d 52 60 bf ff a0 31 3f 01 a0 f9 3e 51 a6 1b 3f
       -0.8762539 0.69386286 0.48754886 0.60800654
0002b0 93 6d 52 be 22 c3 42 bf 15 d5 fd 3f 25 ae be bf
       -0.20549612 -0.76079 1.9830652 -1.4896895
0002c0 00 b8 8e 3d bd 12 c9 bf 9e 5f ba bf 0f bb 72 3e
       0.06968689 -1.5708843 -1.456043 0.2370417
0002d0 8c ef 0f bf 4a d8 67 bf 35 8c 9c 3e 75 69 f7 3e
       -0.56224895 -0.90564406 0.3057572 0.48322645
0002e0 b7 60 93 bf e2 33 9a 3e e5 ea 96 3f 71 2f 9b 3e
       -1.151389 0.30117708 1.1790434 0.30309632
0002f0 33 01 c7 3d 74 75 30 3f 09 60 40 bf 93 1a 9a bf
       0.097170256 0.6892922 -0.7514654 -1.203936
000300 53 c4 a8 3e 3a 85 72 bf 47 cf 75 3f 64 d3 00 bf
       0.32962283 -0.9473454 0.96019405 -0.50322556
000310 85 7c e1 3f 84 e1 94 3f 5d 9f e1 3d 6d 3a 0c 3f
       1.7616125 1.1631322 0.11016724 0.5477665
000320 7a da 17 bf 1a a4 72 bf 19 e5 5e bf ce 0c 2f 3f
       -0.59317744 -0.9478165 -0.87068325 0.68378913
000330 3c 64 54 3f d1 6b 30 be da 6f c3 3e ed 0a ac bc
       0.82965446 -0.17228629 0.38171273 -0.021001304
000340 1d 56 5b 3f 3a 0a f0 3e 31 f4 99 bf 7f 21 07 bb
       0.85678273 0.46882802 -1.2027646 -0.002061933
000350 23 3d 02 3f fb 37 1b 3f 3b 5d 50 3f 8a 04 16 bf
       0.5087454 0.60632294 0.8139226 -0.58600676
000360 c9 34 55 3f 2f a3 0e 3f ed 67 b5 bd f0 df 64 3f
       0.8328367 0.5571775 -0.08857713 0.894042
000370 91 d2 d9 3e 63 53 c2 3e 1e d4 0a 3f 47 00 15 3e
       0.42543462 0.37954244 0.54229915 0.14550887
000380 09 87 ca be a1 3b c5 3c d5 9e eb bd e7 b0 e6 be
       -0.3955615 0.024076285 -0.11504904 -0.4505684
000390 27 77 82 bd 2c 0c c6 bd ff f5 d5 be 97 bf e1 be
       -0.06370383 -0.0967029 -0.41789243 -0.44091484
0003a0 12 ce d6 be 6b f8 0b 3e b0 a2 0b 3f 3e e9 2b 3f
       -0.41954094 0.13668983 0.54545116 0.67152774
0003b0 a1 01 3f 3e b9 cd 7b 3f c9 24 f8 bd c8 1f 02 be
       0.18652965 0.9836078 -0.12116391 -0.12707436
0003c0 5c db 11 3f db 9d 6d be ed a3 28 3f 60 bb 55 3f
       0.5697534 -0.23204748 0.6587513 0.83489037
0003d0 f0 a7 88 3e 1f af 8a 3e c6 84 a9 3f 1f f6 82 3f
       0.26690626 0.27086732 1.3243644 1.023136
0003e0 07 28 c2 3e b6 42 96 be ca c0 dd 3e 1a 04 5a 3e
       0.37921163 -0.2934777 0.4331115 0.21290627
0003f0 0d 96 1e bf c7 fe ac 3e 35 e9 12 3f 5b f4 8e 3f
       -0.6194771 0.3378813 0.57387096 1.1168321

l1.bias f4 [8]
000000 e8 f0 ea 3f 6b 86 ed 3f fd 4f 60 3f 65 41 61 3f
       1.8354769 1.8556646 0.8762205 0.8799041
000010 71 c7 fc 3f cf 88 0c 40 97 f1 ea 3f 93 82 04 40
       1.9748365 2.1958501 1.8354977 2.0704696

l2.weight f4 [8, 8]
000000 c5 62 43 40 95 59 18 bf 64 61 38 40 d2 a0 1b 40
       3.0529034 -0.5951169 2.8809443 2.4316907
000010 13 35 d6 bf 63 98 c1 3f a3 d0 0f 40 9d 03 01 40
       -1.6734947 1.512463 2.2471092 2.0158455
000020 27 88 fb 3c 2a 31 97 bd ed 0b ec 3b db e1 a0 bc
       0.030704571 -0.07382424 0.00720357 -0.019638946
000030 20 aa 85 3c b8 41 4c 3d a0 4c b8 be f4 51 1b be
       0.016316473 0.04986736 -0.3599596 -0.15167981
000040 c0 de a3 bf 28 35 69 bf a4 af da 3f 9e 09 2c 40
       -1.2802353 -0.91096735 1.7084851 2.688087
000050 64 29 e5 3f 4c 18 0b 40 20 9e 1e 40 05 b0 96 3d
       1.7903256 2.173358 2.4784012 0.07357792
000060 d3 b4 70 3f 45 ac 1b 40 44 e6 b8 bf 4a dd 90 bf
       0.94025916 2.4323895 -1.4445271 -1.1317532
000070 83 2d 1d 40 a0 78 5e bf f4 d2 07 40 58 ae fc 3f
       2.4559028 -0.8690281 2.1222506 1.9740705
000080 69 a2 df 3f e9 0c 43 40 b8 2e 59 3f a1 25 45 40
       1.7471439 3.047663 0.8483691 3.0804217
000090 1d c0 9f 3f 8e ac a9 be 2a 2f 8d 3f 40 17 aa bf
       1.2480503 -0.3313946 1.1030018 -1.3288345
0000a0 61 55 45 40 14 42 75 3f 81 61 11 bf a3 fe 3d bf
       3.083336 0.9580395 -0.56789404 -0.7421667
0000b0 8d 5d 13 be 1a 85 84 3f 98 f7 cf 3f b3 1f 1e 40
       -0.14391156 1.0353119 1.6247435 2.4706848
0000c0 49 70 70 be 04 41 fb 3f 72 32 24 40 ba 7c 03 3f
       -0.23480333 1.9629216 2.565579 0.5136219
0000d0 f2 6b 45 40 6d e7 b0 bc 12 05 ca bf 5d 6d 34 40
       3.0847135 -0.021594727 -1.5782797 2.819175
0000e0 97 5b 53 3e b3 fa 02 40 d9 3b ad bf b8 7a 69 be
       0.20640408 2.0465515 -1.3533889 -0.2280072
0000f0 6d 0c 13 3f e8 d8 3a 40 9a 90 0b 3f 85 6f 30 bf
       0.57440835 2.919489 0.5451752 -0.68920165

l2.bias f4 [8]
000000 51 8f 86 3f 26 d0 6b be 6d 3f f7 3e ce 0c 13 3f
       1.0512487 -0.23028621 0.48290578 0.57441413
000010 d1 1e 1e bf 78 ff 6c 3f 9c 00 cb 3f ec d8 e4 3f
       -0.6176577 0.92577314 1.5859561 1.7878699

l3.weight f4 [38, 8]
000000 03 5a c2 3e 3a 93 a9 3e 66 43 9e 3c a4 94 2b bf
       0.37959298 0.33120137 0.019319247 -0.6702368
000010 f1 cf 9a bf 43 4b 82 3e d4 cb df bf 78 8a d2 bf
       -1.2094709 0.25448045 -1.7484078 -1.6448507
000020 66 08 ad 3b 4b 12 a2 3e 30 6a af bf 36 1f 16 3f
       0.005280542 0.3165458 -1.3704281 0.58641374
000030 d3 b9 3b bf 2b 00 f6 bb b1 d0 60 bf 39 2e da bf
       -0.7333042 -0.0075073442 -0.8781844 -1.7045356
000040 1b 44 08 3d d0 bd ac 3d 6f e4 35 3f 72 c7 23 c0
       0.033268075 0.08434641 0.71051687 -2.5590482
000050 8c ed d8 3e 5d ae 21 c0 d7 38 87 bf ea e4 40 bf
       0.42368734 -2.5262673 -1.0564221 -0.75349295
000060 a9 bb 18 c0 5c 08 86 be 70 73 7c 3e 44 11 a0 be
       -2.3864539 -0.26178253 0.24653411 -0.31263173
000070 a5 59 5f 3f a8 07 0f c0 64 26 e9 bc b3 be c0 be
       0.8724616 -2.2348423 -0.028460689 -0.37645492
000080 0d d5 64 bf 32 3e 81 be 3e f8 84 be 17 49 5d be
       -0.8938759 -0.25242764 -0.25970644 -0.21609913
000090 74 b9 76 be bb 2c 76 be 4e 51 85 be 65 cd 2f c0
       -0.24094182 -0.24040501 -0.26038593 -2.7469113
0000a0 a9 2a 07 c0 f0 1d e6 3c 33 a3 58 bf b5 2a ac bc
       -2.1119788 0.028090447 -0.8462402 -0.021016458
0000b0 07 65 b3 3e 5f 28 19 be fd 3d 8d be 4b 6b 17 be
       0.35038015 -0.14956807 -0.27586356 -0.14787023
0000c0 a9 f3 1f bd c2 f5 90 be a3 02 cc 3e 61 4c 01 3f
       -0.03905073 -0.28312498 0.39845762 0.5050717
0000d0 f8 f1 90 c0 35 22 8d 3e f5 12 14 bf c4 35 0c be
       -4.529537 0.2756516 -0.57841426 -0.13692385
0000e0 dd 97 9e 3b a0 3b d3 3c 2b 80 22 3f 23 38 43 c0
       0.004839881 0.025785267 0.6347682 -3.0503013
0000f0 a1 04 ba 3e b9 38 06 bf e5 5a 1e c0 04 0c 66 be
       0.36331657 -0.524303 -2.4742978 -0.22465521
000100 93 77 20 3f e5 e6 2d ba 3e ac 49 3f d3 59 49 c0
       0.62682456 -0.0006633832 0.78778446 -3.1461074
000110 a4 50 ee bf 9e 73 52 be 0c e7 cf bf a6 55 a3 3d
       -1.861836 -0.20551917 -1.6242385 0.079753205
000120 93 0f a8 3e 51 18 87 3e a7 cb 6a bf 4a d4 52 3f
       0.32824382 0.2638574 -0.91717 0.8235518
000130 d6 79 db bf 02 4c ff 3e 61 24 2b c0 48 33 70 be
       -1.7146556 0.49862677 -2.6740954 -0.23457062
000140 a7 cf 4c bf a2 ce 66 3e d1 89 7a 3e 52 27 b2 be
       -0.8000435 0.22539762 0.24466635 -0.34795624
000150 30 5b d9 3e 8f 94 91 bf 60 c4 fb bf b9 6d b5 3e
       0.42452383 -1.1373461 -1.9669304 0.35435274
000160 13 96 39 bf 95 a7 b3 be 9f e0 8e bf a1 ea 1e 3f
       -0.7249462 -0.35088792 -1.1162299 0.62076765
000170 70 b4 5f 3e 77 ff 02 3e b3 df 18 c0 2e aa ee 3d
       0.21846175 0.12792765 -2.3886535 0.11653553
000180 56 8b 8d bf 96 97 4e 3e 11 13 39 be 48 10 78 3e
       -1.1058147 0.20175013 -0.1807368 0.24224961
000190 cf 30 c8 bf 8b 6a 6b 3d 79 39 1d 3d e1 24 a4 bf
       -1.5639895 0.057474654 0.03838489 -1.2823755
0001a0 40 5e 7e be 7b b3 a8 3e c2 51 33 3f 4a 33 f6 bf
       -0.24840641 0.32949433 0.7004663 -1.9234402
0001b0 70 8a 49 bf 2b f4 97 bf 29 a8 5f bf 0e d6 bc 3e
       -0.78726864 -1.1871389 -0.8736597 0.3688206
0001c0 6e 06 5e c0 28 ed 86 bd 48 f5 3e 3e 74 fe 3d 3c
       -3.4691424 -0.06588203 0.18648255 0.011596311
0001d0 e4 e8 ad bd 03 d0 29 bf 84 af 64 3e 4d 22 f5 3e
       -0.08491686 -0.66333026 0.22332579 0.47877732
0001e0 b5 6e 5b c0 c0 d3 1f be 79 14 a8 bf ce f1 f6 3e
       -3.428632 -0.1560812 -1.3131248 0.48231357
0001f0 fa bd dc 3c 21 18 15 3e 81 11 db bd 4a 54 80 3f
       0.026946057 0.14559986 -0.10696698 1.0025723
000200 0d 06 30 bf 0a ce 92 be 20 25 7a be ce 4d b3 3e
       -0.6875923 -0.2867282 -0.24428225 0.35020298
000210 23 5a 4f c0 f8 ed 9c be 34 be 42 3f 3a 9b 34 c0
       -3.2398765 -0.30650306 0.76071477 -2.8219743
000220 eb 03 07 3c 6d f5 ac 3e a2 ae 14 3f 29 3a 10 c0
       0.00824068 0.33780995 0.5807897 -2.2535498
000230 4b 96 fd be a9 67 37 c0 65 bd 88 3e 85 25 db bf
       -0.49528727 -2.865702 0.26706997 -1.7120825
000240 d7 ba 2e c0 a8 6d 07 be 92 7d fe 3d 66 cb 81 3d
       -2.7301538 -0.13225424 0.124262944 0.06337623
000250 22 0f 88 3d 78 41 a0 bf 7c 60 3f 3f 42 9e 0b c0
       0.06643511 -1.251998 0.747566 -2.1815343
000260 9a 39 5c c0 c6 98 3c be 0a 36 29 bf 07 fe 32 3f
       -3.4410157 -0.18417653 -0.6609808 0.69918865
000270 b0 7f b5 be da 40 0e 3d f0 81 18 3f ba 42 8e bf
       -0.3544898 0.034729816 0.5957327 -1.1114113
000280 77 af 2e 3f 15 10 37 3d 92 5c c3 be c9 b9 44 c0
       0.6823649 0.04469307 -0.38156563 -3.0738394
000290 0e 2b 17 c0 86 25 f1 3e 05 9d 91 be a0 8f 3f bf
       -2.3620028 0.4709894 -0.2844011 -0.7482853
0002a0 7f 53 42 bf bc 21 17 be fb 60 f1 3d f9 83 e8 bf
       -0.75908655 -0.14758962 0.11786076 -1.8165275
0002b0 be 57 d1 be f1 7f 23 c0 65 1b f4 3e 49 86 fc 3e
       -0.40887254 -2.554684 0.4767715 0.493212
0002c0 1d 3f a8 3e d6 b3 3b 3e 6f a4 24 3e 82 21 66 bf
       0.32860652 0.1833032 0.16078351 -0.8989488
0002d0 a7 be 80 c0 8b f5 8a 3e ff 88 f0 3d a8 dc e0 bf
       -4.023273 0.2714046 0.1174488 -1.7567339
0002e0 3a c6 fe 3e 33 11 8e 3e 29 10 07 3f 1c 43 19 c0
       0.4976061 0.27747497 0.52759033 -2.394721
0002f0 48 58 62 c0 2c 01 8a bf 4d 86 8d 3e 38 e0 a5 bd
       -3.5366383 -1.0781608 0.27641526 -0.08099407
000300 f6 0d b6 bf d8 99 6a bd 7a 76 67 3d c2 0a 32 3e
       -1.422301 -0.057275623 0.056509472 0.17386916
000310 57 5f 85 c0 49 62 6e be 6f cb 1f 3f cf 5f a9 3f
       -4.167888 -0.2327968 0.6241979 1.3232363
000320 df 83 aa bf 37 f2 9a 3e cb 91 18 c0 69 af a9 3e
       -1.3321494 0.3026292 -2.3838985 0.3314164
000330 74 2a 06 bf a5 43 06 3e 2f b0 9d 3e c6 45 a7 bd
       -0.5240853 0.13111742 0.3079848 -0.08167605
000340 eb 29 bf be 9e 3b e8 bd ab 1b cc bc 4b b0 3c c0
       -0.37336668 -0.11339496 -0.024915537 -2.94826
000350 bc 74 7c bf f7 15 2e bd fd 16 14 3f d5 00 1b c0
       -0.9861562 -0.042501416 0.5784758 -2.4219258
000360 bb 86 f0 be ee 8f 6e be d5 cd 57 bf 0d df c0 3d
       -0.4697779 -0.23297092 -0.8429845 0.094175436
000370 6a a7 cb bf ac cf 50 3d b2 74 f0 be 11 ee 3a 3f
       -1.5910466 0.0509793 -0.4696403 0.7301951
000380 6a 3d a3 3e 8c 45 b4 3d 31 7f 03 bf 2d 3a 4e bf
       0.31882793 0.088023275 -0.51365954 -0.8055752
000390 b6 fa 88 3c 38 b1 8f be 11 40 55 c0 af 34 a8 3e
       0.01672111 -0.28064895 -3.3320353 0.32852694
0003a0 7b 37 b5 bd 80 95 cf 3d 1d c1 33 3e 0d cd a7 be
       -0.08848473 0.10135937 0.17554136 -0.3277363
0003b0 ed 5b c3 bf be 4b c0 3e 7a 18 3d c0 82 c2 3d 3f
       -1.5262429 0.37557787 -2.954619 0.7412492
0003c0 02 55 1b 3f 56 dc da 3c a5 07 5d bd 64 2d a9 bf
       0.60676587 0.026716392 -0.05396237 -1.3216977
0003d0 4c 41 66 c0 cb b6 f9 3e ea f6 9c bf 31 97 2f 3f
       -3.5977354 0.48772272 -1.2262852 0.68590075
0003e0 b0 f9 a2 3c f0 0a 46 be e9 de 70 bf 14 05 9c bf
       0.01989445 -0.1934011 -0.94090134 -1.218905
0003f0 65 1f 0e be 2f a7 0d be 1e 64 4d bf 20 5d c5 be
       -0.13879164 -0.13833307 -0.8023089 -0.3854761

l3.bias f4 [38]
000000 22 8f d3 bd bb 61 90 bf 97 a7 f2 bd 5c d6 c5 bd
       -0.10330035 -1.1279825 -0.118483715 -0.096600264
000010 9e 69 cd be 03 f7 fe be 32 20 a3 bd 07 d5 b0 3e
       -0.40119642 -0.4979783 -0.07965125 0.34537527
000020 b0 27 11 3f c4 43 c7 3d fe 69 92 3d 4a 50 8a be
       0.56701183 0.09729722 0.07149123 -0.2701438
000030 42 bb 27 be 56 25 40 3c f3 84 53 be f8 5b d8 be
       -0.16380027 0.011727652 -0.20656185 -0.42257667
000040 3b 65 37 be fb d4 23 be 9c 69 5c 3e fa b2 9a be
       -0.1790971 -0.15999214 0.21524662 -0.30214673
000050 20 8e e0 bd d4 fb 1f 3e 41 a6 b4 3d 7a d2 2c bd
       -0.10964608 0.15623409 0.08820773 -0.042192914
000060 60 82 3f 3f 75 24 c1 3e b1 f2 f6 3e c5 83 a4 3e
       0.7480831 0.37723127 0.48232034 0.32131782
000070 78 a4 c9 be 52 46 8d 3e 83 c1 a8 3e 2d 3e 13 3f
       -0.39383292 0.27592713 0.32960138 0.5751675
000080 3f 9c 2f 3d b2 e9 bd 3d 8a 62 34 bd 1a cc f2 3d
       0.042873617 0.092730895 -0.044039287 0.118553355
000090 47 06 20 bf 56 20 58 bd
       -0.6250958 -0.052765213
