src/data.pth (torch, 21867 bytes, 6 tensors)

l1.weight f4 [8, 363]
0	0x3ee62243	0.44948015
1	0x3fc1f388	1.5152445
2	0x3e50011f	0.20312928
3	0x3f43740a	0.76348937
4	0x3de5ea28	0.112263024
5	0x3d1581de	0.036500804
6	0xbbd066df	-0.0063599194
7	0x3df0707c	0.11740205
8	0x3fd1b2d6	1.6382701
9	0x3ef8cd0c	0.48593938
10	0x3e202984	0.15640837
11	0x40617c36	3.5232062
12	0x3f0b58b2	0.54432213
13	0x3f7ee900	0.9957428
14	0x3fa207d2	1.2658637
15	0x3f4c6ab4	0.79850316
16	0x3f99df03	1.2021183
17	0x3d245c60	0.04012716
18	0x40163338	2.3468761
19	0x3eeff680	0.46867752
20	0x3f63921c	0.8889482
21	0x4005c008	2.0898457
22	0x3d9f2dfc	0.07772443
23	0x3f0f2b84	0.55925775
24	0x3fe32d84	1.7748265
25	0x3b7d9a08	0.0038696546
26	0x3eda0204	0.42579663
27	0x3f52f44b	0.8240401
28	0x3f5120b9	0.81690556
29	0x3f57eb1f	0.8434314
30	0x3f63ff89	0.8906179
31	0x3efdda52	0.49580628
32	0x404beb80	3.1862488
33	0x3f662852	0.89905274
34	0x3d930027	0.071777634
35	0xbece117f	-0.40247723
36	0x400a54d0	2.1614265
37	0x3ef77ee1	0.48338988
38	0x4076b237	3.8546274
39	0x405e0dc3	3.46959
40	0x3f5b6a3c	0.85708976
41	0x3e29fe9d	0.16601034
42	0x40715ae2	3.771172
43	0x3f5edc04	0.8705447
44	0x3fb79b3b	1.4344248
45	0x4048c35d	3.136924
46	0x406b08e2	3.6724172
47	0x4057301d	3.3623116
48	0x405f4766	3.4887328
49	0x4050aef7	3.260679
50	0x404e20bb	3.2207477
51	0x3e8210d7	0.25403473
52	0x3f2e256e	0.68025863
53	0x4037f727	2.87446
54	0x400770ea	2.1162667
55	0x3f5ece2b	0.8703334
56	0x3f49e5bc	0.7886617
57	0x3f17fb3d	0.59367734
58	0x3f485e2f	0.7826871
59	0xbeb2bf57	-0.34911606
60	0x3f55c8fa	0.8350979
61	0x3f85dc13	1.0457786
62	0x3f598951	0.84975153
63	0x3f44b4a7	0.76838154
64	0x3d0d2990	0.034463465
65	0x3ee925a2	0.45536524
66	0x3f6284b1	0.8848372
67	0x405aa206	3.4161391
68	0x3f839b35	1.028174
69	0x3f0ea84b	0.55725545
70	0x3f789147	0.97096676
71	0x3f4c5047	0.79809994
72	0x3f48080e	0.7813729
73	0x3f7afeef	0.9804525
74	0x4069a129	3.6504614
75	0x3f8acab4	1.084311
76	0x3ef64e92	0.4810682
77	0x3f566e7c	0.83762336
78	0x3f93657c	1.1515346
79	0x3f7db345	0.9910167
80	0x3f2fdac1	0.68693167
81	0xbc9cc4ce	-0.019136813
82	0x3ca080a9	0.0195926
83	0xbd28f4c9	-0.04124907
84	0x3f3632c9	0.7117124
85	0x3f3a0ec9	0.7267881
86	0x3f5844cb	0.8447997
87	0x405bb1d1	3.432728
88	0x3f58f2b5	0.8474534
89	0x3dc8ed6f	0.09810912
90	0x40c78e0b	6.236089
91	0x3ef69da7	0.48167154
92	0x3f23d17b	0.63991517
93	0x405cff22	3.453072
94	0x3eff1c94	0.4982649
95	0x3f16e9e5	0.58950645
96	0x3f09c4bf	0.53815836
97	0x3f03395c	0.512594
98	0x3e9b0442	0.30276686
99	0x3e20a180	0.15686607
100	0x3de8c3ac	0.113654464
101	0x3de0e02a	0.10980256
102	0x3f1430b5	0.5788682
103	0x3f19f045	0.6013225
104	0x3ea65078	0.32483268
105	0x3f1fd433	0.62433165
106	0x3f66faaf	0.9022626
107	0x3f50eade	0.8160838
108	0x3ed34707	0.41265127
109	0x3e065283	0.13117413
110	0x3dee7a90	0.11644471
111	0x3ef82186	0.48463076
112	0x4077dc6d	3.8728287
113	0x3fc29e6d	1.5204598
114	0x3f97bb2a	1.1853993
115	0x3e032e98	0.12810743
116	0x3f03dd4e	0.5150956
117	0x3e638a56	0.2222074
118	0x4067a2c5	3.6193097
119	0x3ef22928	0.47297025
120	0x3f15b3e6	0.5847763
121	0x3fbced3a	1.4759896
122	0x3f89adf2	1.0756209
123	0xbe25069d	-0.16115804
124	0x402dc3bc	2.7150717
125	0x3f7c6513	0.98591727
126	0x3f46aea2	0.7761022
127	0x3f7cf969	0.9881807
128	0x3f775c18	0.966249
129	0x3f0d9d1d	0.5531786
130	0x3f2fb3d8	0.68633795
131	0x3f35a73d	0.7095831
132	0x3f256706	0.64610326
133	0x3f733bc0	0.95013046
134	0x3f26ce88	0.6515889
135	0x3ecf4825	0.4048473
136	0x405a302a	3.4091897
137	0x3ef884a6	0.48538703
138	0x406292b8	3.540205
139	0x404d5399	3.2082274
140	0xbf83589f	-1.026142
141	0x400eb178	2.2295818
142	0x3e120523	0.14259772
143	0x3f1caded	0.6120289
144	0x3f576767	0.84142154
145	0x3e132ca9	0.14372505
146	0x3e00aa59	0.12564982
147	0x405239ce	3.284778
148	0x3f114276	0.56742036
149	0x4061f44e	3.5305362
150	0x4068a881	3.6352847
151	0x40138f07	2.3056047
152	0x3ee30856	0.44342297
153	0x3de4aa80	0.11165333
154	0x3f5613ea	0.83624136
155	0x4056b7a8	3.3549595
156	0x4067af36	3.620069
157	0x3ed8873a	0.4229067
158	0x3f6c41fa	0.9228817
159	0x405c6aa3	3.4440086
160	0x3f2437ab	0.6414744
161	0x405d6472	3.4592557
162	0x3ecf6b49	0.4051154
163	0x40ad6b95	5.4193826
164	0x408c4faf	4.384727
165	0x40aabfdf	5.335922
166	0x40ae86ed	5.4539704
167	0x3eeeb854	0.46625006
168	0x3eea48b1	0.45758584
169	0x3d60c39b	0.054874044
170	0x404a0ef3	3.1571624
171	0x403bf033	2.9365356
172	0x3f143710	0.5789652
173	0x3e757167	0.23969041
174	0x3f23b731	0.639514
175	0x3f22063f	0.6329078
176	0xbe68e22b	-0.22742526
177	0x3efe731a	0.4969719
178	0x3ee869df	0.45393273
179	0x3ed8b917	0.42328712
180	0x3ff37046	1.9018638
181	0x3daf9090	0.08572495
182	0x3edec6f9	0.4351118
183	0x3f4499c0	0.76797104
184	0x3f221901	0.633194
185	0x3f073ef0	0.5283041
186	0x3f000a0d	0.50015336
187	0x3ec4a045	0.38403526
188	0x407699b1	3.8531306
189	0x3f6cab28	0.92448664
190	0x3eab9615	0.3351294
191	0x3f188213	0.5957348
192	0x404b42d2	3.1759534
193	0x3fd70c7d	1.6800686
194	0x406a6947	3.6626756
195	0x3f15ff67	0.5859284
196	0xbfec4975	-1.8459917
197	0x40c10218	6.0315056
198	0x3f4329ea	0.7623583
199	0x3c209268	0.009800531
200	0x3f3ef595	0.7459348
201	0x3fdb810c	1.7148757
202	0x3e014934	0.12625581
203	0x3f242d94	0.64132047
204	0x3f212b93	0.62957114
205	0x3ed61e80	0.41820145
206	0x40699a4a	3.650042
207	0x3f3b2b40	0.7311287
208	0x4055ae74	3.3387728
209	0x3f78385b	0.9696099
210	0x3f692d21	0.91084486
211	0x3cc094f4	0.023508526
212	0x3dfd4079	0.12365813
213	0xbfb076e5	-1.3786284
214	0x3db12f04	0.08651546
215	0x3c3fef0f	0.011714711
216	0x3e666413	0.22499113
217	0x3e3959c9	0.18100657
218	0x4009e399	2.1545165
219	0xbe34b273	-0.17646198
220	0x3fac9a66	1.3484619
221	0x3f1722f9	0.5903774
222	0x3d2be32d	0.0419647
223	0x3f6875e7	0.90804905
224	0x3f76a21a	0.963411
225	0x3f30e67b	0.69101685
226	0x3ffcc288	1.9746866
227	0x3d96027f	0.07324695
228	0x3dfc6a96	0.12325017
229	0x3e130d3f	0.14360522
230	0xbeada9be	-0.33918566
231	0x3f488c07	0.78338665
232	0x3e583b91	0.21116473
233	0x3ded8703	0.11598017
234	0x3d0e881d	0.034797776
235	0x404ddad3	3.216481
236	0x3f6be5cc	0.9214752
237	0xbed06590	-0.40702486
238	0x40592095	3.3926136
239	0xbf09c0f4	-0.5381005
240	0x3f5be768	0.8589997
241	0x3f0a466d	0.5401371
242	0x3f2c2079	0.6723705
243	0x3f25b205	0.6472476
244	0x3ea78ab6	0.32723016
245	0x3d507318	0.050891012
246	0x3f0fe428	0.56207514
247	0x3eda860b	0.42680392
248	0x3e5a6f07	0.21331416
249	0x3eca70e3	0.3953925
250	0x3f1459da	0.579496
251	0x3f16ff38	0.5898318
252	0x407bc541	3.9339144
253	0x3f1b0c15	0.6056531
254	0x3f0e181c	0.5550554
255	0x3ed11447	0.40835783

l1.bias f4 [8]
0	0x3fd94dc9	1.6976863
1	0x3fe9fb90	1.8279896
2	0x3ffda518	1.9816008
3	0x40383ea0	2.8788223
4	0x3f870406	1.0548103
5	0x400501fd	2.0782464
6	0x400d64d6	2.2092795
7	0x3fc1bcdf	1.5135764

l2.weight f4 [8, 8]
0	0x3f3eb4c8	0.744946
1	0xbf7ba01d	-0.9829119
2	0xbe80283a	-0.2503069
3	0x401023e3	2.2521904
4	0x402b7b79	2.6794112
5	0xbec8f93d	-0.39252654
6	0xbd32b75f	-0.043631908
7	0x408f7014	4.4824314
8	0x3e4fd1c9	0.2029487
9	0x408d2aea	4.4114885
10	0xbeb44cf9	-0.35214975
11	0x402401b9	2.5626051
12	0x3fdca651	1.7238256
13	0x404b96f2	3.181088
14	0x3f71f207	0.9450993
15	0xbf53d5d1	-0.8274813
16	0x4042c3b7	3.0431955
17	0x3f5d0045	0.86328536
18	0x408283b0	4.078575
19	0x3f4dc310	0.80375767
20	0x40249954	2.5718584
21	0x3f31f640	0.6951637
22	0xbf4c3830	-0.79773235
23	0xbea6de70	-0.3259158
24	0x40319f76	2.7753577
25	0xbee17d74	-0.44041026
26	0x4055a01d	3.3378975
27	0x3f93ab92	1.1536734
28	0xbfa4f888	-1.2888346
29	0x3ecab540	0.39591408
30	0x400b0cd8	2.172659
31	0x4026325c	2.5968237
32	0xc0181e34	-2.3768435
33	0x3fd8923a	1.6919625
34	0x4005a965	2.088464
35	0x3f280f90	0.65648746
36	0x40113b53	2.2692459
37	0x3fc89c95	1.5672785
38	0xbf256b5e	-0.64616954
39	0x404c6f20	3.1942825
40	0x4019af16	2.4013114
41	0xbf3a81ef	-0.7285451
42	0xbf347877	-0.70496315
43	0x3f1a7009	0.603272
44	0x4036d2b8	2.8566113
45	0x3fc588b5	1.5432345
46	0xbf99395e	-1.1970632
47	0x3f01bd6a	0.5067965
48	0x3f977f05	1.1835638
49	0x3ebe5206	0.37171954
50	0xbc11c4fd	-0.008897063
51	0x402512c4	2.5792704
52	0xbe860e1b	-0.26182637
53	0x400421d6	2.0645652
54	0x40935629	4.6042676
55	0xbea5082d	-0.322328
56	0x3f9d7316	1.2300746
57	0x4029865f	2.6488264
58	0xbde038d9	-0.10948343
59	0x400606a6	2.0941558
60	0xbd94edff	-0.07271957
61	0xbfe7465f	-1.806835
62	0x3ec00b44	0.37508595
63	0x3fe702c5	1.804772

l2.bias f4 [8]
0	0x3fbaeed4	1.4604135
1	0x3f6a951b	0.91633767
2	0x40111f9c	2.2675543
3	0x3e9db343	0.30800828
4	0xbeb38c1d	-0.35067835
5	0xbfa48159	-1.2851974
6	0x4039420e	2.8946567
7	0xbdd0749c	-0.101784915

l3.weight f4 [39, 8]
0	0xbf3cc9ee	-0.7374562
1	0xbeb1fa3b	-0.34761223
2	0xbf32cbff	-0.69842523
3	0xc037128a	-2.8605065
4	0xbf07ad9d	-0.5299929
5	0xc01c95a3	-2.446633
6	0xc02c9565	-2.6966183
7	0x3f5e997f	0.86952966
8	0xbf9359f9	-1.1511832
9	0xbed65545	-0.4186193
10	0xbf5c4dd0	-0.8605623
11	0xbfc82372	-1.5635817
12	0xc02ff3f0	-2.7492638
13	0x3ef54a18	0.47908092
14	0xbf9f75d0	-1.2457829
15	0xbfc42899	-1.532489
16	0xc03c166d	-2.9388688
17	0xbf39abda	-0.7252785
18	0xbd6a255b	-0.05716453
19	0xbf976765	-1.1828429
20	0x3e0ec452	0.13942078
21	0xbeecde99	-0.4626358
22	0xbfdfc56d	-1.7482125
23	0xc0176559	-2.3655608
24	0xbdd786c3	-0.10523751
25	0xbfa6899d	-1.3010746
26	0xbfa1da89	-1.2644817
27	0xbf41dd7b	-0.7572858
28	0xbde2f586	-0.11081986
29	0xbe49d09a	-0.19708481
30	0xc06182c9	-3.5236075
31	0xbee6765a	-0.4501217
32	0xbfa3706b	-1.2768682
33	0x3ccac8ef	0.024754016
34	0xbf8baf9e	-1.0912969
35	0xbff9fe9d	-1.9530827
36	0x3e23972c	0.15975636
37	0xbf1cf137	-0.61305565
38	0xc0422235	-3.0333378
39	0xbf816c17	-1.0111111
40	0xbec64f60	-0.38732433
41	0xbf66a12e	-0.9008969
42	0xbf8ff8a3	-1.1247753
43	0xbf8a119e	-1.0786626
44	0xbd9a1923	-0.07524326
45	0xbf5fb650	-0.8738756
46	0xbfb1ceaa	-1.3891194
47	0xc056923d	-3.3526757
48	0xbef375a3	-0.47550687
49	0xbffc5bcc	-1.9715514
50	0xbf851278	-1.0396261
51	0xbf281a29	-0.6566492
52	0x3de2cb6c	0.11073956
53	0xc017e78a	-2.373507
54	0xbfb3ddcb	-1.4052061
55	0xbf992b68	-1.1966372
56	0xc00071ed	-2.0069535
57	0xbfe175b5	-1.7614046
58	0x3e8264ed	0.25467625
59	0xbf0c6d06	-0.54853857
60	0xbecb83bf	-0.39748952
61	0xbf33c08d	-0.70215684
62	0xbffec14b	-1.9902738
63	0xbfab877f	-1.3400725
64	0xbde29e46	-0.110653445
65	0xbfdbce50	-1.7172337
66	0xc025b01b	-2.5888736
67	0xbedbaeb6	-0.4290673
68	0xc0513b45	-3.2692425
69	0x3f7806a8	0.96885157
70	0xbdf34676	-0.11878674
71	0xbfb7923d	-1.4341503
72	0x3f43d697	0.76499313
73	0xc057eb1d	-3.3737252
74	0xc03c471c	-2.9418402
75	0x3e6746ba	0.22585574
76	0xbfa4c06e	-1.2871225
77	0xbd361cdb	-0.044461112
78	0xbf992aa0	-1.1966133
79	0x3f210af1	0.6290732
80	0x3d1ecf1a	0.038771726
81	0xc06170b5	-3.522504
82	0xbed47fb2	-0.41503674
83	0xbe7f8fb9	-0.2495717
84	0xbf03aef3	-0.51438826
85	0x3dd67076	0.10470669
86	0xc036a8d9	-2.8540556
87	0x3eb17273	0.3465763
88	0xbf4db794	-0.80358243
89	0xc0957e34	-4.6716557
90	0xbea54a3f	-0.32283208
91	0x3f2fe48f	0.6870813
92	0xbf95add7	-1.1693677
93	0xbe959e07	-0.29222128
94	0xbeaa14c4	-0.33218968
95	0xbf91d8e4	-1.1394315
96	0xbf89d5eb	-1.0768408
97	0x3e5bda94	0.214701
98	0xc097ccb4	-4.743738
99	0xbfd70e26	-1.6801193
100	0x3e17398c	0.14768046
101	0xbfac0f34	-1.344214
102	0xbf7b2510	-0.9810343
103	0xba5bcb64	-0.00083844946
104	0xbfe637ca	-1.7985775
105	0xbd865bb3	-0.06560459
106	0xc055acc9	-3.338671
107	0xbfac1a13	-1.3445457
108	0xbbc8895f	-0.0061198915
109	0xc0691481	-3.6418765
110	0xbe407649	-0.18795122
111	0xbf12b9e8	-0.5731492
112	0xbd6d3c87	-0.05791905
113	0xbfaa294b	-1.3293852
114	0xc086b4bc	-4.2095623
115	0xbf10eb83	-0.5660936
116	0xbeb7f054	-0.35925543
117	0xbfb2a142	-1.3955462
118	0xbfb730b6	-1.431174
119	0x3f538a65	0.8263305
120	0xbded7ef8	-0.11596483
121	0xbea96acd	-0.33089295
122	0xc0d96151	-6.7931294
123	0xbf6568ce	-0.89613044
124	0x3eb48a26	0.3526165
125	0xbfb5129e	-1.4146307
126	0xbe115dec	-0.14195985
127	0xbee53b40	-0.44771767
128	0xbf8d7300	-1.105072
129	0x3d8fa79d	0.070143916
130	0xc012d86c	-2.2944593
131	0xc02cc573	-2.6995513
132	0xbe7f1c80	-0.24913216
133	0xbd124bc8	-0.035716802
134	0xbfb9f91f	-1.4529151
135	0xbf892a01	-1.0715944
136	0xc0142ba0	-2.3151627
137	0xbeb5fcb2	-0.35544354
138	0xc0141848	-2.313982
139	0xbfc293eb	-1.5201391
140	0x3dea7dd3	0.1144978
141	0xbe81c2c7	-0.25343916
142	0xbceddcb4	-0.029035904
143	0xc03cf5f2	-2.9525113
144	0xbeb2be54	-0.34910834
145	0xbf608886	-0.8770832
146	0xc0419c2f	-3.0251577
147	0xbf818a9f	-1.0120429
148	0xbf1599a4	-0.5843756
149	0xbe84853c	-0.258829
150	0xbf96a73e	-1.1769788
151	0xbf921753	-1.1413368
152	0xbece41a0	-0.40284443
153	0xbd5f2baf	-0.05448502
154	0xc0acd5e5	-5.40111
155	0xbf1a31c0	-0.6023216
156	0x3e024792	0.12722614
157	0xbe8bc30f	-0.27297255
158	0xbe083d4b	-0.13304631
159	0xc03e3358	-2.9718838
160	0x3fb03ca8	1.3768511
161	0xbf969904	-1.1765447
162	0xc00d2319	-2.2052672
163	0xbfd87738	-1.6911383
164	0xc063ced2	-3.5594983
165	0xc0686ace	-3.6315188
166	0x3e89fde6	0.26951522
167	0xbe89f50a	-0.26944762
168	0xbfbb65e3	-1.4640468
169	0xbf1d361f	-0.6141071
170	0xc041cdd7	-3.0281885
171	0x3e86b825	0.26312366
172	0xc0735be7	-3.8024843
173	0xbf8066ec	-1.0031409
174	0x3eeaa89a	0.45831758
175	0xbfbbbfca	-1.4667904
176	0xc08d7a70	-4.421196
177	0xbf69c88d	-0.9132164
178	0xbf8e33db	-1.1109575
179	0xbe00aca6	-0.1256586
180	0xbdf8847d	-0.12134645
181	0xc03c889e	-2.9458385
182	0xbf1f6571	-0.6226416
183	0xbf354cad	-0.7082012
184	0xc0109eec	-2.2596998
185	0xc027ae97	-2.620031
186	0xc03aa58b	-2.916354
187	0x3f9af5aa	1.2106221
188	0xbfad8e4d	-1.3559052
189	0xc0402712	-3.0023847
190	0x3f6b0562	0.9180509
191	0xbf1ed316	-0.6204084
192	0xbff811c4	-1.9380422
193	0xbfe457c0	-1.7839279
194	0x3ec2853b	0.37992272
195	0xbe1ed34a	-0.15510288
196	0xc018ee0c	-2.3895292
197	0xc014c776	-2.3246741
198	0xbf26969b	-0.65073556
199	0xbfc363f2	-1.5264876
200	0xbf39a786	-0.72521245
201	0xbfa7e566	-1.3116882
202	0xbf5003fd	-0.81256086
203	0xbfa8db5f	-1.3191947
204	0xbff22481	-1.891739
205	0xbf618f9a	-0.88109744
206	0xbff9240d	-1.9464127
207	0x3f1c4887	0.6104817
208	0xc019dc83	-2.404084
209	0xbf5d1caf	-0.8637189
210	0xc00093aa	-2.0090127
211	0xbf058249	-0.52151924
212	0xc022fd9e	-2.5467296
213	0xc03b792d	-2.929271
214	0xbe96b269	-0.2943299
215	0x3f7d2c60	0.98895836
216	0x3f09cfce	0.5383271
217	0xc09f0b7c	-4.970152
218	0xbf8ac904	-1.0842595
219	0x3eb3d5c4	0.35124028
220	0xc055d95f	-3.3413923
221	0xbf994c24	-1.1976361
222	0x3f03079a	0.51183474
223	0x3ee529c9	0.44758442
224	0x3ead8b29	0.33895233
225	0xbfa935b1	-1.321951
226	0x3d9e6f8b	0.07736119
227	0xbf50cbe8	-0.81561136
228	0xbe1a69a1	-0.15079357
229	0x3d0d050b	0.034428637
230	0xc0524b37	-3.2858407
231	0xc077ef96	-3.8739982
232	0x3f897a83	1.0740513
233	0xbff715f1	-1.9303571
234	0xc0b8d31e	-5.775771
235	0x3d256247	0.040376928
236	0xbf1a9e2d	-0.6039761
237	0xbf01ed92	-0.5075313
238	0x3e06d550	0.1316731
239	0xbfa7e24b	-1.3115934
240	0x3eb822dc	0.35964096
241	0xbf74c20c	-0.9560859
242	0xc00c82de	-2.1954875
243	0xbfcea263	-1.6143306
244	0xbf4e6f85	-0.80638915
245	0x3dc97bc1	0.09838057
246	0xbe9ecec5	-0.31017128
247	0xc0874c61	-4.2280736
248	0xbd2b51ae	-0.041825943
249	0xc00c78b8	-2.194868
250	0x3e9ed1ac	0.31019342
251	0xbf6e46a2	-0.9307653
252	0xc0330b44	-2.7975626
253	0x3ed473c9	0.41494587
254	0xbfb92e45	-1.4467245
255	0xbffd1646	-1.9772422

l3.bias f4 [39]
0	0x3e91e10e	0.28492016
1	0xbf226e30	-0.6344938
2	0xbf3dd610	-0.7415476
3	0xbfcde4d0	-1.6085453
4	0xbf7ac00f	-0.9794931
5	0xbfd29f8d	-1.6454941
6	0x3f06800b	0.5253913
7	0xbea1af66	-0.3157913
8	0xbf35c7b7	-0.71007866
9	0xbf2545e1	-0.6455975
10	0xbf586047	-0.8452191
11	0xbd9cbe5a	-0.07653494
12	0xbf002d55	-0.5006917
13	0xbd8691b1	-0.06570757
14	0xbf66eb32	-0.9020263
15	0xbf0261e4	-0.5093062
16	0xbf87fbd0	-1.0623722
17	0xbeca5eb2	-0.39525372
18	0xbfee4a56	-1.8616436
19	0xbf21973b	-0.63121384
20	0x3f1c22c8	0.6099057
21	0xbf084acd	-0.53239137
22	0xbe2aecae	-0.16691849
23	0x3e8d1ecd	0.27562562
24	0x3f6dbd92	0.92867386
25	0x3e6ef2a3	0.23334746
26	0xbee8a536	-0.45438546
27	0x3f3917cb	0.7230193
28	0xbeaa42fd	-0.33254233
29	0x3e8e1302	0.27748877
30	0xbc53e605	-0.012933259
31	0xbd9e7386	-0.07736878
32	0x3f5514c3	0.83234805
33	0x3eaf33e2	0.3421927
34	0xbf4228d2	-0.75843537
35	0xbe349d00	-0.17638016
36	0xbf143c60	-0.57904625
37	0x3cee21e6	0.029068898
38	0x3e2b6cc3	0.16740708
