src/data.pth (torch, 10795 bytes, 6 tensors)

l1.weight f4 [8, 129]
1.1995871 0.122965455 0.25733572 -0.26488096 0.70908535 0.29869175 0.25092646 -0.47162956
0.3239305 0.4850882 0.92301136 -0.11303997 0.34930927 1.1345129 1.1322349 -0.42174605
2.2170708 0.6041735 -0.31819466 0.56172717 2.6078527 1.5696083 0.64306384 0.9072988
-0.2692451 1.5248283 -1.4390986 1.6649752 1.5886298 0.20922129 0.84053695 0.44000852
1.8987317 -0.7733805 -0.3001619 0.4446358 -1.3096169 0.47944856 2.20674 0.1915938
-0.3632168 -1.0879053 -0.69822115 1.5042601 -1.0443621 0.4504585 0.9792215 1.4892174
1.0332445 0.95770735 0.41255835 1.0501633 2.0533228 0.68198514 1.9732354 2.0228372
2.0817537 1.2213261 0.9296934 0.23855184 1.3398674 0.5211565 2.2804923 0.3057299
1.948392 -0.76146406 1.3565552 0.704341 1.1391516 1.2071506 0.32747418 -0.11554862
-0.57684016 -0.8877702 0.025018796 0.57323164 2.3916304 0.4314011 2.1925645 0.016220812
0.80009097 0.598749 -0.038590994 1.9104065 1.5465133 -0.50857574 -0.0015979649 -0.24506967
-0.25413403 -0.35270476 2.2082772 2.0040035 1.0401285 1.6759839 -0.2952194 -0.7507255
-0.91696864 0.18056661 0.9407429 1.9427458 1.055871 0.5205593 0.31796962 0.5204805
1.7565602 0.7250923 0.10997572 0.08471491 1.2458557 0.43955034 1.2429651 0.7345879
-0.28130418 2.0642736 1.5531559 1.4718992 0.27426922 0.14203951 0.3443955 1.0449337
2.4867008 -1.8794844 1.478918 -0.35536453 0.66805875 -0.7267652 -0.65148294 -0.2107302
0.30393997 0.22243457 -0.9915752 0.44650045 0.05868379 1.2949467 0.39760545 0.47123593
1.1357524 0.71474606 0.16623524 0.11829813 1.5330695 1.1299897 -0.069963865 1.0113226
-0.21647169 1.8178855 0.8105282 1.2271855 -1.3490082 2.1088574 -0.39860776 -1.3143677
1.2057309 0.50481135 1.5336946 1.3426564 2.008011 0.55596226 0.048829474 0.9456969
0.8806554 -0.5361721 3.085577 -0.22143126 -0.37045917 0.060595892 -0.048937272 0.2857412
0.68416417 -0.09120423 0.0025564358 -0.29525453 -0.53807914 0.78438014 0.15403236 0.084667
-0.6550632 1.4155166 0.15813844 0.18685548 -0.018211046 -0.47811958 2.031697 -0.5224596
-0.6177966 1.5239258 -0.08470186 0.9696468 0.6036857 0.9607856 0.67718023 1.999239
0.08346682 0.31093314 1.3622841 0.2918011 -1.7848693 0.9339542 -1.0468044 -1.156883
-0.2968318 0.30346367 2.177609 0.35305497 0.8244471 -0.5701129 0.40471518 -0.3578589
0.02454191 1.4170996 -1.2811188 0.6696231 2.1762745 0.74902683 1.116056 -1.0374163
-0.42196307 -0.20163916 0.18819575 0.13520518 -0.3843708 0.98319453 0.20158646 1.5432228
2.6393852 2.1267354 0.58990294 0.28484353 0.29266983 -0.20122059 0.8580419 0.60431874
1.8218573 3.098483 1.340465 0.5784149 -0.7159425 -1.6009129 0.69343215 -0.0022017045
-1.3945189 7.37831e-05 0.8579511 1.4358839 0.73837227 0.52236164 -0.051737778 -0.33160463
0.8623394 0.53475016 0.79996514 1.3063015 -0.37267372 -0.1259388 -0.32494563 -0.24119209
00000000: 128c 993f 50d5 fb3d 82c1 833e 7a9e 87be
00000010: 9e86 353f 20ee 983e 6f79 803e 6e79 f1be
00000020: 38da a53e 7b5d f83e 794a 6c3f 8081 e7bd
00000030: aad8 b23e b837 913f 13ed 903f 19ef d7be
00000040: 7de4 0d40 1dab 1a3f 69ea a2be 5acd 0f3f
00000050: 0fe7 2640 ede8 c83f d59f 243f bc44 683f
00000060: 7eda 89be 932d c33f 6234 b8bf e81d d53f
00000070: 3958 cb3f 1b3e 563e 6e2d 573f cc48 e13e
00000080: a409 f33f 44fc 45bf d2ae 99be 4ea7 e33e
00000090: 87a1 a7bf 487a f53e 3a3b 0d40 2a31 443e
000000a0: 8df7 b9be 7b40 8bbf 9fbe 32bf 988b c03f
000000b0: a8ad 85bf 7fa2 e63e 43ae 7a3f ad9e be3f
000000c0: 5b41 843f 4f2c 753f d93a d33e c06b 863f
000000d0: a469 0340 9496 2e3f fa92 fc3f 2a76 0140
000000e0: 743b 0540 6a54 9c3f 6300 6e3f ef46 743e
000000f0: c680 ab3f 836a 053f 96f3 1140 a188 9c3e
00000100: e964 f93f 4fef 42bf 9aa3 ad3f b14f 343f
00000110: b8cf 913f e983 9a3f b2aa a73e c1a4 ecbd
00000120: ccab 13bf e844 63bf 38f4 cc3c 4fbf 123f
00000130: 7910 1940 9be0 dc3e fa52 0c40 82e1 843c
00000140: c3d2 4c3f 9d47 193f 9711 1ebd 3388 f43f
00000150: 26f4 c53f 0532 02bf ce72 d1ba 8bf3 7abe
00000160: db1d 82be b895 b4be 6a54 0d40 9841 0040
00000170: ee22 853f a486 d63f ff26 97be 8c2f 40bf
00000180: 75be 6abf 74e6 383e 87d4 703f e5ab f83f
00000190: c826 873f 6043 053f eacc a23e 363e 053f
000001a0: f7d6 e03f a69f 393f f33a e13d 037f ad3d
000001b0: 3378 9f3f be0c e13e 7b19 9f3f f40d 3c3f
000001c0: 1a07 90be 0f1d 0440 d0cd c63f 3167 bc3f
000001d0: 046d 8c3e ce72 113e 9b54 b03e 63c0 853f
000001e0: 1b26 1f40 f292 f0bf 2f4d bd3f 57f2 b5be
000001f0: e605 2b3f 490d 3abf 96c7 26bf a8c9 57be
00000200: 059e 9b3e e3c5 633e dfd7 7dbf b59b e43e
00000210: 6a5e 703d d0c0 a53f f192 cb3e d645 f13e
00000220: 5660 913f 99f9 363f 9239 2a3e 4a46 f23d
00000230: 9f3b c43f 81a3 903f 3749 8fbd 0573 813f
00000240: c1aa 5dbe 79b0 e83f c77e 4f3f 6a14 9d3f
00000250: 4dac acbf 85f7 0640 5116 ccbe 333d a8bf
00000260: 6455 9a3f 513b 013f 1b50 c43f 2adc ab3f
00000270: 4183 0040 8b53 0e3f 6a01 483d 3119 723f
00000280: a272 613f 9342 09bf 187a 4540 e0be 62be
00000290: d3ac bdbe 6633 783d 7372 48bd ac4c 923e
000002a0: 6225 2f3f 49c9 babd e089 273b 9a2b 97be
000002b0: 8ebf 09bf 23cd 483f a9ba 1d3e e465 ad3d
000002c0: 39b2 27bf a62f b53f 0bef 213e 0b57 3f3e
000002d0: 552f 95bc 17cc f4be 5307 0240 eabf 05bf
000002e0: eb27 1ebf 0010 c33f 2b78 adbd c63a 783f
000002f0: 258b 1a3f 0cf6 753f af5b 2d3f 10e7 ff3f
00000300: a7f0 aa3d a132 9f3e 535f ae3f f466 953e
00000310: 9976 e4bf 9f17 6f3f b0fd 85bf be14 94bf
00000320: 56fa 97be 975f 9b3e f25d 0b40 9fc3 b43e
00000330: f70e 533f ebf2 11bf d436 cf3e 4839 b7be
00000340: 1e0c c93c 8563 b53f b3fb a3bf 6b6c 2b3f
00000350: 1548 0b40 39c0 3f3f ecda 8e3f 0fca 84bf
00000360: 8b0b d8be 7f7a 4ebe 63b6 403e 3a73 0a3e
00000370: 40cc c4be a3b2 7b3f ae6c 4e3e 5388 c53f
00000380: b0eb 2840 6f1c 0840 e103 173f 03d7 913e
00000390: d2d8 953e c50c 4ebe a2a8 5b3f a2b4 1a3f
000003a0: 9f32 e93f 8c4d 4640 5b94 ab3f 0013 143f
000003b0: 0248 37bf b7ea ccbf c584 313f 794a 10bb
000003c0: 987f b2bf 00bc 9a38 afa2 5b3f 0bcb b73f
000003d0: f705 3d3f 7eb9 053f feea 53bd 15c8 a9be
000003e0: 46c2 5c3f 63e5 083f 84ca 4c3f e334 a73f
000003f0: 17cf bebe 1af6 00be 465f a6be 0ffb 76be

l1.bias f4 [8]
2.1845193 1.2827088 1.8023552 2.2190645 2.1052876 0.9280516 2.813017 1.0432818
00000000: 2acf 0b40 cd2f a43f 93b3 e63f 2705 0e40
00000010: 08bd 0640 ca94 6d3f 7808 3440 428a 853f

l2.weight f4 [8, 8]
1.3184377 -2.1038477 1.6742421 0.44366005 3.1212375 -1.2565366 1.9667151 1.1208494
3.2895405 0.8591955 -2.113755 2.1565123 3.3579593 2.0402749 -1.3052272 0.93820596
2.3301878 -0.93581825 2.1636546 1.6310164 1.0768486 -1.040486 0.30085084 -0.23287399
-0.34236607 -1.0535674 -1.1390506 1.8379334 -1.1606843 0.3282917 2.0243993 3.2099423
1.2444881 0.13554671 0.97093886 2.145898 1.4212244 -2.0298302 0.7895555 -1.0993035
-1.7117691 0.14414546 -0.40991786 1.4272107 0.4100739 0.87884516 2.301841 1.3404986
-0.06421855 -0.90833396 -0.6444507 2.436734 1.8121989 2.1020226 1.1876674 -1.126407
1.7110939 4.2217274 4.2294955 -0.64933735 0.55301887 2.1382518 3.2938294 2.622609
00000000: 91c2 a83f 71a5 06c0 914d d63f 6927 e33e
00000010: 5bc2 4740 31d6 a0bf 52bd fb3f fe77 8f3f
00000020: d587 5240 3cf4 5b3f c347 07c0 4c04 0a40
00000030: cee8 5640 dd93 0240 af11 a7bf 442e 703f
00000040: cc21 1540 c991 6fbf 5179 0a40 25c5 d03f
00000050: 2dd6 893f a52e 85bf 1f09 9a3e 8576 6ebe
00000060: 9b4a afbe 4cdb 86bf 69cc 91bf 6741 eb3f
00000070: 4e91 94bf da15 a83e c28f 0140 b26f 4d40
00000080: 634b 9f3f c2cc 0a3e 738f 783f 6556 0940
00000090: aeea b53f bde8 01c0 4f20 4a3f fab5 8cbf
000000a0: 401b dbbf de9a 133e c1e0 d1be d7ae b63f
000000b0: 35f5 d13e fffb 603f 5d51 1340 7595 ab3f
000000c0: 0485 83bd 9388 68bf b9fa 24bf 73f3 1b40
000000d0: 22f6 e73f 8a87 0640 7c05 983f 1b2e 90bf
000000e0: 2005 db3f 6418 8740 0758 8740 f93a 26bf
000000f0: a592 0d3f 1ed9 0840 1ace 5240 d3d8 2740

l2.bias f4 [8]
0.37114036 0.40358812 0.9658804 0.6911817 1.213017 0.52207345 0.5693185 1.5441272
00000000: 1c06 be3e 1aa3 ce3e f043 773f 49f1 303f
00000010: 2444 9b3f 9ba6 053f dbbe 113f f6a5 c53f

l3.weight f4 [44, 8]
0.7274702 -2.35456 0.5251195 -1.7464406 -0.7089514 -1.7866933 -2.2794697 -0.61371183
-0.37144706 -2.3704758 -0.22401486 -2.05007 -1.7305044 -1.947822 -2.8233185 0.6537553
-0.00064359576 0.39493677 0.0081732925 -0.070345275 -1.0549488 -1.9244354 -0.102832966 -2.2171016
-1.2369407 0.51751196 -0.15766403 -0.61387354 -3.441757 -4.143896 -1.2318869 0.1585838
-1.0977573 -0.027187992 -3.7612598 0.5613939 -2.6639934 -0.3005003 -1.6249545 -0.15735741
0.08312976 0.02251644 0.8376338 -2.8551505 -3.4640546 -4.5334687 -1.894108 0.14690974
-0.68016285 -0.35514072 0.2428608 -3.5439162 -0.43115854 -5.4011383 0.08516285 -0.27771604
-0.16555142 -0.31999263 -0.15602241 -0.02761043 0.39367202 -0.52905124 0.34200364 -3.2579834
-2.9562097 1.2174839 -0.20342582 -2.744645 -2.5978875 -1.0083848 0.5806676 -0.7582148
-0.62332934 1.1844256 0.0056172963 -1.8586555 -1.1363909 -2.2651632 0.54807276 -2.100511
0.109722815 0.5579969 0.44354743 -1.5600699 0.3628014 -3.355471 0.20877743 -2.6242185
0.6968819 -0.66301817 0.75324935 -2.9869335 0.30385613 -3.963892 -0.99934715 -1.3802459
-0.533392 -2.0412414 -2.8168201 0.75629616 -2.963551 0.37978882 -2.1079865 -0.2363797
0.33685505 -0.60084003 -0.1790134 0.52490395 -0.8047281 -0.5150448 -1.0691885 -2.322231
-0.35952517 -0.4674231 -0.4607164 0.5368656 -3.7507799 -0.6880617 -3.496473 -0.3078922
0.59824055 -1.5385923 0.27263772 0.02543324 -1.7299876 -2.1095061 -3.959645 -0.49610752
-1.2941623 -0.92819625 -1.6003809 -0.31356356 -3.758343 0.2356936 0.46656427 -0.53419924
-3.5904255 -1.0505111 -2.636279 1.0987239 -1.8315037 0.71710134 -2.9492576 0.2785148
-0.41625714 0.14938562 -0.84336543 -0.061887268 -1.9751801 -0.1575242 -0.49875614 -1.6347333
-2.5730195 0.2161283 -0.2168002 0.25926572 -3.2765205 -0.85540336 -2.3587213 0.0102496315
-0.2957629 -0.262103 -0.14417921 -0.9381496 -3.7094123 -2.253263 -3.7726789 0.36958605
0.13199262 -1.9299414 -1.2720325 -0.493465 -1.8731254 0.039238572 -0.31980464 -0.85794914
-0.7113749 -1.4859703 -0.25084653 0.23072262 -0.15188663 -0.12758273 0.029079445 -2.0608184
-0.3527638 -0.4126667 0.54267174 -0.09792009 -0.13413417 -4.528681 -3.5762517 -0.44070747
-1.1587847 -1.215783 -0.61188745 -0.03506367 -4.493962 -0.032353543 -0.8730464 -0.10309643
-2.1252494 -1.5913687 0.20688967 -0.56287163 -0.21087782 -2.3873155 -1.4639016 0.06934829
-1.7910422 -0.55198956 -0.22717637 -1.1605744 -3.1239629 -0.67437774 -0.36058602 -0.09610003
-1.0750384 -1.3921676 0.45456976 0.94439685 -2.2703428 -0.9173189 -0.3470695 -1.1361517
0.6285047 -0.5893976 -0.29288647 -0.6724585 -3.5431745 -2.1970406 -0.9563018 -0.5281289
-0.39442253 -2.4882789 0.34607157 0.083531246 -3.0860424 0.3549956 -2.8357213 -0.41007254
-4.5191855 -0.032546684 -1.0615213 -0.15870383 -0.3960037 0.21418296 0.6481792 -1.0007151
-0.13548471 -0.26278546 -0.3460539 -0.6252043 -5.172908 -0.25160554 0.40397045 -0.9787475
00000000: 7d3b 3a3f 1cb1 16c0 3b6e 063f 5e8b dfbf
00000010: d77d 35bf 5eb2 e4bf d5e2 11c0 381c 1dbf
00000020: 4f2e bebe e0b5 17c0 2764 65be 5934 03c0
00000030: 2b81 ddbf 3b52 f9bf 40b1 34c0 825c 273f
00000040: fbb6 28ba 2735 ca3e 46e9 053c 2f11 90bd
00000050: 9008 87bf e653 f6bf 179a d2bd fee4 0dc0
00000060: 1354 9ebf aa7b 043f ae72 21be d126 1dbf
00000070: bf45 5cc0 cc9a 84c0 78ae 9dbf cb63 223e
00000080: 5083 8cbf 5ab9 debc 7bb8 70c0 83b7 0f3f
00000090: de7e 2ac0 2ddb 99be 82fe cfbf 4d22 21be
000000a0: f03f aa3d 6674 b83c 2b6f 563f c9ba 36c0
000000b0: 12b3 5dc0 2d12 91c0 2272 f2bf 826f 163e
000000c0: 271f 2ebf 01d5 b5be 80b0 783e 86cf 62c0
000000d0: d0c0 dcbe 20d6 acc0 dc69 ae3d cc30 8ebe
000000e0: 5086 29be 13d6 a3be 57c4 1fbe 452f e2bc
000000f0: 618f c93e e76f 07bf 1a1b af3e cd82 50c0
00000100: 8a32 3dc0 83d6 9b3f dc4e 50be 44a8 2fc0
00000110: ca43 26c0 c112 81bf a2a6 143f 5d1a 42bf
00000120: 8392 1fbf 429b 973f 4c11 b83b 6ce8 edbf
00000130: 4275 91bf 6ff8 10c0 7f4e 0c3f c66e 06c0
00000140: 5bb6 e03d e3d8 0e3f a618 e33e 5fb0 c7bf
00000150: 1bc1 b93e 09c0 56c0 c0c9 553e 32f3 27c0
00000160: da66 323f 8fbb 29bf f3d4 403f eb29 3fc0
00000170: 0893 9b3e 68b0 7dc0 37d5 7fbf e6ab b0bf
00000180: 618c 08bf b3a3 02c0 c846 34c0 a09c 413f
00000190: d2aa 3dc0 ae73 c23e 40e9 06c0 850d 72be
000001a0: 4478 ac3e a7d0 19bf 4a4f 37be 1b60 063f
000001b0: a902 4ebf fad9 03bf 2bdb 88bf 6f9f 14c0
000001c0: af13 b8be 1552 efbe 05e3 ebbe 0670 093f
000001d0: c70c 70c0 d024 30bf 37c6 5fc0 0ca4 9dbe
000001e0: 4b26 193f 98f0 c4bf 2c97 8b3e 5f59 d03c
000001f0: 3c70 ddbf 2602 07c0 d36a 7dc0 ce01 febe
00000200: 1ca7 a5bf 459e 6dbf 48d9 ccbf 678b a0be
00000210: b188 70c0 aa59 713e 83e1 ee3e 48c1 08bf
00000220: 88c9 65c0 2677 86bf ccb8 28c0 fca2 8c3f
00000230: b76e eabf f493 373f a3c0 3cc0 7e99 8e3e
00000240: a81f d5be 8bf8 183e cce6 57bf 817d 7dbd
00000250: b4d2 fcbf 064e 21be f75c ffbe f13e d1bf
00000260: 5aac 24c0 bd50 5d3e df00 5ebe 7abe 843e
00000270: 83b2 51c0 b7fb 5abf 4af5 16c0 12ee 273c
00000280: 3c6e 97be 5d32 86be b7a3 13be 922a 70bf
00000290: 0367 6dc0 7635 10c0 9273 71c0 623a bd3e
000002a0: 1329 073e 5208 f7bf f6d1 a2bf 72a7 fcbe
000002b0: 93c2 efbf a0b8 203d 6fbd a3be 8ea2 5bbf
000002c0: aa1c 36bf 4634 bebf f56e 80be 8d42 6c3e
000002d0: 2b88 1bbe 0ca5 02be 0438 ee3c 73e4 03c0
000002e0: 759d b4be 0d49 d3be 89ec 0a3f 548a c8bd
000002f0: 785a 09be f4ea 90c0 4fe1 64c0 69a4 e1be
00000300: 0f53 94bf c79e 9bbf a8a4 1cbf ec9e 0fbd
00000310: 89ce 8fc0 2685 04bd f87f 5fbf 3924 d3bd
00000320: 1604 08c0 f8b1 cbbf e3da 533e 5b18 10bf
00000330: 5bf0 57be c7c9 18c0 2161 bbbf 7a06 8e3d
00000340: df40 e5bf 304f 0dbf eca0 68be b48d 94bf
00000350: 02ef 47c0 05a4 2cbf bb9e b8be 18d0 c4bd
00000360: dc9a 89bf 8c32 b2bf 5ebd e83e fec3 713f
00000370: 4c4d 11c0 69d5 6abf 18b3 b1be 6b6d 91bf
00000380: afe5 203f c3e2 16bf 37f5 95be 3e26 2cbf
00000390: 5fc3 62c0 509c 0cc0 32d0 74bf 7533 07bf
000003a0: c0f1 c9be f63f 1fc0 4b30 b13e 6e12 ab3d
000003b0: b881 45c0 fcc1 b53e 757c 35c0 07f5 d1be
000003c0: 2b9d 90c0 ac4f 05bd eedf 87bf 4283 22be
000003d0: ffc0 cabe c752 5b3e 12ef 253f 6f17 80bf
000003e0: 81bc 0abe d18b 86be fa2d b1be 640d 20bf
000003f0: 7688 a5c0 71d2 80be 37d5 ce3e 328f 7abf

l3.bias f4 [44]
-0.06376686 -0.2535999 -1.0290563 0.18945484 -0.42904335 -0.6418289 0.3251521 -0.074089095
0.5141272 -0.35676503 -0.022421021 -0.63846976 -0.52325875 -0.9289167 -0.12668216 -0.3732831
-0.20999578 0.04281314 -0.67746747 -0.1782829 -0.28510463 -0.7893887 -0.43702725 0.23597145
-0.4354581 -0.20459847 0.12135538 0.17667527 0.017895155 0.18361805 0.5322779 -0.1723238
2.096811 -0.37849146 -0.41420475 -0.14376488 0.03193552 -0.26457104 0.53703165 -0.56037444
0.15787035 -0.5448177 -0.02800186 0.29894203
00000000: 3398 82bd d9d7 81be 1eb8 83bf 7300 423e
00000010: 92ab dbbe e64e 24bf 567a a63e 06bc 97bd
00000020: d79d 033f e8a9 b6be 4aac b7bc c172 23bf
00000030: 49f4 05bf 7ccd 6dbf f8b8 01be f61e bfbe
00000040: 2209 57be d55c 2f3d 826e 2dbf cb8f 36be
00000050: 3cf9 91be 6115 4abf 09c2 dfbe 80a2 713e
00000060: 5df4 debe 4382 51be 2b89 f83d 5dea 343e
00000070: dc98 923c 5f06 3c3e 5d43 083f a675 30be
00000080: 2732 0640 a2c9 c1be a512 d4be 1a37 13be
00000090: d2ce 023d db75 87be e87a 093f b374 0fbf
000000a0: c4a8 213e 2c79 0bbf 2864 e5bc ee0e 993e
